{"class_name": "Model", "keras_version": "2.0.7", "config": {"layers": [{"class_name": "InputLayer", "config": {"dtype": "float32", "batch_input_shape": [null, 10, 100, 1], "name": "input_1", "sparse": false}, "inbound_nodes": [], "name": "input_1"}, {"class_name": "Conv2D", "config": {"kernel_initializer": {"class_name": "VarianceScaling", "config": {"distribution": "uniform", "scale": 1.0, "seed": null, "mode": "fan_avg"}}, "name": "conv2d_1", "kernel_constraint": null, "bias_regularizer": null, "bias_constraint": null, "dtype": "float32", "activation": "relu", "trainable": true, "data_format": "channels_last", "filters": 32, "padding": "valid", "strides": [1, 1], "dilation_rate": [1, 1], "kernel_regularizer": null, "bias_initializer": {"class_name": "Zeros", "config": {}}, "batch_input_shape": [null, 10, 100, 1], "use_bias": true, "activity_regularizer": null, "kernel_size": [4, 4]}, "inbound_nodes": [[["input_1", 0, 0, {}]]], "name": "conv2d_1"}, {"class_name": "Conv2D", "config": {"kernel_constraint": null, "kernel_initializer": {"class_name": "VarianceScaling", "config": {"distribution": "uniform", "scale": 1.0, "seed": null, "mode": "fan_avg"}}, "name": "conv2d_2", "bias_regularizer": null, "bias_constraint": null, "activation": "relu", "trainable": true, "data_format": "channels_last", "padding": "valid", "strides": [1, 1], "dilation_rate": [1, 1], "kernel_regularizer": null, "filters": 64, "bias_initializer": {"class_name": "Zeros", "config": {}}, "use_bias": true, "activity_regularizer": null, "kernel_size": [2, 2]}, "inbound_nodes": [[["conv2d_1", 0, 0, {}]]], "name": "conv2d_2"}, {"class_name": "Conv2D", "config": {"kernel_constraint": null, "kernel_initializer": {"class_name": "VarianceScaling", "config": {"distribution": "uniform", "scale": 1.0, "seed": null, "mode": "fan_avg"}}, "name": "conv2d_3", "bias_regularizer": null, "bias_constraint": null, "activation": "relu", "trainable": true, "data_format": "channels_last", "padding": "valid", "strides": [1, 1], "dilation_rate": [1, 1], "kernel_regularizer": null, "filters": 64, "bias_initializer": {"class_name": "Zeros", "config": {}}, "use_bias": true, "activity_regularizer": null, "kernel_size": [2, 2]}, "inbound_nodes": [[["conv2d_2", 0, 0, {}]]], "name": "conv2d_3"}, {"class_name": "MaxPooling2D", "config": {"name": "max_pooling2d_1", "trainable": true, "data_format": "channels_last", "pool_size": [3, 3], "padding": "valid", "strides": [3, 3]}, "inbound_nodes": [[["conv2d_3", 0, 0, {}]]], "name": "max_pooling2d_1"}, {"class_name": "Dropout", "config": {"rate": 0.5, "trainable": true, "name": "dropout_1"}, "inbound_nodes": [[["max_pooling2d_1", 0, 0, {}]]], "name": "dropout_1"}, {"class_name": "Flatten", "config": {"trainable": true, "name": "flatten_1"}, "inbound_nodes": [[["dropout_1", 0, 0, {}]]], "name": "flatten_1"}, {"class_name": "InputLayer", "config": {"dtype": "float32", "batch_input_shape": [null, 1, 10], "name": "input_2", "sparse": false}, "inbound_nodes": [], "name": "input_2"}, {"class_name": "InputLayer", "config": {"dtype": "float32", "batch_input_shape": [null, 1, 10], "name": "input_3", "sparse": false}, "inbound_nodes": [], "name": "input_3"}, {"class_name": "InputLayer", "config": {"dtype": "float32", "batch_input_shape": [null, 1, 10], "name": "input_4", "sparse": false}, "inbound_nodes": [], "name": "input_4"}, {"class_name": "InputLayer", "config": {"dtype": "float32", "batch_input_shape": [null, 1, 10], "name": "input_5", "sparse": false}, "inbound_nodes": [], "name": "input_5"}, {"class_name": "InputLayer", "config": {"dtype": "float32", "batch_input_shape": [null, 1, 10], "name": "input_6", "sparse": false}, "inbound_nodes": [], "name": "input_6"}, {"class_name": "InputLayer", "config": {"dtype": "float32", "batch_input_shape": [null, 1, 10], "name": "input_7", "sparse": false}, "inbound_nodes": [], "name": "input_7"}, {"class_name": "InputLayer", "config": {"dtype": "float32", "batch_input_shape": [null, 1, 10], "name": "input_8", "sparse": false}, "inbound_nodes": [], "name": "input_8"}, {"class_name": "InputLayer", "config": {"dtype": "float32", "batch_input_shape": [null, 1, 10], "name": "input_9", "sparse": false}, "inbound_nodes": [], "name": "input_9"}, {"class_name": "InputLayer", "config": {"dtype": "float32", "batch_input_shape": [null, 1, 10], "name": "input_10", "sparse": false}, "inbound_nodes": [], "name": "input_10"}, {"class_name": "InputLayer", "config": {"dtype": "float32", "batch_input_shape": [null, 1, 10], "name": "input_11", "sparse": false}, "inbound_nodes": [], "name": "input_11"}, {"class_name": "InputLayer", "config": {"dtype": "float32", "batch_input_shape": [null, 1, 10], "name": "input_12", "sparse": false}, "inbound_nodes": [], "name": "input_12"}, {"class_name": "InputLayer", "config": {"dtype": "float32", "batch_input_shape": [null, 1, 10], "name": "input_13", "sparse": false}, "inbound_nodes": [], "name": "input_13"}, {"class_name": "InputLayer", "config": {"dtype": "float32", "batch_input_shape": [null, 1, 10], "name": "input_14", "sparse": false}, "inbound_nodes": [], "name": "input_14"}, {"class_name": "InputLayer", "config": {"dtype": "float32", "batch_input_shape": [null, 1, 10], "name": "input_15", "sparse": false}, "inbound_nodes": [], "name": "input_15"}, {"class_name": "InputLayer", "config": {"dtype": "float32", "batch_input_shape": [null, 1, 10], "name": "input_16", "sparse": false}, "inbound_nodes": [], "name": "input_16"}, {"class_name": "InputLayer", "config": {"dtype": "float32", "batch_input_shape": [null, 1, 10], "name": "input_17", "sparse": false}, "inbound_nodes": [], "name": "input_17"}, {"class_name": "InputLayer", "config": {"dtype": "float32", "batch_input_shape": [null, 1, 10], "name": "input_18", "sparse": false}, "inbound_nodes": [], "name": "input_18"}, {"class_name": "InputLayer", "config": {"dtype": "float32", "batch_input_shape": [null, 1, 10], "name": "input_19", "sparse": false}, "inbound_nodes": [], "name": "input_19"}, {"class_name": "InputLayer", "config": {"dtype": "float32", "batch_input_shape": [null, 1, 10], "name": "input_20", "sparse": false}, "inbound_nodes": [], "name": "input_20"}, {"class_name": "InputLayer", "config": {"dtype": "float32", "batch_input_shape": [null, 1, 10], "name": "input_21", "sparse": false}, "inbound_nodes": [], "name": "input_21"}, {"class_name": "InputLayer", "config": {"dtype": "float32", "batch_input_shape": [null, 1, 10], "name": "input_22", "sparse": false}, "inbound_nodes": [], "name": "input_22"}, {"class_name": "InputLayer", "config": {"dtype": "float32", "batch_input_shape": [null, 1, 10], "name": "input_23", "sparse": false}, "inbound_nodes": [], "name": "input_23"}, {"class_name": "InputLayer", "config": {"dtype": "float32", "batch_input_shape": [null, 1, 10], "name": "input_24", "sparse": false}, "inbound_nodes": [], "name": "input_24"}, {"class_name": "InputLayer", "config": {"dtype": "float32", "batch_input_shape": [null, 1, 10], "name": "input_25", "sparse": false}, "inbound_nodes": [], "name": "input_25"}, {"class_name": "InputLayer", "config": {"dtype": "float32", "batch_input_shape": [null, 1, 10], "name": "input_26", "sparse": false}, "inbound_nodes": [], "name": "input_26"}, {"class_name": "InputLayer", "config": {"dtype": "float32", "batch_input_shape": [null, 1, 10], "name": "input_27", "sparse": false}, "inbound_nodes": [], "name": "input_27"}, {"class_name": "InputLayer", "config": {"dtype": "float32", "batch_input_shape": [null, 1, 10], "name": "input_28", "sparse": false}, "inbound_nodes": [], "name": "input_28"}, {"class_name": "InputLayer", "config": {"dtype": "float32", "batch_input_shape": [null, 1, 10], "name": "input_29", "sparse": false}, "inbound_nodes": [], "name": "input_29"}, {"class_name": "InputLayer", "config": {"dtype": "float32", "batch_input_shape": [null, 1, 10], "name": "input_30", "sparse": false}, "inbound_nodes": [], "name": "input_30"}, {"class_name": "InputLayer", "config": {"dtype": "float32", "batch_input_shape": [null, 1, 10], "name": "input_31", "sparse": false}, "inbound_nodes": [], "name": "input_31"}, {"class_name": "InputLayer", "config": {"dtype": "float32", "batch_input_shape": [null, 1, 10], "name": "input_32", "sparse": false}, "inbound_nodes": [], "name": "input_32"}, {"class_name": "InputLayer", "config": {"dtype": "float32", "batch_input_shape": [null, 1, 10], "name": "input_33", "sparse": false}, "inbound_nodes": [], "name": "input_33"}, {"class_name": "InputLayer", "config": {"dtype": "float32", "batch_input_shape": [null, 1, 10], "name": "input_34", "sparse": false}, "inbound_nodes": [], "name": "input_34"}, {"class_name": "InputLayer", "config": {"dtype": "float32", "batch_input_shape": [null, 1, 10], "name": "input_35", "sparse": false}, "inbound_nodes": [], "name": "input_35"}, {"class_name": "InputLayer", "config": {"dtype": "float32", "batch_input_shape": [null, 1, 10], "name": "input_36", "sparse": false}, "inbound_nodes": [], "name": "input_36"}, {"class_name": "InputLayer", "config": {"dtype": "float32", "batch_input_shape": [null, 1, 10], "name": "input_37", "sparse": false}, "inbound_nodes": [], "name": "input_37"}, {"class_name": "InputLayer", "config": {"dtype": "float32", "batch_input_shape": [null, 1, 10], "name": "input_38", "sparse": false}, "inbound_nodes": [], "name": "input_38"}, {"class_name": "InputLayer", "config": {"dtype": "float32", "batch_input_shape": [null, 1, 10], "name": "input_39", "sparse": false}, "inbound_nodes": [], "name": "input_39"}, {"class_name": "InputLayer", "config": {"dtype": "float32", "batch_input_shape": [null, 1, 10], "name": "input_40", "sparse": false}, "inbound_nodes": [], "name": "input_40"}, {"class_name": "InputLayer", "config": {"dtype": "float32", "batch_input_shape": [null, 1, 10], "name": "input_41", "sparse": false}, "inbound_nodes": [], "name": "input_41"}, {"class_name": "InputLayer", "config": {"dtype": "float32", "batch_input_shape": [null, 1, 10], "name": "input_42", "sparse": false}, "inbound_nodes": [], "name": "input_42"}, {"class_name": "InputLayer", "config": {"dtype": "float32", "batch_input_shape": [null, 1, 10], "name": "input_43", "sparse": false}, "inbound_nodes": [], "name": "input_43"}, {"class_name": "InputLayer", "config": {"dtype": "float32", "batch_input_shape": [null, 1, 10], "name": "input_44", "sparse": false}, "inbound_nodes": [], "name": "input_44"}, {"class_name": "InputLayer", "config": {"dtype": "float32", "batch_input_shape": [null, 1, 10], "name": "input_45", "sparse": false}, "inbound_nodes": [], "name": "input_45"}, {"class_name": "InputLayer", "config": {"dtype": "float32", "batch_input_shape": [null, 1, 10], "name": "input_46", "sparse": false}, "inbound_nodes": [], "name": "input_46"}, {"class_name": "InputLayer", "config": {"dtype": "float32", "batch_input_shape": [null, 1, 10], "name": "input_47", "sparse": false}, "inbound_nodes": [], "name": "input_47"}, {"class_name": "InputLayer", "config": {"dtype": "float32", "batch_input_shape": [null, 1, 10], "name": "input_48", "sparse": false}, "inbound_nodes": [], "name": "input_48"}, {"class_name": "InputLayer", "config": {"dtype": "float32", "batch_input_shape": [null, 1, 10], "name": "input_49", "sparse": false}, "inbound_nodes": [], "name": "input_49"}, {"class_name": "InputLayer", "config": {"dtype": "float32", "batch_input_shape": [null, 1, 10], "name": "input_50", "sparse": false}, "inbound_nodes": [], "name": "input_50"}, {"class_name": "InputLayer", "config": {"dtype": "float32", "batch_input_shape": [null, 1, 10], "name": "input_51", "sparse": false}, "inbound_nodes": [], "name": "input_51"}, {"class_name": "InputLayer", "config": {"dtype": "float32", "batch_input_shape": [null, 1, 10], "name": "input_52", "sparse": false}, "inbound_nodes": [], "name": "input_52"}, {"class_name": "InputLayer", "config": {"dtype": "float32", "batch_input_shape": [null, 1, 10], "name": "input_53", "sparse": false}, "inbound_nodes": [], "name": "input_53"}, {"class_name": "InputLayer", "config": {"dtype": "float32", "batch_input_shape": [null, 1, 10], "name": "input_54", "sparse": false}, "inbound_nodes": [], "name": "input_54"}, {"class_name": "InputLayer", "config": {"dtype": "float32", "batch_input_shape": [null, 1, 10], "name": "input_55", "sparse": false}, "inbound_nodes": [], "name": "input_55"}, {"class_name": "InputLayer", "config": {"dtype": "float32", "batch_input_shape": [null, 1, 10], "name": "input_56", "sparse": false}, "inbound_nodes": [], "name": "input_56"}, {"class_name": "InputLayer", "config": {"dtype": "float32", "batch_input_shape": [null, 1, 10], "name": "input_57", "sparse": false}, "inbound_nodes": [], "name": "input_57"}, {"class_name": "InputLayer", "config": {"dtype": "float32", "batch_input_shape": [null, 1, 10], "name": "input_58", "sparse": false}, "inbound_nodes": [], "name": "input_58"}, {"class_name": "InputLayer", "config": {"dtype": "float32", "batch_input_shape": [null, 1, 10], "name": "input_59", "sparse": false}, "inbound_nodes": [], "name": "input_59"}, {"class_name": "InputLayer", "config": {"dtype": "float32", "batch_input_shape": [null, 1, 10], "name": "input_60", "sparse": false}, "inbound_nodes": [], "name": "input_60"}, {"class_name": "InputLayer", "config": {"dtype": "float32", "batch_input_shape": [null, 1, 10], "name": "input_61", "sparse": false}, "inbound_nodes": [], "name": "input_61"}, {"class_name": "InputLayer", "config": {"dtype": "float32", "batch_input_shape": [null, 1, 10], "name": "input_62", "sparse": false}, "inbound_nodes": [], "name": "input_62"}, {"class_name": "InputLayer", "config": {"dtype": "float32", "batch_input_shape": [null, 1, 10], "name": "input_63", "sparse": false}, "inbound_nodes": [], "name": "input_63"}, {"class_name": "InputLayer", "config": {"dtype": "float32", "batch_input_shape": [null, 1, 10], "name": "input_64", "sparse": false}, "inbound_nodes": [], "name": "input_64"}, {"class_name": "InputLayer", "config": {"dtype": "float32", "batch_input_shape": [null, 1, 10], "name": "input_65", "sparse": false}, "inbound_nodes": [], "name": "input_65"}, {"class_name": "InputLayer", "config": {"dtype": "float32", "batch_input_shape": [null, 1, 10], "name": "input_66", "sparse": false}, "inbound_nodes": [], "name": "input_66"}, {"class_name": "InputLayer", "config": {"dtype": "float32", "batch_input_shape": [null, 1, 10], "name": "input_67", "sparse": false}, "inbound_nodes": [], "name": "input_67"}, {"class_name": "InputLayer", "config": {"dtype": "float32", "batch_input_shape": [null, 1, 10], "name": "input_68", "sparse": false}, "inbound_nodes": [], "name": "input_68"}, {"class_name": "InputLayer", "config": {"dtype": "float32", "batch_input_shape": [null, 1, 10], "name": "input_69", "sparse": false}, "inbound_nodes": [], "name": "input_69"}, {"class_name": "InputLayer", "config": {"dtype": "float32", "batch_input_shape": [null, 1, 10], "name": "input_70", "sparse": false}, "inbound_nodes": [], "name": "input_70"}, {"class_name": "InputLayer", "config": {"dtype": "float32", "batch_input_shape": [null, 1, 10], "name": "input_71", "sparse": false}, "inbound_nodes": [], "name": "input_71"}, {"class_name": "InputLayer", "config": {"dtype": "float32", "batch_input_shape": [null, 1, 10], "name": "input_72", "sparse": false}, "inbound_nodes": [], "name": "input_72"}, {"class_name": "InputLayer", "config": {"dtype": "float32", "batch_input_shape": [null, 1, 10], "name": "input_73", "sparse": false}, "inbound_nodes": [], "name": "input_73"}, {"class_name": "InputLayer", "config": {"dtype": "float32", "batch_input_shape": [null, 1, 10], "name": "input_74", "sparse": false}, "inbound_nodes": [], "name": "input_74"}, {"class_name": "InputLayer", "config": {"dtype": "float32", "batch_input_shape": [null, 1, 10], "name": "input_75", "sparse": false}, "inbound_nodes": [], "name": "input_75"}, {"class_name": "InputLayer", "config": {"dtype": "float32", "batch_input_shape": [null, 1, 10], "name": "input_76", "sparse": false}, "inbound_nodes": [], "name": "input_76"}, {"class_name": "InputLayer", "config": {"dtype": "float32", "batch_input_shape": [null, 1, 10], "name": "input_77", "sparse": false}, "inbound_nodes": [], "name": "input_77"}, {"class_name": "InputLayer", "config": {"dtype": "float32", "batch_input_shape": [null, 1, 10], "name": "input_78", "sparse": false}, "inbound_nodes": [], "name": "input_78"}, {"class_name": "InputLayer", "config": {"dtype": "float32", "batch_input_shape": [null, 1, 10], "name": "input_79", "sparse": false}, "inbound_nodes": [], "name": "input_79"}, {"class_name": "InputLayer", "config": {"dtype": "float32", "batch_input_shape": [null, 1, 10], "name": "input_80", "sparse": false}, "inbound_nodes": [], "name": "input_80"}, {"class_name": "InputLayer", "config": {"dtype": "float32", "batch_input_shape": [null, 1, 10], "name": "input_81", "sparse": false}, "inbound_nodes": [], "name": "input_81"}, {"class_name": "InputLayer", "config": {"dtype": "float32", "batch_input_shape": [null, 1, 10], "name": "input_82", "sparse": false}, "inbound_nodes": [], "name": "input_82"}, {"class_name": "InputLayer", "config": {"dtype": "float32", "batch_input_shape": [null, 1, 10], "name": "input_83", "sparse": false}, "inbound_nodes": [], "name": "input_83"}, {"class_name": "InputLayer", "config": {"dtype": "float32", "batch_input_shape": [null, 1, 10], "name": "input_84", "sparse": false}, "inbound_nodes": [], "name": "input_84"}, {"class_name": "InputLayer", "config": {"dtype": "float32", "batch_input_shape": [null, 1, 10], "name": "input_85", "sparse": false}, "inbound_nodes": [], "name": "input_85"}, {"class_name": "InputLayer", "config": {"dtype": "float32", "batch_input_shape": [null, 1, 10], "name": "input_86", "sparse": false}, "inbound_nodes": [], "name": "input_86"}, {"class_name": "InputLayer", "config": {"dtype": "float32", "batch_input_shape": [null, 1, 10], "name": "input_87", "sparse": false}, "inbound_nodes": [], "name": "input_87"}, {"class_name": "InputLayer", "config": {"dtype": "float32", "batch_input_shape": [null, 1, 10], "name": "input_88", "sparse": false}, "inbound_nodes": [], "name": "input_88"}, {"class_name": "InputLayer", "config": {"dtype": "float32", "batch_input_shape": [null, 1, 10], "name": "input_89", "sparse": false}, "inbound_nodes": [], "name": "input_89"}, {"class_name": "InputLayer", "config": {"dtype": "float32", "batch_input_shape": [null, 1, 10], "name": "input_90", "sparse": false}, "inbound_nodes": [], "name": "input_90"}, {"class_name": "InputLayer", "config": {"dtype": "float32", "batch_input_shape": [null, 1, 10], "name": "input_91", "sparse": false}, "inbound_nodes": [], "name": "input_91"}, {"class_name": "InputLayer", "config": {"dtype": "float32", "batch_input_shape": [null, 1, 10], "name": "input_92", "sparse": false}, "inbound_nodes": [], "name": "input_92"}, {"class_name": "InputLayer", "config": {"dtype": "float32", "batch_input_shape": [null, 1, 10], "name": "input_93", "sparse": false}, "inbound_nodes": [], "name": "input_93"}, {"class_name": "InputLayer", "config": {"dtype": "float32", "batch_input_shape": [null, 1, 10], "name": "input_94", "sparse": false}, "inbound_nodes": [], "name": "input_94"}, {"class_name": "InputLayer", "config": {"dtype": "float32", "batch_input_shape": [null, 1, 10], "name": "input_95", "sparse": false}, "inbound_nodes": [], "name": "input_95"}, {"class_name": "InputLayer", "config": {"dtype": "float32", "batch_input_shape": [null, 1, 10], "name": "input_96", "sparse": false}, "inbound_nodes": [], "name": "input_96"}, {"class_name": "InputLayer", "config": {"dtype": "float32", "batch_input_shape": [null, 1, 10], "name": "input_97", "sparse": false}, "inbound_nodes": [], "name": "input_97"}, {"class_name": "InputLayer", "config": {"dtype": "float32", "batch_input_shape": [null, 1, 10], "name": "input_98", "sparse": false}, "inbound_nodes": [], "name": "input_98"}, {"class_name": "InputLayer", "config": {"dtype": "float32", "batch_input_shape": [null, 1, 10], "name": "input_99", "sparse": false}, "inbound_nodes": [], "name": "input_99"}, {"class_name": "InputLayer", "config": {"dtype": "float32", "batch_input_shape": [null, 1, 10], "name": "input_100", "sparse": false}, "inbound_nodes": [], "name": "input_100"}, {"class_name": "InputLayer", "config": {"dtype": "float32", "batch_input_shape": [null, 1, 10], "name": "input_101", "sparse": false}, "inbound_nodes": [], "name": "input_101"}, {"class_name": "Dense", "config": {"kernel_initializer": {"class_name": "VarianceScaling", "config": {"distribution": "uniform", "scale": 1.0, "seed": null, "mode": "fan_avg"}}, "name": "dense_1", "kernel_constraint": null, "bias_regularizer": null, "bias_constraint": null, "activation": "relu", "trainable": true, "kernel_regularizer": null, "bias_initializer": {"class_name": "Zeros", "config": {}}, "units": 128, "use_bias": true, "activity_regularizer": null}, "inbound_nodes": [[["flatten_1", 0, 0, {}]]], "name": "dense_1"}, {"class_name": "Conv1D", "config": {"kernel_constraint": null, "kernel_initializer": {"class_name": "VarianceScaling", "config": {"distribution": "uniform", "scale": 1.0, "seed": null, "mode": "fan_avg"}}, "name": "conv1d_1", "bias_regularizer": null, "bias_constraint": null, "activation": "relu", "trainable": true, "padding": "same", "strides": [1], "dilation_rate": [1], "kernel_regularizer": null, "filters": 32, "bias_initializer": {"class_name": "Zeros", "config": {}}, "use_bias": true, "activity_regularizer": null, "kernel_size": [3]}, "inbound_nodes": [[["input_2", 0, 0, {}]]], "name": "conv1d_1"}, {"class_name": "Conv1D", "config": {"kernel_constraint": null, "kernel_initializer": {"class_name": "VarianceScaling", "config": {"distribution": "uniform", "scale": 1.0, "seed": null, "mode": "fan_avg"}}, "name": "conv1d_2", "bias_regularizer": null, "bias_constraint": null, "activation": "relu", "trainable": true, "padding": "same", "strides": [1], "dilation_rate": [1], "kernel_regularizer": null, "filters": 32, "bias_initializer": {"class_name": "Zeros", "config": {}}, "use_bias": true, "activity_regularizer": null, "kernel_size": [3]}, "inbound_nodes": [[["input_3", 0, 0, {}]]], "name": "conv1d_2"}, {"class_name": "Conv1D", "config": {"kernel_constraint": null, "kernel_initializer": {"class_name": "VarianceScaling", "config": {"distribution": "uniform", "scale": 1.0, "seed": null, "mode": "fan_avg"}}, "name": "conv1d_3", "bias_regularizer": null, "bias_constraint": null, "activation": "relu", "trainable": true, "padding": "same", "strides": [1], "dilation_rate": [1], "kernel_regularizer": null, "filters": 32, "bias_initializer": {"class_name": "Zeros", "config": {}}, "use_bias": true, "activity_regularizer": null, "kernel_size": [3]}, "inbound_nodes": [[["input_4", 0, 0, {}]]], "name": "conv1d_3"}, {"class_name": "Conv1D", "config": {"kernel_constraint": null, "kernel_initializer": {"class_name": "VarianceScaling", "config": {"distribution": "uniform", "scale": 1.0, "seed": null, "mode": "fan_avg"}}, "name": "conv1d_4", "bias_regularizer": null, "bias_constraint": null, "activation": "relu", "trainable": true, "padding": "same", "strides": [1], "dilation_rate": [1], "kernel_regularizer": null, "filters": 32, "bias_initializer": {"class_name": "Zeros", "config": {}}, "use_bias": true, "activity_regularizer": null, "kernel_size": [3]}, "inbound_nodes": [[["input_5", 0, 0, {}]]], "name": "conv1d_4"}, {"class_name": "Conv1D", "config": {"kernel_constraint": null, "kernel_initializer": {"class_name": "VarianceScaling", "config": {"distribution": "uniform", "scale": 1.0, "seed": null, "mode": "fan_avg"}}, "name": "conv1d_5", "bias_regularizer": null, "bias_constraint": null, "activation": "relu", "trainable": true, "padding": "same", "strides": [1], "dilation_rate": [1], "kernel_regularizer": null, "filters": 32, "bias_initializer": {"class_name": "Zeros", "config": {}}, "use_bias": true, "activity_regularizer": null, "kernel_size": [3]}, "inbound_nodes": [[["input_6", 0, 0, {}]]], "name": "conv1d_5"}, {"class_name": "Conv1D", "config": {"kernel_constraint": null, "kernel_initializer": {"class_name": "VarianceScaling", "config": {"distribution": "uniform", "scale": 1.0, "seed": null, "mode": "fan_avg"}}, "name": "conv1d_6", "bias_regularizer": null, "bias_constraint": null, "activation": "relu", "trainable": true, "padding": "same", "strides": [1], "dilation_rate": [1], "kernel_regularizer": null, "filters": 32, "bias_initializer": {"class_name": "Zeros", "config": {}}, "use_bias": true, "activity_regularizer": null, "kernel_size": [3]}, "inbound_nodes": [[["input_7", 0, 0, {}]]], "name": "conv1d_6"}, {"class_name": "Conv1D", "config": {"kernel_constraint": null, "kernel_initializer": {"class_name": "VarianceScaling", "config": {"distribution": "uniform", "scale": 1.0, "seed": null, "mode": "fan_avg"}}, "name": "conv1d_7", "bias_regularizer": null, "bias_constraint": null, "activation": "relu", "trainable": true, "padding": "same", "strides": [1], "dilation_rate": [1], "kernel_regularizer": null, "filters": 32, "bias_initializer": {"class_name": "Zeros", "config": {}}, "use_bias": true, "activity_regularizer": null, "kernel_size": [3]}, "inbound_nodes": [[["input_8", 0, 0, {}]]], "name": "conv1d_7"}, {"class_name": "Conv1D", "config": {"kernel_constraint": null, "kernel_initializer": {"class_name": "VarianceScaling", "config": {"distribution": "uniform", "scale": 1.0, "seed": null, "mode": "fan_avg"}}, "name": "conv1d_8", "bias_regularizer": null, "bias_constraint": null, "activation": "relu", "trainable": true, "padding": "same", "strides": [1], "dilation_rate": [1], "kernel_regularizer": null, "filters": 32, "bias_initializer": {"class_name": "Zeros", "config": {}}, "use_bias": true, "activity_regularizer": null, "kernel_size": [3]}, "inbound_nodes": [[["input_9", 0, 0, {}]]], "name": "conv1d_8"}, {"class_name": "Conv1D", "config": {"kernel_constraint": null, "kernel_initializer": {"class_name": "VarianceScaling", "config": {"distribution": "uniform", "scale": 1.0, "seed": null, "mode": "fan_avg"}}, "name": "conv1d_9", "bias_regularizer": null, "bias_constraint": null, "activation": "relu", "trainable": true, "padding": "same", "strides": [1], "dilation_rate": [1], "kernel_regularizer": null, "filters": 32, "bias_initializer": {"class_name": "Zeros", "config": {}}, "use_bias": true, "activity_regularizer": null, "kernel_size": [3]}, "inbound_nodes": [[["input_10", 0, 0, {}]]], "name": "conv1d_9"}, {"class_name": "Conv1D", "config": {"kernel_constraint": null, "kernel_initializer": {"class_name": "VarianceScaling", "config": {"distribution": "uniform", "scale": 1.0, "seed": null, "mode": "fan_avg"}}, "name": "conv1d_10", "bias_regularizer": null, "bias_constraint": null, "activation": "relu", "trainable": true, "padding": "same", "strides": [1], "dilation_rate": [1], "kernel_regularizer": null, "filters": 32, "bias_initializer": {"class_name": "Zeros", "config": {}}, "use_bias": true, "activity_regularizer": null, "kernel_size": [3]}, "inbound_nodes": [[["input_11", 0, 0, {}]]], "name": "conv1d_10"}, {"class_name": "Conv1D", "config": {"kernel_constraint": null, "kernel_initializer": {"class_name": "VarianceScaling", "config": {"distribution": "uniform", "scale": 1.0, "seed": null, "mode": "fan_avg"}}, "name": "conv1d_11", "bias_regularizer": null, "bias_constraint": null, "activation": "relu", "trainable": true, "padding": "same", "strides": [1], "dilation_rate": [1], "kernel_regularizer": null, "filters": 32, "bias_initializer": {"class_name": "Zeros", "config": {}}, "use_bias": true, "activity_regularizer": null, "kernel_size": [3]}, "inbound_nodes": [[["input_12", 0, 0, {}]]], "name": "conv1d_11"}, {"class_name": "Conv1D", "config": {"kernel_constraint": null, "kernel_initializer": {"class_name": "VarianceScaling", "config": {"distribution": "uniform", "scale": 1.0, "seed": null, "mode": "fan_avg"}}, "name": "conv1d_12", "bias_regularizer": null, "bias_constraint": null, "activation": "relu", "trainable": true, "padding": "same", "strides": [1], "dilation_rate": [1], "kernel_regularizer": null, "filters": 32, "bias_initializer": {"class_name": "Zeros", "config": {}}, "use_bias": true, "activity_regularizer": null, "kernel_size": [3]}, "inbound_nodes": [[["input_13", 0, 0, {}]]], "name": "conv1d_12"}, {"class_name": "Conv1D", "config": {"kernel_constraint": null, "kernel_initializer": {"class_name": "VarianceScaling", "config": {"distribution": "uniform", "scale": 1.0, "seed": null, "mode": "fan_avg"}}, "name": "conv1d_13", "bias_regularizer": null, "bias_constraint": null, "activation": "relu", "trainable": true, "padding": "same", "strides": [1], "dilation_rate": [1], "kernel_regularizer": null, "filters": 32, "bias_initializer": {"class_name": "Zeros", "config": {}}, "use_bias": true, "activity_regularizer": null, "kernel_size": [3]}, "inbound_nodes": [[["input_14", 0, 0, {}]]], "name": "conv1d_13"}, {"class_name": "Conv1D", "config": {"kernel_constraint": null, "kernel_initializer": {"class_name": "VarianceScaling", "config": {"distribution": "uniform", "scale": 1.0, "seed": null, "mode": "fan_avg"}}, "name": "conv1d_14", "bias_regularizer": null, "bias_constraint": null, "activation": "relu", "trainable": true, "padding": "same", "strides": [1], "dilation_rate": [1], "kernel_regularizer": null, "filters": 32, "bias_initializer": {"class_name": "Zeros", "config": {}}, "use_bias": true, "activity_regularizer": null, "kernel_size": [3]}, "inbound_nodes": [[["input_15", 0, 0, {}]]], "name": "conv1d_14"}, {"class_name": "Conv1D", "config": {"kernel_constraint": null, "kernel_initializer": {"class_name": "VarianceScaling", "config": {"distribution": "uniform", "scale": 1.0, "seed": null, "mode": "fan_avg"}}, "name": "conv1d_15", "bias_regularizer": null, "bias_constraint": null, "activation": "relu", "trainable": true, "padding": "same", "strides": [1], "dilation_rate": [1], "kernel_regularizer": null, "filters": 32, "bias_initializer": {"class_name": "Zeros", "config": {}}, "use_bias": true, "activity_regularizer": null, "kernel_size": [3]}, "inbound_nodes": [[["input_16", 0, 0, {}]]], "name": "conv1d_15"}, {"class_name": "Conv1D", "config": {"kernel_constraint": null, "kernel_initializer": {"class_name": "VarianceScaling", "config": {"distribution": "uniform", "scale": 1.0, "seed": null, "mode": "fan_avg"}}, "name": "conv1d_16", "bias_regularizer": null, "bias_constraint": null, "activation": "relu", "trainable": true, "padding": "same", "strides": [1], "dilation_rate": [1], "kernel_regularizer": null, "filters": 32, "bias_initializer": {"class_name": "Zeros", "config": {}}, "use_bias": true, "activity_regularizer": null, "kernel_size": [3]}, "inbound_nodes": [[["input_17", 0, 0, {}]]], "name": "conv1d_16"}, {"class_name": "Conv1D", "config": {"kernel_constraint": null, "kernel_initializer": {"class_name": "VarianceScaling", "config": {"distribution": "uniform", "scale": 1.0, "seed": null, "mode": "fan_avg"}}, "name": "conv1d_17", "bias_regularizer": null, "bias_constraint": null, "activation": "relu", "trainable": true, "padding": "same", "strides": [1], "dilation_rate": [1], "kernel_regularizer": null, "filters": 32, "bias_initializer": {"class_name": "Zeros", "config": {}}, "use_bias": true, "activity_regularizer": null, "kernel_size": [3]}, "inbound_nodes": [[["input_18", 0, 0, {}]]], "name": "conv1d_17"}, {"class_name": "Conv1D", "config": {"kernel_constraint": null, "kernel_initializer": {"class_name": "VarianceScaling", "config": {"distribution": "uniform", "scale": 1.0, "seed": null, "mode": "fan_avg"}}, "name": "conv1d_18", "bias_regularizer": null, "bias_constraint": null, "activation": "relu", "trainable": true, "padding": "same", "strides": [1], "dilation_rate": [1], "kernel_regularizer": null, "filters": 32, "bias_initializer": {"class_name": "Zeros", "config": {}}, "use_bias": true, "activity_regularizer": null, "kernel_size": [3]}, "inbound_nodes": [[["input_19", 0, 0, {}]]], "name": "conv1d_18"}, {"class_name": "Conv1D", "config": {"kernel_constraint": null, "kernel_initializer": {"class_name": "VarianceScaling", "config": {"distribution": "uniform", "scale": 1.0, "seed": null, "mode": "fan_avg"}}, "name": "conv1d_19", "bias_regularizer": null, "bias_constraint": null, "activation": "relu", "trainable": true, "padding": "same", "strides": [1], "dilation_rate": [1], "kernel_regularizer": null, "filters": 32, "bias_initializer": {"class_name": "Zeros", "config": {}}, "use_bias": true, "activity_regularizer": null, "kernel_size": [3]}, "inbound_nodes": [[["input_20", 0, 0, {}]]], "name": "conv1d_19"}, {"class_name": "Conv1D", "config": {"kernel_constraint": null, "kernel_initializer": {"class_name": "VarianceScaling", "config": {"distribution": "uniform", "scale": 1.0, "seed": null, "mode": "fan_avg"}}, "name": "conv1d_20", "bias_regularizer": null, "bias_constraint": null, "activation": "relu", "trainable": true, "padding": "same", "strides": [1], "dilation_rate": [1], "kernel_regularizer": null, "filters": 32, "bias_initializer": {"class_name": "Zeros", "config": {}}, "use_bias": true, "activity_regularizer": null, "kernel_size": [3]}, "inbound_nodes": [[["input_21", 0, 0, {}]]], "name": "conv1d_20"}, {"class_name": "Conv1D", "config": {"kernel_constraint": null, "kernel_initializer": {"class_name": "VarianceScaling", "config": {"distribution": "uniform", "scale": 1.0, "seed": null, "mode": "fan_avg"}}, "name": "conv1d_21", "bias_regularizer": null, "bias_constraint": null, "activation": "relu", "trainable": true, "padding": "same", "strides": [1], "dilation_rate": [1], "kernel_regularizer": null, "filters": 32, "bias_initializer": {"class_name": "Zeros", "config": {}}, "use_bias": true, "activity_regularizer": null, "kernel_size": [3]}, "inbound_nodes": [[["input_22", 0, 0, {}]]], "name": "conv1d_21"}, {"class_name": "Conv1D", "config": {"kernel_constraint": null, "kernel_initializer": {"class_name": "VarianceScaling", "config": {"distribution": "uniform", "scale": 1.0, "seed": null, "mode": "fan_avg"}}, "name": "conv1d_22", "bias_regularizer": null, "bias_constraint": null, "activation": "relu", "trainable": true, "padding": "same", "strides": [1], "dilation_rate": [1], "kernel_regularizer": null, "filters": 32, "bias_initializer": {"class_name": "Zeros", "config": {}}, "use_bias": true, "activity_regularizer": null, "kernel_size": [3]}, "inbound_nodes": [[["input_23", 0, 0, {}]]], "name": "conv1d_22"}, {"class_name": "Conv1D", "config": {"kernel_constraint": null, "kernel_initializer": {"class_name": "VarianceScaling", "config": {"distribution": "uniform", "scale": 1.0, "seed": null, "mode": "fan_avg"}}, "name": "conv1d_23", "bias_regularizer": null, "bias_constraint": null, "activation": "relu", "trainable": true, "padding": "same", "strides": [1], "dilation_rate": [1], "kernel_regularizer": null, "filters": 32, "bias_initializer": {"class_name": "Zeros", "config": {}}, "use_bias": true, "activity_regularizer": null, "kernel_size": [3]}, "inbound_nodes": [[["input_24", 0, 0, {}]]], "name": "conv1d_23"}, {"class_name": "Conv1D", "config": {"kernel_constraint": null, "kernel_initializer": {"class_name": "VarianceScaling", "config": {"distribution": "uniform", "scale": 1.0, "seed": null, "mode": "fan_avg"}}, "name": "conv1d_24", "bias_regularizer": null, "bias_constraint": null, "activation": "relu", "trainable": true, "padding": "same", "strides": [1], "dilation_rate": [1], "kernel_regularizer": null, "filters": 32, "bias_initializer": {"class_name": "Zeros", "config": {}}, "use_bias": true, "activity_regularizer": null, "kernel_size": [3]}, "inbound_nodes": [[["input_25", 0, 0, {}]]], "name": "conv1d_24"}, {"class_name": "Conv1D", "config": {"kernel_constraint": null, "kernel_initializer": {"class_name": "VarianceScaling", "config": {"distribution": "uniform", "scale": 1.0, "seed": null, "mode": "fan_avg"}}, "name": "conv1d_25", "bias_regularizer": null, "bias_constraint": null, "activation": "relu", "trainable": true, "padding": "same", "strides": [1], "dilation_rate": [1], "kernel_regularizer": null, "filters": 32, "bias_initializer": {"class_name": "Zeros", "config": {}}, "use_bias": true, "activity_regularizer": null, "kernel_size": [3]}, "inbound_nodes": [[["input_26", 0, 0, {}]]], "name": "conv1d_25"}, {"class_name": "Conv1D", "config": {"kernel_constraint": null, "kernel_initializer": {"class_name": "VarianceScaling", "config": {"distribution": "uniform", "scale": 1.0, "seed": null, "mode": "fan_avg"}}, "name": "conv1d_26", "bias_regularizer": null, "bias_constraint": null, "activation": "relu", "trainable": true, "padding": "same", "strides": [1], "dilation_rate": [1], "kernel_regularizer": null, "filters": 32, "bias_initializer": {"class_name": "Zeros", "config": {}}, "use_bias": true, "activity_regularizer": null, "kernel_size": [3]}, "inbound_nodes": [[["input_27", 0, 0, {}]]], "name": "conv1d_26"}, {"class_name": "Conv1D", "config": {"kernel_constraint": null, "kernel_initializer": {"class_name": "VarianceScaling", "config": {"distribution": "uniform", "scale": 1.0, "seed": null, "mode": "fan_avg"}}, "name": "conv1d_27", "bias_regularizer": null, "bias_constraint": null, "activation": "relu", "trainable": true, "padding": "same", "strides": [1], "dilation_rate": [1], "kernel_regularizer": null, "filters": 32, "bias_initializer": {"class_name": "Zeros", "config": {}}, "use_bias": true, "activity_regularizer": null, "kernel_size": [3]}, "inbound_nodes": [[["input_28", 0, 0, {}]]], "name": "conv1d_27"}, {"class_name": "Conv1D", "config": {"kernel_constraint": null, "kernel_initializer": {"class_name": "VarianceScaling", "config": {"distribution": "uniform", "scale": 1.0, "seed": null, "mode": "fan_avg"}}, "name": "conv1d_28", "bias_regularizer": null, "bias_constraint": null, "activation": "relu", "trainable": true, "padding": "same", "strides": [1], "dilation_rate": [1], "kernel_regularizer": null, "filters": 32, "bias_initializer": {"class_name": "Zeros", "config": {}}, "use_bias": true, "activity_regularizer": null, "kernel_size": [3]}, "inbound_nodes": [[["input_29", 0, 0, {}]]], "name": "conv1d_28"}, {"class_name": "Conv1D", "config": {"kernel_constraint": null, "kernel_initializer": {"class_name": "VarianceScaling", "config": {"distribution": "uniform", "scale": 1.0, "seed": null, "mode": "fan_avg"}}, "name": "conv1d_29", "bias_regularizer": null, "bias_constraint": null, "activation": "relu", "trainable": true, "padding": "same", "strides": [1], "dilation_rate": [1], "kernel_regularizer": null, "filters": 32, "bias_initializer": {"class_name": "Zeros", "config": {}}, "use_bias": true, "activity_regularizer": null, "kernel_size": [3]}, "inbound_nodes": [[["input_30", 0, 0, {}]]], "name": "conv1d_29"}, {"class_name": "Conv1D", "config": {"kernel_constraint": null, "kernel_initializer": {"class_name": "VarianceScaling", "config": {"distribution": "uniform", "scale": 1.0, "seed": null, "mode": "fan_avg"}}, "name": "conv1d_30", "bias_regularizer": null, "bias_constraint": null, "activation": "relu", "trainable": true, "padding": "same", "strides": [1], "dilation_rate": [1], "kernel_regularizer": null, "filters": 32, "bias_initializer": {"class_name": "Zeros", "config": {}}, "use_bias": true, "activity_regularizer": null, "kernel_size": [3]}, "inbound_nodes": [[["input_31", 0, 0, {}]]], "name": "conv1d_30"}, {"class_name": "Conv1D", "config": {"kernel_constraint": null, "kernel_initializer": {"class_name": "VarianceScaling", "config": {"distribution": "uniform", "scale": 1.0, "seed": null, "mode": "fan_avg"}}, "name": "conv1d_31", "bias_regularizer": null, "bias_constraint": null, "activation": "relu", "trainable": true, "padding": "same", "strides": [1], "dilation_rate": [1], "kernel_regularizer": null, "filters": 32, "bias_initializer": {"class_name": "Zeros", "config": {}}, "use_bias": true, "activity_regularizer": null, "kernel_size": [3]}, "inbound_nodes": [[["input_32", 0, 0, {}]]], "name": "conv1d_31"}, {"class_name": "Conv1D", "config": {"kernel_constraint": null, "kernel_initializer": {"class_name": "VarianceScaling", "config": {"distribution": "uniform", "scale": 1.0, "seed": null, "mode": "fan_avg"}}, "name": "conv1d_32", "bias_regularizer": null, "bias_constraint": null, "activation": "relu", "trainable": true, "padding": "same", "strides": [1], "dilation_rate": [1], "kernel_regularizer": null, "filters": 32, "bias_initializer": {"class_name": "Zeros", "config": {}}, "use_bias": true, "activity_regularizer": null, "kernel_size": [3]}, "inbound_nodes": [[["input_33", 0, 0, {}]]], "name": "conv1d_32"}, {"class_name": "Conv1D", "config": {"kernel_constraint": null, "kernel_initializer": {"class_name": "VarianceScaling", "config": {"distribution": "uniform", "scale": 1.0, "seed": null, "mode": "fan_avg"}}, "name": "conv1d_33", "bias_regularizer": null, "bias_constraint": null, "activation": "relu", "trainable": true, "padding": "same", "strides": [1], "dilation_rate": [1], "kernel_regularizer": null, "filters": 32, "bias_initializer": {"class_name": "Zeros", "config": {}}, "use_bias": true, "activity_regularizer": null, "kernel_size": [3]}, "inbound_nodes": [[["input_34", 0, 0, {}]]], "name": "conv1d_33"}, {"class_name": "Conv1D", "config": {"kernel_constraint": null, "kernel_initializer": {"class_name": "VarianceScaling", "config": {"distribution": "uniform", "scale": 1.0, "seed": null, "mode": "fan_avg"}}, "name": "conv1d_34", "bias_regularizer": null, "bias_constraint": null, "activation": "relu", "trainable": true, "padding": "same", "strides": [1], "dilation_rate": [1], "kernel_regularizer": null, "filters": 32, "bias_initializer": {"class_name": "Zeros", "config": {}}, "use_bias": true, "activity_regularizer": null, "kernel_size": [3]}, "inbound_nodes": [[["input_35", 0, 0, {}]]], "name": "conv1d_34"}, {"class_name": "Conv1D", "config": {"kernel_constraint": null, "kernel_initializer": {"class_name": "VarianceScaling", "config": {"distribution": "uniform", "scale": 1.0, "seed": null, "mode": "fan_avg"}}, "name": "conv1d_35", "bias_regularizer": null, "bias_constraint": null, "activation": "relu", "trainable": true, "padding": "same", "strides": [1], "dilation_rate": [1], "kernel_regularizer": null, "filters": 32, "bias_initializer": {"class_name": "Zeros", "config": {}}, "use_bias": true, "activity_regularizer": null, "kernel_size": [3]}, "inbound_nodes": [[["input_36", 0, 0, {}]]], "name": "conv1d_35"}, {"class_name": "Conv1D", "config": {"kernel_constraint": null, "kernel_initializer": {"class_name": "VarianceScaling", "config": {"distribution": "uniform", "scale": 1.0, "seed": null, "mode": "fan_avg"}}, "name": "conv1d_36", "bias_regularizer": null, "bias_constraint": null, "activation": "relu", "trainable": true, "padding": "same", "strides": [1], "dilation_rate": [1], "kernel_regularizer": null, "filters": 32, "bias_initializer": {"class_name": "Zeros", "config": {}}, "use_bias": true, "activity_regularizer": null, "kernel_size": [3]}, "inbound_nodes": [[["input_37", 0, 0, {}]]], "name": "conv1d_36"}, {"class_name": "Conv1D", "config": {"kernel_constraint": null, "kernel_initializer": {"class_name": "VarianceScaling", "config": {"distribution": "uniform", "scale": 1.0, "seed": null, "mode": "fan_avg"}}, "name": "conv1d_37", "bias_regularizer": null, "bias_constraint": null, "activation": "relu", "trainable": true, "padding": "same", "strides": [1], "dilation_rate": [1], "kernel_regularizer": null, "filters": 32, "bias_initializer": {"class_name": "Zeros", "config": {}}, "use_bias": true, "activity_regularizer": null, "kernel_size": [3]}, "inbound_nodes": [[["input_38", 0, 0, {}]]], "name": "conv1d_37"}, {"class_name": "Conv1D", "config": {"kernel_constraint": null, "kernel_initializer": {"class_name": "VarianceScaling", "config": {"distribution": "uniform", "scale": 1.0, "seed": null, "mode": "fan_avg"}}, "name": "conv1d_38", "bias_regularizer": null, "bias_constraint": null, "activation": "relu", "trainable": true, "padding": "same", "strides": [1], "dilation_rate": [1], "kernel_regularizer": null, "filters": 32, "bias_initializer": {"class_name": "Zeros", "config": {}}, "use_bias": true, "activity_regularizer": null, "kernel_size": [3]}, "inbound_nodes": [[["input_39", 0, 0, {}]]], "name": "conv1d_38"}, {"class_name": "Conv1D", "config": {"kernel_constraint": null, "kernel_initializer": {"class_name": "VarianceScaling", "config": {"distribution": "uniform", "scale": 1.0, "seed": null, "mode": "fan_avg"}}, "name": "conv1d_39", "bias_regularizer": null, "bias_constraint": null, "activation": "relu", "trainable": true, "padding": "same", "strides": [1], "dilation_rate": [1], "kernel_regularizer": null, "filters": 32, "bias_initializer": {"class_name": "Zeros", "config": {}}, "use_bias": true, "activity_regularizer": null, "kernel_size": [3]}, "inbound_nodes": [[["input_40", 0, 0, {}]]], "name": "conv1d_39"}, {"class_name": "Conv1D", "config": {"kernel_constraint": null, "kernel_initializer": {"class_name": "VarianceScaling", "config": {"distribution": "uniform", "scale": 1.0, "seed": null, "mode": "fan_avg"}}, "name": "conv1d_40", "bias_regularizer": null, "bias_constraint": null, "activation": "relu", "trainable": true, "padding": "same", "strides": [1], "dilation_rate": [1], "kernel_regularizer": null, "filters": 32, "bias_initializer": {"class_name": "Zeros", "config": {}}, "use_bias": true, "activity_regularizer": null, "kernel_size": [3]}, "inbound_nodes": [[["input_41", 0, 0, {}]]], "name": "conv1d_40"}, {"class_name": "Conv1D", "config": {"kernel_constraint": null, "kernel_initializer": {"class_name": "VarianceScaling", "config": {"distribution": "uniform", "scale": 1.0, "seed": null, "mode": "fan_avg"}}, "name": "conv1d_41", "bias_regularizer": null, "bias_constraint": null, "activation": "relu", "trainable": true, "padding": "same", "strides": [1], "dilation_rate": [1], "kernel_regularizer": null, "filters": 32, "bias_initializer": {"class_name": "Zeros", "config": {}}, "use_bias": true, "activity_regularizer": null, "kernel_size": [3]}, "inbound_nodes": [[["input_42", 0, 0, {}]]], "name": "conv1d_41"}, {"class_name": "Conv1D", "config": {"kernel_constraint": null, "kernel_initializer": {"class_name": "VarianceScaling", "config": {"distribution": "uniform", "scale": 1.0, "seed": null, "mode": "fan_avg"}}, "name": "conv1d_42", "bias_regularizer": null, "bias_constraint": null, "activation": "relu", "trainable": true, "padding": "same", "strides": [1], "dilation_rate": [1], "kernel_regularizer": null, "filters": 32, "bias_initializer": {"class_name": "Zeros", "config": {}}, "use_bias": true, "activity_regularizer": null, "kernel_size": [3]}, "inbound_nodes": [[["input_43", 0, 0, {}]]], "name": "conv1d_42"}, {"class_name": "Conv1D", "config": {"kernel_constraint": null, "kernel_initializer": {"class_name": "VarianceScaling", "config": {"distribution": "uniform", "scale": 1.0, "seed": null, "mode": "fan_avg"}}, "name": "conv1d_43", "bias_regularizer": null, "bias_constraint": null, "activation": "relu", "trainable": true, "padding": "same", "strides": [1], "dilation_rate": [1], "kernel_regularizer": null, "filters": 32, "bias_initializer": {"class_name": "Zeros", "config": {}}, "use_bias": true, "activity_regularizer": null, "kernel_size": [3]}, "inbound_nodes": [[["input_44", 0, 0, {}]]], "name": "conv1d_43"}, {"class_name": "Conv1D", "config": {"kernel_constraint": null, "kernel_initializer": {"class_name": "VarianceScaling", "config": {"distribution": "uniform", "scale": 1.0, "seed": null, "mode": "fan_avg"}}, "name": "conv1d_44", "bias_regularizer": null, "bias_constraint": null, "activation": "relu", "trainable": true, "padding": "same", "strides": [1], "dilation_rate": [1], "kernel_regularizer": null, "filters": 32, "bias_initializer": {"class_name": "Zeros", "config": {}}, "use_bias": true, "activity_regularizer": null, "kernel_size": [3]}, "inbound_nodes": [[["input_45", 0, 0, {}]]], "name": "conv1d_44"}, {"class_name": "Conv1D", "config": {"kernel_constraint": null, "kernel_initializer": {"class_name": "VarianceScaling", "config": {"distribution": "uniform", "scale": 1.0, "seed": null, "mode": "fan_avg"}}, "name": "conv1d_45", "bias_regularizer": null, "bias_constraint": null, "activation": "relu", "trainable": true, "padding": "same", "strides": [1], "dilation_rate": [1], "kernel_regularizer": null, "filters": 32, "bias_initializer": {"class_name": "Zeros", "config": {}}, "use_bias": true, "activity_regularizer": null, "kernel_size": [3]}, "inbound_nodes": [[["input_46", 0, 0, {}]]], "name": "conv1d_45"}, {"class_name": "Conv1D", "config": {"kernel_constraint": null, "kernel_initializer": {"class_name": "VarianceScaling", "config": {"distribution": "uniform", "scale": 1.0, "seed": null, "mode": "fan_avg"}}, "name": "conv1d_46", "bias_regularizer": null, "bias_constraint": null, "activation": "relu", "trainable": true, "padding": "same", "strides": [1], "dilation_rate": [1], "kernel_regularizer": null, "filters": 32, "bias_initializer": {"class_name": "Zeros", "config": {}}, "use_bias": true, "activity_regularizer": null, "kernel_size": [3]}, "inbound_nodes": [[["input_47", 0, 0, {}]]], "name": "conv1d_46"}, {"class_name": "Conv1D", "config": {"kernel_constraint": null, "kernel_initializer": {"class_name": "VarianceScaling", "config": {"distribution": "uniform", "scale": 1.0, "seed": null, "mode": "fan_avg"}}, "name": "conv1d_47", "bias_regularizer": null, "bias_constraint": null, "activation": "relu", "trainable": true, "padding": "same", "strides": [1], "dilation_rate": [1], "kernel_regularizer": null, "filters": 32, "bias_initializer": {"class_name": "Zeros", "config": {}}, "use_bias": true, "activity_regularizer": null, "kernel_size": [3]}, "inbound_nodes": [[["input_48", 0, 0, {}]]], "name": "conv1d_47"}, {"class_name": "Conv1D", "config": {"kernel_constraint": null, "kernel_initializer": {"class_name": "VarianceScaling", "config": {"distribution": "uniform", "scale": 1.0, "seed": null, "mode": "fan_avg"}}, "name": "conv1d_48", "bias_regularizer": null, "bias_constraint": null, "activation": "relu", "trainable": true, "padding": "same", "strides": [1], "dilation_rate": [1], "kernel_regularizer": null, "filters": 32, "bias_initializer": {"class_name": "Zeros", "config": {}}, "use_bias": true, "activity_regularizer": null, "kernel_size": [3]}, "inbound_nodes": [[["input_49", 0, 0, {}]]], "name": "conv1d_48"}, {"class_name": "Conv1D", "config": {"kernel_constraint": null, "kernel_initializer": {"class_name": "VarianceScaling", "config": {"distribution": "uniform", "scale": 1.0, "seed": null, "mode": "fan_avg"}}, "name": "conv1d_49", "bias_regularizer": null, "bias_constraint": null, "activation": "relu", "trainable": true, "padding": "same", "strides": [1], "dilation_rate": [1], "kernel_regularizer": null, "filters": 32, "bias_initializer": {"class_name": "Zeros", "config": {}}, "use_bias": true, "activity_regularizer": null, "kernel_size": [3]}, "inbound_nodes": [[["input_50", 0, 0, {}]]], "name": "conv1d_49"}, {"class_name": "Conv1D", "config": {"kernel_constraint": null, "kernel_initializer": {"class_name": "VarianceScaling", "config": {"distribution": "uniform", "scale": 1.0, "seed": null, "mode": "fan_avg"}}, "name": "conv1d_50", "bias_regularizer": null, "bias_constraint": null, "activation": "relu", "trainable": true, "padding": "same", "strides": [1], "dilation_rate": [1], "kernel_regularizer": null, "filters": 32, "bias_initializer": {"class_name": "Zeros", "config": {}}, "use_bias": true, "activity_regularizer": null, "kernel_size": [3]}, "inbound_nodes": [[["input_51", 0, 0, {}]]], "name": "conv1d_50"}, {"class_name": "Conv1D", "config": {"kernel_constraint": null, "kernel_initializer": {"class_name": "VarianceScaling", "config": {"distribution": "uniform", "scale": 1.0, "seed": null, "mode": "fan_avg"}}, "name": "conv1d_51", "bias_regularizer": null, "bias_constraint": null, "activation": "relu", "trainable": true, "padding": "same", "strides": [1], "dilation_rate": [1], "kernel_regularizer": null, "filters": 32, "bias_initializer": {"class_name": "Zeros", "config": {}}, "use_bias": true, "activity_regularizer": null, "kernel_size": [3]}, "inbound_nodes": [[["input_52", 0, 0, {}]]], "name": "conv1d_51"}, {"class_name": "Conv1D", "config": {"kernel_constraint": null, "kernel_initializer": {"class_name": "VarianceScaling", "config": {"distribution": "uniform", "scale": 1.0, "seed": null, "mode": "fan_avg"}}, "name": "conv1d_52", "bias_regularizer": null, "bias_constraint": null, "activation": "relu", "trainable": true, "padding": "same", "strides": [1], "dilation_rate": [1], "kernel_regularizer": null, "filters": 32, "bias_initializer": {"class_name": "Zeros", "config": {}}, "use_bias": true, "activity_regularizer": null, "kernel_size": [3]}, "inbound_nodes": [[["input_53", 0, 0, {}]]], "name": "conv1d_52"}, {"class_name": "Conv1D", "config": {"kernel_constraint": null, "kernel_initializer": {"class_name": "VarianceScaling", "config": {"distribution": "uniform", "scale": 1.0, "seed": null, "mode": "fan_avg"}}, "name": "conv1d_53", "bias_regularizer": null, "bias_constraint": null, "activation": "relu", "trainable": true, "padding": "same", "strides": [1], "dilation_rate": [1], "kernel_regularizer": null, "filters": 32, "bias_initializer": {"class_name": "Zeros", "config": {}}, "use_bias": true, "activity_regularizer": null, "kernel_size": [3]}, "inbound_nodes": [[["input_54", 0, 0, {}]]], "name": "conv1d_53"}, {"class_name": "Conv1D", "config": {"kernel_constraint": null, "kernel_initializer": {"class_name": "VarianceScaling", "config": {"distribution": "uniform", "scale": 1.0, "seed": null, "mode": "fan_avg"}}, "name": "conv1d_54", "bias_regularizer": null, "bias_constraint": null, "activation": "relu", "trainable": true, "padding": "same", "strides": [1], "dilation_rate": [1], "kernel_regularizer": null, "filters": 32, "bias_initializer": {"class_name": "Zeros", "config": {}}, "use_bias": true, "activity_regularizer": null, "kernel_size": [3]}, "inbound_nodes": [[["input_55", 0, 0, {}]]], "name": "conv1d_54"}, {"class_name": "Conv1D", "config": {"kernel_constraint": null, "kernel_initializer": {"class_name": "VarianceScaling", "config": {"distribution": "uniform", "scale": 1.0, "seed": null, "mode": "fan_avg"}}, "name": "conv1d_55", "bias_regularizer": null, "bias_constraint": null, "activation": "relu", "trainable": true, "padding": "same", "strides": [1], "dilation_rate": [1], "kernel_regularizer": null, "filters": 32, "bias_initializer": {"class_name": "Zeros", "config": {}}, "use_bias": true, "activity_regularizer": null, "kernel_size": [3]}, "inbound_nodes": [[["input_56", 0, 0, {}]]], "name": "conv1d_55"}, {"class_name": "Conv1D", "config": {"kernel_constraint": null, "kernel_initializer": {"class_name": "VarianceScaling", "config": {"distribution": "uniform", "scale": 1.0, "seed": null, "mode": "fan_avg"}}, "name": "conv1d_56", "bias_regularizer": null, "bias_constraint": null, "activation": "relu", "trainable": true, "padding": "same", "strides": [1], "dilation_rate": [1], "kernel_regularizer": null, "filters": 32, "bias_initializer": {"class_name": "Zeros", "config": {}}, "use_bias": true, "activity_regularizer": null, "kernel_size": [3]}, "inbound_nodes": [[["input_57", 0, 0, {}]]], "name": "conv1d_56"}, {"class_name": "Conv1D", "config": {"kernel_constraint": null, "kernel_initializer": {"class_name": "VarianceScaling", "config": {"distribution": "uniform", "scale": 1.0, "seed": null, "mode": "fan_avg"}}, "name": "conv1d_57", "bias_regularizer": null, "bias_constraint": null, "activation": "relu", "trainable": true, "padding": "same", "strides": [1], "dilation_rate": [1], "kernel_regularizer": null, "filters": 32, "bias_initializer": {"class_name": "Zeros", "config": {}}, "use_bias": true, "activity_regularizer": null, "kernel_size": [3]}, "inbound_nodes": [[["input_58", 0, 0, {}]]], "name": "conv1d_57"}, {"class_name": "Conv1D", "config": {"kernel_constraint": null, "kernel_initializer": {"class_name": "VarianceScaling", "config": {"distribution": "uniform", "scale": 1.0, "seed": null, "mode": "fan_avg"}}, "name": "conv1d_58", "bias_regularizer": null, "bias_constraint": null, "activation": "relu", "trainable": true, "padding": "same", "strides": [1], "dilation_rate": [1], "kernel_regularizer": null, "filters": 32, "bias_initializer": {"class_name": "Zeros", "config": {}}, "use_bias": true, "activity_regularizer": null, "kernel_size": [3]}, "inbound_nodes": [[["input_59", 0, 0, {}]]], "name": "conv1d_58"}, {"class_name": "Conv1D", "config": {"kernel_constraint": null, "kernel_initializer": {"class_name": "VarianceScaling", "config": {"distribution": "uniform", "scale": 1.0, "seed": null, "mode": "fan_avg"}}, "name": "conv1d_59", "bias_regularizer": null, "bias_constraint": null, "activation": "relu", "trainable": true, "padding": "same", "strides": [1], "dilation_rate": [1], "kernel_regularizer": null, "filters": 32, "bias_initializer": {"class_name": "Zeros", "config": {}}, "use_bias": true, "activity_regularizer": null, "kernel_size": [3]}, "inbound_nodes": [[["input_60", 0, 0, {}]]], "name": "conv1d_59"}, {"class_name": "Conv1D", "config": {"kernel_constraint": null, "kernel_initializer": {"class_name": "VarianceScaling", "config": {"distribution": "uniform", "scale": 1.0, "seed": null, "mode": "fan_avg"}}, "name": "conv1d_60", "bias_regularizer": null, "bias_constraint": null, "activation": "relu", "trainable": true, "padding": "same", "strides": [1], "dilation_rate": [1], "kernel_regularizer": null, "filters": 32, "bias_initializer": {"class_name": "Zeros", "config": {}}, "use_bias": true, "activity_regularizer": null, "kernel_size": [3]}, "inbound_nodes": [[["input_61", 0, 0, {}]]], "name": "conv1d_60"}, {"class_name": "Conv1D", "config": {"kernel_constraint": null, "kernel_initializer": {"class_name": "VarianceScaling", "config": {"distribution": "uniform", "scale": 1.0, "seed": null, "mode": "fan_avg"}}, "name": "conv1d_61", "bias_regularizer": null, "bias_constraint": null, "activation": "relu", "trainable": true, "padding": "same", "strides": [1], "dilation_rate": [1], "kernel_regularizer": null, "filters": 32, "bias_initializer": {"class_name": "Zeros", "config": {}}, "use_bias": true, "activity_regularizer": null, "kernel_size": [3]}, "inbound_nodes": [[["input_62", 0, 0, {}]]], "name": "conv1d_61"}, {"class_name": "Conv1D", "config": {"kernel_constraint": null, "kernel_initializer": {"class_name": "VarianceScaling", "config": {"distribution": "uniform", "scale": 1.0, "seed": null, "mode": "fan_avg"}}, "name": "conv1d_62", "bias_regularizer": null, "bias_constraint": null, "activation": "relu", "trainable": true, "padding": "same", "strides": [1], "dilation_rate": [1], "kernel_regularizer": null, "filters": 32, "bias_initializer": {"class_name": "Zeros", "config": {}}, "use_bias": true, "activity_regularizer": null, "kernel_size": [3]}, "inbound_nodes": [[["input_63", 0, 0, {}]]], "name": "conv1d_62"}, {"class_name": "Conv1D", "config": {"kernel_constraint": null, "kernel_initializer": {"class_name": "VarianceScaling", "config": {"distribution": "uniform", "scale": 1.0, "seed": null, "mode": "fan_avg"}}, "name": "conv1d_63", "bias_regularizer": null, "bias_constraint": null, "activation": "relu", "trainable": true, "padding": "same", "strides": [1], "dilation_rate": [1], "kernel_regularizer": null, "filters": 32, "bias_initializer": {"class_name": "Zeros", "config": {}}, "use_bias": true, "activity_regularizer": null, "kernel_size": [3]}, "inbound_nodes": [[["input_64", 0, 0, {}]]], "name": "conv1d_63"}, {"class_name": "Conv1D", "config": {"kernel_constraint": null, "kernel_initializer": {"class_name": "VarianceScaling", "config": {"distribution": "uniform", "scale": 1.0, "seed": null, "mode": "fan_avg"}}, "name": "conv1d_64", "bias_regularizer": null, "bias_constraint": null, "activation": "relu", "trainable": true, "padding": "same", "strides": [1], "dilation_rate": [1], "kernel_regularizer": null, "filters": 32, "bias_initializer": {"class_name": "Zeros", "config": {}}, "use_bias": true, "activity_regularizer": null, "kernel_size": [3]}, "inbound_nodes": [[["input_65", 0, 0, {}]]], "name": "conv1d_64"}, {"class_name": "Conv1D", "config": {"kernel_constraint": null, "kernel_initializer": {"class_name": "VarianceScaling", "config": {"distribution": "uniform", "scale": 1.0, "seed": null, "mode": "fan_avg"}}, "name": "conv1d_65", "bias_regularizer": null, "bias_constraint": null, "activation": "relu", "trainable": true, "padding": "same", "strides": [1], "dilation_rate": [1], "kernel_regularizer": null, "filters": 32, "bias_initializer": {"class_name": "Zeros", "config": {}}, "use_bias": true, "activity_regularizer": null, "kernel_size": [3]}, "inbound_nodes": [[["input_66", 0, 0, {}]]], "name": "conv1d_65"}, {"class_name": "Conv1D", "config": {"kernel_constraint": null, "kernel_initializer": {"class_name": "VarianceScaling", "config": {"distribution": "uniform", "scale": 1.0, "seed": null, "mode": "fan_avg"}}, "name": "conv1d_66", "bias_regularizer": null, "bias_constraint": null, "activation": "relu", "trainable": true, "padding": "same", "strides": [1], "dilation_rate": [1], "kernel_regularizer": null, "filters": 32, "bias_initializer": {"class_name": "Zeros", "config": {}}, "use_bias": true, "activity_regularizer": null, "kernel_size": [3]}, "inbound_nodes": [[["input_67", 0, 0, {}]]], "name": "conv1d_66"}, {"class_name": "Conv1D", "config": {"kernel_constraint": null, "kernel_initializer": {"class_name": "VarianceScaling", "config": {"distribution": "uniform", "scale": 1.0, "seed": null, "mode": "fan_avg"}}, "name": "conv1d_67", "bias_regularizer": null, "bias_constraint": null, "activation": "relu", "trainable": true, "padding": "same", "strides": [1], "dilation_rate": [1], "kernel_regularizer": null, "filters": 32, "bias_initializer": {"class_name": "Zeros", "config": {}}, "use_bias": true, "activity_regularizer": null, "kernel_size": [3]}, "inbound_nodes": [[["input_68", 0, 0, {}]]], "name": "conv1d_67"}, {"class_name": "Conv1D", "config": {"kernel_constraint": null, "kernel_initializer": {"class_name": "VarianceScaling", "config": {"distribution": "uniform", "scale": 1.0, "seed": null, "mode": "fan_avg"}}, "name": "conv1d_68", "bias_regularizer": null, "bias_constraint": null, "activation": "relu", "trainable": true, "padding": "same", "strides": [1], "dilation_rate": [1], "kernel_regularizer": null, "filters": 32, "bias_initializer": {"class_name": "Zeros", "config": {}}, "use_bias": true, "activity_regularizer": null, "kernel_size": [3]}, "inbound_nodes": [[["input_69", 0, 0, {}]]], "name": "conv1d_68"}, {"class_name": "Conv1D", "config": {"kernel_constraint": null, "kernel_initializer": {"class_name": "VarianceScaling", "config": {"distribution": "uniform", "scale": 1.0, "seed": null, "mode": "fan_avg"}}, "name": "conv1d_69", "bias_regularizer": null, "bias_constraint": null, "activation": "relu", "trainable": true, "padding": "same", "strides": [1], "dilation_rate": [1], "kernel_regularizer": null, "filters": 32, "bias_initializer": {"class_name": "Zeros", "config": {}}, "use_bias": true, "activity_regularizer": null, "kernel_size": [3]}, "inbound_nodes": [[["input_70", 0, 0, {}]]], "name": "conv1d_69"}, {"class_name": "Conv1D", "config": {"kernel_constraint": null, "kernel_initializer": {"class_name": "VarianceScaling", "config": {"distribution": "uniform", "scale": 1.0, "seed": null, "mode": "fan_avg"}}, "name": "conv1d_70", "bias_regularizer": null, "bias_constraint": null, "activation": "relu", "trainable": true, "padding": "same", "strides": [1], "dilation_rate": [1], "kernel_regularizer": null, "filters": 32, "bias_initializer": {"class_name": "Zeros", "config": {}}, "use_bias": true, "activity_regularizer": null, "kernel_size": [3]}, "inbound_nodes": [[["input_71", 0, 0, {}]]], "name": "conv1d_70"}, {"class_name": "Conv1D", "config": {"kernel_constraint": null, "kernel_initializer": {"class_name": "VarianceScaling", "config": {"distribution": "uniform", "scale": 1.0, "seed": null, "mode": "fan_avg"}}, "name": "conv1d_71", "bias_regularizer": null, "bias_constraint": null, "activation": "relu", "trainable": true, "padding": "same", "strides": [1], "dilation_rate": [1], "kernel_regularizer": null, "filters": 32, "bias_initializer": {"class_name": "Zeros", "config": {}}, "use_bias": true, "activity_regularizer": null, "kernel_size": [3]}, "inbound_nodes": [[["input_72", 0, 0, {}]]], "name": "conv1d_71"}, {"class_name": "Conv1D", "config": {"kernel_constraint": null, "kernel_initializer": {"class_name": "VarianceScaling", "config": {"distribution": "uniform", "scale": 1.0, "seed": null, "mode": "fan_avg"}}, "name": "conv1d_72", "bias_regularizer": null, "bias_constraint": null, "activation": "relu", "trainable": true, "padding": "same", "strides": [1], "dilation_rate": [1], "kernel_regularizer": null, "filters": 32, "bias_initializer": {"class_name": "Zeros", "config": {}}, "use_bias": true, "activity_regularizer": null, "kernel_size": [3]}, "inbound_nodes": [[["input_73", 0, 0, {}]]], "name": "conv1d_72"}, {"class_name": "Conv1D", "config": {"kernel_constraint": null, "kernel_initializer": {"class_name": "VarianceScaling", "config": {"distribution": "uniform", "scale": 1.0, "seed": null, "mode": "fan_avg"}}, "name": "conv1d_73", "bias_regularizer": null, "bias_constraint": null, "activation": "relu", "trainable": true, "padding": "same", "strides": [1], "dilation_rate": [1], "kernel_regularizer": null, "filters": 32, "bias_initializer": {"class_name": "Zeros", "config": {}}, "use_bias": true, "activity_regularizer": null, "kernel_size": [3]}, "inbound_nodes": [[["input_74", 0, 0, {}]]], "name": "conv1d_73"}, {"class_name": "Conv1D", "config": {"kernel_constraint": null, "kernel_initializer": {"class_name": "VarianceScaling", "config": {"distribution": "uniform", "scale": 1.0, "seed": null, "mode": "fan_avg"}}, "name": "conv1d_74", "bias_regularizer": null, "bias_constraint": null, "activation": "relu", "trainable": true, "padding": "same", "strides": [1], "dilation_rate": [1], "kernel_regularizer": null, "filters": 32, "bias_initializer": {"class_name": "Zeros", "config": {}}, "use_bias": true, "activity_regularizer": null, "kernel_size": [3]}, "inbound_nodes": [[["input_75", 0, 0, {}]]], "name": "conv1d_74"}, {"class_name": "Conv1D", "config": {"kernel_constraint": null, "kernel_initializer": {"class_name": "VarianceScaling", "config": {"distribution": "uniform", "scale": 1.0, "seed": null, "mode": "fan_avg"}}, "name": "conv1d_75", "bias_regularizer": null, "bias_constraint": null, "activation": "relu", "trainable": true, "padding": "same", "strides": [1], "dilation_rate": [1], "kernel_regularizer": null, "filters": 32, "bias_initializer": {"class_name": "Zeros", "config": {}}, "use_bias": true, "activity_regularizer": null, "kernel_size": [3]}, "inbound_nodes": [[["input_76", 0, 0, {}]]], "name": "conv1d_75"}, {"class_name": "Conv1D", "config": {"kernel_constraint": null, "kernel_initializer": {"class_name": "VarianceScaling", "config": {"distribution": "uniform", "scale": 1.0, "seed": null, "mode": "fan_avg"}}, "name": "conv1d_76", "bias_regularizer": null, "bias_constraint": null, "activation": "relu", "trainable": true, "padding": "same", "strides": [1], "dilation_rate": [1], "kernel_regularizer": null, "filters": 32, "bias_initializer": {"class_name": "Zeros", "config": {}}, "use_bias": true, "activity_regularizer": null, "kernel_size": [3]}, "inbound_nodes": [[["input_77", 0, 0, {}]]], "name": "conv1d_76"}, {"class_name": "Conv1D", "config": {"kernel_constraint": null, "kernel_initializer": {"class_name": "VarianceScaling", "config": {"distribution": "uniform", "scale": 1.0, "seed": null, "mode": "fan_avg"}}, "name": "conv1d_77", "bias_regularizer": null, "bias_constraint": null, "activation": "relu", "trainable": true, "padding": "same", "strides": [1], "dilation_rate": [1], "kernel_regularizer": null, "filters": 32, "bias_initializer": {"class_name": "Zeros", "config": {}}, "use_bias": true, "activity_regularizer": null, "kernel_size": [3]}, "inbound_nodes": [[["input_78", 0, 0, {}]]], "name": "conv1d_77"}, {"class_name": "Conv1D", "config": {"kernel_constraint": null, "kernel_initializer": {"class_name": "VarianceScaling", "config": {"distribution": "uniform", "scale": 1.0, "seed": null, "mode": "fan_avg"}}, "name": "conv1d_78", "bias_regularizer": null, "bias_constraint": null, "activation": "relu", "trainable": true, "padding": "same", "strides": [1], "dilation_rate": [1], "kernel_regularizer": null, "filters": 32, "bias_initializer": {"class_name": "Zeros", "config": {}}, "use_bias": true, "activity_regularizer": null, "kernel_size": [3]}, "inbound_nodes": [[["input_79", 0, 0, {}]]], "name": "conv1d_78"}, {"class_name": "Conv1D", "config": {"kernel_constraint": null, "kernel_initializer": {"class_name": "VarianceScaling", "config": {"distribution": "uniform", "scale": 1.0, "seed": null, "mode": "fan_avg"}}, "name": "conv1d_79", "bias_regularizer": null, "bias_constraint": null, "activation": "relu", "trainable": true, "padding": "same", "strides": [1], "dilation_rate": [1], "kernel_regularizer": null, "filters": 32, "bias_initializer": {"class_name": "Zeros", "config": {}}, "use_bias": true, "activity_regularizer": null, "kernel_size": [3]}, "inbound_nodes": [[["input_80", 0, 0, {}]]], "name": "conv1d_79"}, {"class_name": "Conv1D", "config": {"kernel_constraint": null, "kernel_initializer": {"class_name": "VarianceScaling", "config": {"distribution": "uniform", "scale": 1.0, "seed": null, "mode": "fan_avg"}}, "name": "conv1d_80", "bias_regularizer": null, "bias_constraint": null, "activation": "relu", "trainable": true, "padding": "same", "strides": [1], "dilation_rate": [1], "kernel_regularizer": null, "filters": 32, "bias_initializer": {"class_name": "Zeros", "config": {}}, "use_bias": true, "activity_regularizer": null, "kernel_size": [3]}, "inbound_nodes": [[["input_81", 0, 0, {}]]], "name": "conv1d_80"}, {"class_name": "Conv1D", "config": {"kernel_constraint": null, "kernel_initializer": {"class_name": "VarianceScaling", "config": {"distribution": "uniform", "scale": 1.0, "seed": null, "mode": "fan_avg"}}, "name": "conv1d_81", "bias_regularizer": null, "bias_constraint": null, "activation": "relu", "trainable": true, "padding": "same", "strides": [1], "dilation_rate": [1], "kernel_regularizer": null, "filters": 32, "bias_initializer": {"class_name": "Zeros", "config": {}}, "use_bias": true, "activity_regularizer": null, "kernel_size": [3]}, "inbound_nodes": [[["input_82", 0, 0, {}]]], "name": "conv1d_81"}, {"class_name": "Conv1D", "config": {"kernel_constraint": null, "kernel_initializer": {"class_name": "VarianceScaling", "config": {"distribution": "uniform", "scale": 1.0, "seed": null, "mode": "fan_avg"}}, "name": "conv1d_82", "bias_regularizer": null, "bias_constraint": null, "activation": "relu", "trainable": true, "padding": "same", "strides": [1], "dilation_rate": [1], "kernel_regularizer": null, "filters": 32, "bias_initializer": {"class_name": "Zeros", "config": {}}, "use_bias": true, "activity_regularizer": null, "kernel_size": [3]}, "inbound_nodes": [[["input_83", 0, 0, {}]]], "name": "conv1d_82"}, {"class_name": "Conv1D", "config": {"kernel_constraint": null, "kernel_initializer": {"class_name": "VarianceScaling", "config": {"distribution": "uniform", "scale": 1.0, "seed": null, "mode": "fan_avg"}}, "name": "conv1d_83", "bias_regularizer": null, "bias_constraint": null, "activation": "relu", "trainable": true, "padding": "same", "strides": [1], "dilation_rate": [1], "kernel_regularizer": null, "filters": 32, "bias_initializer": {"class_name": "Zeros", "config": {}}, "use_bias": true, "activity_regularizer": null, "kernel_size": [3]}, "inbound_nodes": [[["input_84", 0, 0, {}]]], "name": "conv1d_83"}, {"class_name": "Conv1D", "config": {"kernel_constraint": null, "kernel_initializer": {"class_name": "VarianceScaling", "config": {"distribution": "uniform", "scale": 1.0, "seed": null, "mode": "fan_avg"}}, "name": "conv1d_84", "bias_regularizer": null, "bias_constraint": null, "activation": "relu", "trainable": true, "padding": "same", "strides": [1], "dilation_rate": [1], "kernel_regularizer": null, "filters": 32, "bias_initializer": {"class_name": "Zeros", "config": {}}, "use_bias": true, "activity_regularizer": null, "kernel_size": [3]}, "inbound_nodes": [[["input_85", 0, 0, {}]]], "name": "conv1d_84"}, {"class_name": "Conv1D", "config": {"kernel_constraint": null, "kernel_initializer": {"class_name": "VarianceScaling", "config": {"distribution": "uniform", "scale": 1.0, "seed": null, "mode": "fan_avg"}}, "name": "conv1d_85", "bias_regularizer": null, "bias_constraint": null, "activation": "relu", "trainable": true, "padding": "same", "strides": [1], "dilation_rate": [1], "kernel_regularizer": null, "filters": 32, "bias_initializer": {"class_name": "Zeros", "config": {}}, "use_bias": true, "activity_regularizer": null, "kernel_size": [3]}, "inbound_nodes": [[["input_86", 0, 0, {}]]], "name": "conv1d_85"}, {"class_name": "Conv1D", "config": {"kernel_constraint": null, "kernel_initializer": {"class_name": "VarianceScaling", "config": {"distribution": "uniform", "scale": 1.0, "seed": null, "mode": "fan_avg"}}, "name": "conv1d_86", "bias_regularizer": null, "bias_constraint": null, "activation": "relu", "trainable": true, "padding": "same", "strides": [1], "dilation_rate": [1], "kernel_regularizer": null, "filters": 32, "bias_initializer": {"class_name": "Zeros", "config": {}}, "use_bias": true, "activity_regularizer": null, "kernel_size": [3]}, "inbound_nodes": [[["input_87", 0, 0, {}]]], "name": "conv1d_86"}, {"class_name": "Conv1D", "config": {"kernel_constraint": null, "kernel_initializer": {"class_name": "VarianceScaling", "config": {"distribution": "uniform", "scale": 1.0, "seed": null, "mode": "fan_avg"}}, "name": "conv1d_87", "bias_regularizer": null, "bias_constraint": null, "activation": "relu", "trainable": true, "padding": "same", "strides": [1], "dilation_rate": [1], "kernel_regularizer": null, "filters": 32, "bias_initializer": {"class_name": "Zeros", "config": {}}, "use_bias": true, "activity_regularizer": null, "kernel_size": [3]}, "inbound_nodes": [[["input_88", 0, 0, {}]]], "name": "conv1d_87"}, {"class_name": "Conv1D", "config": {"kernel_constraint": null, "kernel_initializer": {"class_name": "VarianceScaling", "config": {"distribution": "uniform", "scale": 1.0, "seed": null, "mode": "fan_avg"}}, "name": "conv1d_88", "bias_regularizer": null, "bias_constraint": null, "activation": "relu", "trainable": true, "padding": "same", "strides": [1], "dilation_rate": [1], "kernel_regularizer": null, "filters": 32, "bias_initializer": {"class_name": "Zeros", "config": {}}, "use_bias": true, "activity_regularizer": null, "kernel_size": [3]}, "inbound_nodes": [[["input_89", 0, 0, {}]]], "name": "conv1d_88"}, {"class_name": "Conv1D", "config": {"kernel_constraint": null, "kernel_initializer": {"class_name": "VarianceScaling", "config": {"distribution": "uniform", "scale": 1.0, "seed": null, "mode": "fan_avg"}}, "name": "conv1d_89", "bias_regularizer": null, "bias_constraint": null, "activation": "relu", "trainable": true, "padding": "same", "strides": [1], "dilation_rate": [1], "kernel_regularizer": null, "filters": 32, "bias_initializer": {"class_name": "Zeros", "config": {}}, "use_bias": true, "activity_regularizer": null, "kernel_size": [3]}, "inbound_nodes": [[["input_90", 0, 0, {}]]], "name": "conv1d_89"}, {"class_name": "Conv1D", "config": {"kernel_constraint": null, "kernel_initializer": {"class_name": "VarianceScaling", "config": {"distribution": "uniform", "scale": 1.0, "seed": null, "mode": "fan_avg"}}, "name": "conv1d_90", "bias_regularizer": null, "bias_constraint": null, "activation": "relu", "trainable": true, "padding": "same", "strides": [1], "dilation_rate": [1], "kernel_regularizer": null, "filters": 32, "bias_initializer": {"class_name": "Zeros", "config": {}}, "use_bias": true, "activity_regularizer": null, "kernel_size": [3]}, "inbound_nodes": [[["input_91", 0, 0, {}]]], "name": "conv1d_90"}, {"class_name": "Conv1D", "config": {"kernel_constraint": null, "kernel_initializer": {"class_name": "VarianceScaling", "config": {"distribution": "uniform", "scale": 1.0, "seed": null, "mode": "fan_avg"}}, "name": "conv1d_91", "bias_regularizer": null, "bias_constraint": null, "activation": "relu", "trainable": true, "padding": "same", "strides": [1], "dilation_rate": [1], "kernel_regularizer": null, "filters": 32, "bias_initializer": {"class_name": "Zeros", "config": {}}, "use_bias": true, "activity_regularizer": null, "kernel_size": [3]}, "inbound_nodes": [[["input_92", 0, 0, {}]]], "name": "conv1d_91"}, {"class_name": "Conv1D", "config": {"kernel_constraint": null, "kernel_initializer": {"class_name": "VarianceScaling", "config": {"distribution": "uniform", "scale": 1.0, "seed": null, "mode": "fan_avg"}}, "name": "conv1d_92", "bias_regularizer": null, "bias_constraint": null, "activation": "relu", "trainable": true, "padding": "same", "strides": [1], "dilation_rate": [1], "kernel_regularizer": null, "filters": 32, "bias_initializer": {"class_name": "Zeros", "config": {}}, "use_bias": true, "activity_regularizer": null, "kernel_size": [3]}, "inbound_nodes": [[["input_93", 0, 0, {}]]], "name": "conv1d_92"}, {"class_name": "Conv1D", "config": {"kernel_constraint": null, "kernel_initializer": {"class_name": "VarianceScaling", "config": {"distribution": "uniform", "scale": 1.0, "seed": null, "mode": "fan_avg"}}, "name": "conv1d_93", "bias_regularizer": null, "bias_constraint": null, "activation": "relu", "trainable": true, "padding": "same", "strides": [1], "dilation_rate": [1], "kernel_regularizer": null, "filters": 32, "bias_initializer": {"class_name": "Zeros", "config": {}}, "use_bias": true, "activity_regularizer": null, "kernel_size": [3]}, "inbound_nodes": [[["input_94", 0, 0, {}]]], "name": "conv1d_93"}, {"class_name": "Conv1D", "config": {"kernel_constraint": null, "kernel_initializer": {"class_name": "VarianceScaling", "config": {"distribution": "uniform", "scale": 1.0, "seed": null, "mode": "fan_avg"}}, "name": "conv1d_94", "bias_regularizer": null, "bias_constraint": null, "activation": "relu", "trainable": true, "padding": "same", "strides": [1], "dilation_rate": [1], "kernel_regularizer": null, "filters": 32, "bias_initializer": {"class_name": "Zeros", "config": {}}, "use_bias": true, "activity_regularizer": null, "kernel_size": [3]}, "inbound_nodes": [[["input_95", 0, 0, {}]]], "name": "conv1d_94"}, {"class_name": "Conv1D", "config": {"kernel_constraint": null, "kernel_initializer": {"class_name": "VarianceScaling", "config": {"distribution": "uniform", "scale": 1.0, "seed": null, "mode": "fan_avg"}}, "name": "conv1d_95", "bias_regularizer": null, "bias_constraint": null, "activation": "relu", "trainable": true, "padding": "same", "strides": [1], "dilation_rate": [1], "kernel_regularizer": null, "filters": 32, "bias_initializer": {"class_name": "Zeros", "config": {}}, "use_bias": true, "activity_regularizer": null, "kernel_size": [3]}, "inbound_nodes": [[["input_96", 0, 0, {}]]], "name": "conv1d_95"}, {"class_name": "Conv1D", "config": {"kernel_constraint": null, "kernel_initializer": {"class_name": "VarianceScaling", "config": {"distribution": "uniform", "scale": 1.0, "seed": null, "mode": "fan_avg"}}, "name": "conv1d_96", "bias_regularizer": null, "bias_constraint": null, "activation": "relu", "trainable": true, "padding": "same", "strides": [1], "dilation_rate": [1], "kernel_regularizer": null, "filters": 32, "bias_initializer": {"class_name": "Zeros", "config": {}}, "use_bias": true, "activity_regularizer": null, "kernel_size": [3]}, "inbound_nodes": [[["input_97", 0, 0, {}]]], "name": "conv1d_96"}, {"class_name": "Conv1D", "config": {"kernel_constraint": null, "kernel_initializer": {"class_name": "VarianceScaling", "config": {"distribution": "uniform", "scale": 1.0, "seed": null, "mode": "fan_avg"}}, "name": "conv1d_97", "bias_regularizer": null, "bias_constraint": null, "activation": "relu", "trainable": true, "padding": "same", "strides": [1], "dilation_rate": [1], "kernel_regularizer": null, "filters": 32, "bias_initializer": {"class_name": "Zeros", "config": {}}, "use_bias": true, "activity_regularizer": null, "kernel_size": [3]}, "inbound_nodes": [[["input_98", 0, 0, {}]]], "name": "conv1d_97"}, {"class_name": "Conv1D", "config": {"kernel_constraint": null, "kernel_initializer": {"class_name": "VarianceScaling", "config": {"distribution": "uniform", "scale": 1.0, "seed": null, "mode": "fan_avg"}}, "name": "conv1d_98", "bias_regularizer": null, "bias_constraint": null, "activation": "relu", "trainable": true, "padding": "same", "strides": [1], "dilation_rate": [1], "kernel_regularizer": null, "filters": 32, "bias_initializer": {"class_name": "Zeros", "config": {}}, "use_bias": true, "activity_regularizer": null, "kernel_size": [3]}, "inbound_nodes": [[["input_99", 0, 0, {}]]], "name": "conv1d_98"}, {"class_name": "Conv1D", "config": {"kernel_constraint": null, "kernel_initializer": {"class_name": "VarianceScaling", "config": {"distribution": "uniform", "scale": 1.0, "seed": null, "mode": "fan_avg"}}, "name": "conv1d_99", "bias_regularizer": null, "bias_constraint": null, "activation": "relu", "trainable": true, "padding": "same", "strides": [1], "dilation_rate": [1], "kernel_regularizer": null, "filters": 32, "bias_initializer": {"class_name": "Zeros", "config": {}}, "use_bias": true, "activity_regularizer": null, "kernel_size": [3]}, "inbound_nodes": [[["input_100", 0, 0, {}]]], "name": "conv1d_99"}, {"class_name": "Conv1D", "config": {"kernel_constraint": null, "kernel_initializer": {"class_name": "VarianceScaling", "config": {"distribution": "uniform", "scale": 1.0, "seed": null, "mode": "fan_avg"}}, "name": "conv1d_100", "bias_regularizer": null, "bias_constraint": null, "activation": "relu", "trainable": true, "padding": "same", "strides": [1], "dilation_rate": [1], "kernel_regularizer": null, "filters": 32, "bias_initializer": {"class_name": "Zeros", "config": {}}, "use_bias": true, "activity_regularizer": null, "kernel_size": [3]}, "inbound_nodes": [[["input_101", 0, 0, {}]]], "name": "conv1d_100"}, {"class_name": "Dense", "config": {"kernel_initializer": {"class_name": "VarianceScaling", "config": {"distribution": "uniform", "scale": 1.0, "seed": null, "mode": "fan_avg"}}, "name": "dense_2", "kernel_constraint": null, "bias_regularizer": null, "bias_constraint": null, "activation": "relu", "trainable": true, "kernel_regularizer": null, "bias_initializer": {"class_name": "Zeros", "config": {}}, "units": 300, "use_bias": true, "activity_regularizer": null}, "inbound_nodes": [[["dense_1", 0, 0, {}]]], "name": "dense_2"}, {"class_name": "LSTM", "config": {"recurrent_activation": "hard_sigmoid", "trainable": true, "recurrent_initializer": {"class_name": "Orthogonal", "config": {"seed": null, "gain": 1.0}}, "use_bias": true, "bias_regularizer": null, "return_state": false, "unroll": false, "activation": "relu", "bias_initializer": {"class_name": "Zeros", "config": {}}, "units": 20, "unit_forget_bias": true, "activity_regularizer": null, "recurrent_dropout": 0.2, "kernel_initializer": {"class_name": "VarianceScaling", "config": {"distribution": "uniform", "scale": 1.0, "seed": null, "mode": "fan_avg"}}, "kernel_constraint": null, "dropout": 0.2, "stateful": false, "recurrent_regularizer": null, "name": "lstm_1", "bias_constraint": null, "go_backwards": false, "implementation": 0, "kernel_regularizer": null, "return_sequences": true, "recurrent_constraint": null}, "inbound_nodes": [[["conv1d_1", 0, 0, {}]]], "name": "lstm_1"}, {"class_name": "LSTM", "config": {"recurrent_activation": "hard_sigmoid", "trainable": true, "recurrent_initializer": {"class_name": "Orthogonal", "config": {"seed": null, "gain": 1.0}}, "use_bias": true, "bias_regularizer": null, "return_state": false, "unroll": false, "activation": "relu", "bias_initializer": {"class_name": "Zeros", "config": {}}, "units": 20, "unit_forget_bias": true, "activity_regularizer": null, "recurrent_dropout": 0.2, "kernel_initializer": {"class_name": "VarianceScaling", "config": {"distribution": "uniform", "scale": 1.0, "seed": null, "mode": "fan_avg"}}, "kernel_constraint": null, "dropout": 0.2, "stateful": false, "recurrent_regularizer": null, "name": "lstm_2", "bias_constraint": null, "go_backwards": false, "implementation": 0, "kernel_regularizer": null, "return_sequences": true, "recurrent_constraint": null}, "inbound_nodes": [[["conv1d_2", 0, 0, {}]]], "name": "lstm_2"}, {"class_name": "LSTM", "config": {"recurrent_activation": "hard_sigmoid", "trainable": true, "recurrent_initializer": {"class_name": "Orthogonal", "config": {"seed": null, "gain": 1.0}}, "use_bias": true, "bias_regularizer": null, "return_state": false, "unroll": false, "activation": "relu", "bias_initializer": {"class_name": "Zeros", "config": {}}, "units": 20, "unit_forget_bias": true, "activity_regularizer": null, "recurrent_dropout": 0.2, "kernel_initializer": {"class_name": "VarianceScaling", "config": {"distribution": "uniform", "scale": 1.0, "seed": null, "mode": "fan_avg"}}, "kernel_constraint": null, "dropout": 0.2, "stateful": false, "recurrent_regularizer": null, "name": "lstm_3", "bias_constraint": null, "go_backwards": false, "implementation": 0, "kernel_regularizer": null, "return_sequences": true, "recurrent_constraint": null}, "inbound_nodes": [[["conv1d_3", 0, 0, {}]]], "name": "lstm_3"}, {"class_name": "LSTM", "config": {"recurrent_activation": "hard_sigmoid", "trainable": true, "recurrent_initializer": {"class_name": "Orthogonal", "config": {"seed": null, "gain": 1.0}}, "use_bias": true, "bias_regularizer": null, "return_state": false, "unroll": false, "activation": "relu", "bias_initializer": {"class_name": "Zeros", "config": {}}, "units": 20, "unit_forget_bias": true, "activity_regularizer": null, "recurrent_dropout": 0.2, "kernel_initializer": {"class_name": "VarianceScaling", "config": {"distribution": "uniform", "scale": 1.0, "seed": null, "mode": "fan_avg"}}, "kernel_constraint": null, "dropout": 0.2, "stateful": false, "recurrent_regularizer": null, "name": "lstm_4", "bias_constraint": null, "go_backwards": false, "implementation": 0, "kernel_regularizer": null, "return_sequences": true, "recurrent_constraint": null}, "inbound_nodes": [[["conv1d_4", 0, 0, {}]]], "name": "lstm_4"}, {"class_name": "LSTM", "config": {"recurrent_activation": "hard_sigmoid", "trainable": true, "recurrent_initializer": {"class_name": "Orthogonal", "config": {"seed": null, "gain": 1.0}}, "use_bias": true, "bias_regularizer": null, "return_state": false, "unroll": false, "activation": "relu", "bias_initializer": {"class_name": "Zeros", "config": {}}, "units": 20, "unit_forget_bias": true, "activity_regularizer": null, "recurrent_dropout": 0.2, "kernel_initializer": {"class_name": "VarianceScaling", "config": {"distribution": "uniform", "scale": 1.0, "seed": null, "mode": "fan_avg"}}, "kernel_constraint": null, "dropout": 0.2, "stateful": false, "recurrent_regularizer": null, "name": "lstm_5", "bias_constraint": null, "go_backwards": false, "implementation": 0, "kernel_regularizer": null, "return_sequences": true, "recurrent_constraint": null}, "inbound_nodes": [[["conv1d_5", 0, 0, {}]]], "name": "lstm_5"}, {"class_name": "LSTM", "config": {"recurrent_activation": "hard_sigmoid", "trainable": true, "recurrent_initializer": {"class_name": "Orthogonal", "config": {"seed": null, "gain": 1.0}}, "use_bias": true, "bias_regularizer": null, "return_state": false, "unroll": false, "activation": "relu", "bias_initializer": {"class_name": "Zeros", "config": {}}, "units": 20, "unit_forget_bias": true, "activity_regularizer": null, "recurrent_dropout": 0.2, "kernel_initializer": {"class_name": "VarianceScaling", "config": {"distribution": "uniform", "scale": 1.0, "seed": null, "mode": "fan_avg"}}, "kernel_constraint": null, "dropout": 0.2, "stateful": false, "recurrent_regularizer": null, "name": "lstm_6", "bias_constraint": null, "go_backwards": false, "implementation": 0, "kernel_regularizer": null, "return_sequences": true, "recurrent_constraint": null}, "inbound_nodes": [[["conv1d_6", 0, 0, {}]]], "name": "lstm_6"}, {"class_name": "LSTM", "config": {"recurrent_activation": "hard_sigmoid", "trainable": true, "recurrent_initializer": {"class_name": "Orthogonal", "config": {"seed": null, "gain": 1.0}}, "use_bias": true, "bias_regularizer": null, "return_state": false, "unroll": false, "activation": "relu", "bias_initializer": {"class_name": "Zeros", "config": {}}, "units": 20, "unit_forget_bias": true, "activity_regularizer": null, "recurrent_dropout": 0.2, "kernel_initializer": {"class_name": "VarianceScaling", "config": {"distribution": "uniform", "scale": 1.0, "seed": null, "mode": "fan_avg"}}, "kernel_constraint": null, "dropout": 0.2, "stateful": false, "recurrent_regularizer": null, "name": "lstm_7", "bias_constraint": null, "go_backwards": false, "implementation": 0, "kernel_regularizer": null, "return_sequences": true, "recurrent_constraint": null}, "inbound_nodes": [[["conv1d_7", 0, 0, {}]]], "name": "lstm_7"}, {"class_name": "LSTM", "config": {"recurrent_activation": "hard_sigmoid", "trainable": true, "recurrent_initializer": {"class_name": "Orthogonal", "config": {"seed": null, "gain": 1.0}}, "use_bias": true, "bias_regularizer": null, "return_state": false, "unroll": false, "activation": "relu", "bias_initializer": {"class_name": "Zeros", "config": {}}, "units": 20, "unit_forget_bias": true, "activity_regularizer": null, "recurrent_dropout": 0.2, "kernel_initializer": {"class_name": "VarianceScaling", "config": {"distribution": "uniform", "scale": 1.0, "seed": null, "mode": "fan_avg"}}, "kernel_constraint": null, "dropout": 0.2, "stateful": false, "recurrent_regularizer": null, "name": "lstm_8", "bias_constraint": null, "go_backwards": false, "implementation": 0, "kernel_regularizer": null, "return_sequences": true, "recurrent_constraint": null}, "inbound_nodes": [[["conv1d_8", 0, 0, {}]]], "name": "lstm_8"}, {"class_name": "LSTM", "config": {"recurrent_activation": "hard_sigmoid", "trainable": true, "recurrent_initializer": {"class_name": "Orthogonal", "config": {"seed": null, "gain": 1.0}}, "use_bias": true, "bias_regularizer": null, "return_state": false, "unroll": false, "activation": "relu", "bias_initializer": {"class_name": "Zeros", "config": {}}, "units": 20, "unit_forget_bias": true, "activity_regularizer": null, "recurrent_dropout": 0.2, "kernel_initializer": {"class_name": "VarianceScaling", "config": {"distribution": "uniform", "scale": 1.0, "seed": null, "mode": "fan_avg"}}, "kernel_constraint": null, "dropout": 0.2, "stateful": false, "recurrent_regularizer": null, "name": "lstm_9", "bias_constraint": null, "go_backwards": false, "implementation": 0, "kernel_regularizer": null, "return_sequences": true, "recurrent_constraint": null}, "inbound_nodes": [[["conv1d_9", 0, 0, {}]]], "name": "lstm_9"}, {"class_name": "LSTM", "config": {"recurrent_activation": "hard_sigmoid", "trainable": true, "recurrent_initializer": {"class_name": "Orthogonal", "config": {"seed": null, "gain": 1.0}}, "use_bias": true, "bias_regularizer": null, "return_state": false, "unroll": false, "activation": "relu", "bias_initializer": {"class_name": "Zeros", "config": {}}, "units": 20, "unit_forget_bias": true, "activity_regularizer": null, "recurrent_dropout": 0.2, "kernel_initializer": {"class_name": "VarianceScaling", "config": {"distribution": "uniform", "scale": 1.0, "seed": null, "mode": "fan_avg"}}, "kernel_constraint": null, "dropout": 0.2, "stateful": false, "recurrent_regularizer": null, "name": "lstm_10", "bias_constraint": null, "go_backwards": false, "implementation": 0, "kernel_regularizer": null, "return_sequences": true, "recurrent_constraint": null}, "inbound_nodes": [[["conv1d_10", 0, 0, {}]]], "name": "lstm_10"}, {"class_name": "LSTM", "config": {"recurrent_activation": "hard_sigmoid", "trainable": true, "recurrent_initializer": {"class_name": "Orthogonal", "config": {"seed": null, "gain": 1.0}}, "use_bias": true, "bias_regularizer": null, "return_state": false, "unroll": false, "activation": "relu", "bias_initializer": {"class_name": "Zeros", "config": {}}, "units": 20, "unit_forget_bias": true, "activity_regularizer": null, "recurrent_dropout": 0.2, "kernel_initializer": {"class_name": "VarianceScaling", "config": {"distribution": "uniform", "scale": 1.0, "seed": null, "mode": "fan_avg"}}, "kernel_constraint": null, "dropout": 0.2, "stateful": false, "recurrent_regularizer": null, "name": "lstm_11", "bias_constraint": null, "go_backwards": false, "implementation": 0, "kernel_regularizer": null, "return_sequences": true, "recurrent_constraint": null}, "inbound_nodes": [[["conv1d_11", 0, 0, {}]]], "name": "lstm_11"}, {"class_name": "LSTM", "config": {"recurrent_activation": "hard_sigmoid", "trainable": true, "recurrent_initializer": {"class_name": "Orthogonal", "config": {"seed": null, "gain": 1.0}}, "use_bias": true, "bias_regularizer": null, "return_state": false, "unroll": false, "activation": "relu", "bias_initializer": {"class_name": "Zeros", "config": {}}, "units": 20, "unit_forget_bias": true, "activity_regularizer": null, "recurrent_dropout": 0.2, "kernel_initializer": {"class_name": "VarianceScaling", "config": {"distribution": "uniform", "scale": 1.0, "seed": null, "mode": "fan_avg"}}, "kernel_constraint": null, "dropout": 0.2, "stateful": false, "recurrent_regularizer": null, "name": "lstm_12", "bias_constraint": null, "go_backwards": false, "implementation": 0, "kernel_regularizer": null, "return_sequences": true, "recurrent_constraint": null}, "inbound_nodes": [[["conv1d_12", 0, 0, {}]]], "name": "lstm_12"}, {"class_name": "LSTM", "config": {"recurrent_activation": "hard_sigmoid", "trainable": true, "recurrent_initializer": {"class_name": "Orthogonal", "config": {"seed": null, "gain": 1.0}}, "use_bias": true, "bias_regularizer": null, "return_state": false, "unroll": false, "activation": "relu", "bias_initializer": {"class_name": "Zeros", "config": {}}, "units": 20, "unit_forget_bias": true, "activity_regularizer": null, "recurrent_dropout": 0.2, "kernel_initializer": {"class_name": "VarianceScaling", "config": {"distribution": "uniform", "scale": 1.0, "seed": null, "mode": "fan_avg"}}, "kernel_constraint": null, "dropout": 0.2, "stateful": false, "recurrent_regularizer": null, "name": "lstm_13", "bias_constraint": null, "go_backwards": false, "implementation": 0, "kernel_regularizer": null, "return_sequences": true, "recurrent_constraint": null}, "inbound_nodes": [[["conv1d_13", 0, 0, {}]]], "name": "lstm_13"}, {"class_name": "LSTM", "config": {"recurrent_activation": "hard_sigmoid", "trainable": true, "recurrent_initializer": {"class_name": "Orthogonal", "config": {"seed": null, "gain": 1.0}}, "use_bias": true, "bias_regularizer": null, "return_state": false, "unroll": false, "activation": "relu", "bias_initializer": {"class_name": "Zeros", "config": {}}, "units": 20, "unit_forget_bias": true, "activity_regularizer": null, "recurrent_dropout": 0.2, "kernel_initializer": {"class_name": "VarianceScaling", "config": {"distribution": "uniform", "scale": 1.0, "seed": null, "mode": "fan_avg"}}, "kernel_constraint": null, "dropout": 0.2, "stateful": false, "recurrent_regularizer": null, "name": "lstm_14", "bias_constraint": null, "go_backwards": false, "implementation": 0, "kernel_regularizer": null, "return_sequences": true, "recurrent_constraint": null}, "inbound_nodes": [[["conv1d_14", 0, 0, {}]]], "name": "lstm_14"}, {"class_name": "LSTM", "config": {"recurrent_activation": "hard_sigmoid", "trainable": true, "recurrent_initializer": {"class_name": "Orthogonal", "config": {"seed": null, "gain": 1.0}}, "use_bias": true, "bias_regularizer": null, "return_state": false, "unroll": false, "activation": "relu", "bias_initializer": {"class_name": "Zeros", "config": {}}, "units": 20, "unit_forget_bias": true, "activity_regularizer": null, "recurrent_dropout": 0.2, "kernel_initializer": {"class_name": "VarianceScaling", "config": {"distribution": "uniform", "scale": 1.0, "seed": null, "mode": "fan_avg"}}, "kernel_constraint": null, "dropout": 0.2, "stateful": false, "recurrent_regularizer": null, "name": "lstm_15", "bias_constraint": null, "go_backwards": false, "implementation": 0, "kernel_regularizer": null, "return_sequences": true, "recurrent_constraint": null}, "inbound_nodes": [[["conv1d_15", 0, 0, {}]]], "name": "lstm_15"}, {"class_name": "LSTM", "config": {"recurrent_activation": "hard_sigmoid", "trainable": true, "recurrent_initializer": {"class_name": "Orthogonal", "config": {"seed": null, "gain": 1.0}}, "use_bias": true, "bias_regularizer": null, "return_state": false, "unroll": false, "activation": "relu", "bias_initializer": {"class_name": "Zeros", "config": {}}, "units": 20, "unit_forget_bias": true, "activity_regularizer": null, "recurrent_dropout": 0.2, "kernel_initializer": {"class_name": "VarianceScaling", "config": {"distribution": "uniform", "scale": 1.0, "seed": null, "mode": "fan_avg"}}, "kernel_constraint": null, "dropout": 0.2, "stateful": false, "recurrent_regularizer": null, "name": "lstm_16", "bias_constraint": null, "go_backwards": false, "implementation": 0, "kernel_regularizer": null, "return_sequences": true, "recurrent_constraint": null}, "inbound_nodes": [[["conv1d_16", 0, 0, {}]]], "name": "lstm_16"}, {"class_name": "LSTM", "config": {"recurrent_activation": "hard_sigmoid", "trainable": true, "recurrent_initializer": {"class_name": "Orthogonal", "config": {"seed": null, "gain": 1.0}}, "use_bias": true, "bias_regularizer": null, "return_state": false, "unroll": false, "activation": "relu", "bias_initializer": {"class_name": "Zeros", "config": {}}, "units": 20, "unit_forget_bias": true, "activity_regularizer": null, "recurrent_dropout": 0.2, "kernel_initializer": {"class_name": "VarianceScaling", "config": {"distribution": "uniform", "scale": 1.0, "seed": null, "mode": "fan_avg"}}, "kernel_constraint": null, "dropout": 0.2, "stateful": false, "recurrent_regularizer": null, "name": "lstm_17", "bias_constraint": null, "go_backwards": false, "implementation": 0, "kernel_regularizer": null, "return_sequences": true, "recurrent_constraint": null}, "inbound_nodes": [[["conv1d_17", 0, 0, {}]]], "name": "lstm_17"}, {"class_name": "LSTM", "config": {"recurrent_activation": "hard_sigmoid", "trainable": true, "recurrent_initializer": {"class_name": "Orthogonal", "config": {"seed": null, "gain": 1.0}}, "use_bias": true, "bias_regularizer": null, "return_state": false, "unroll": false, "activation": "relu", "bias_initializer": {"class_name": "Zeros", "config": {}}, "units": 20, "unit_forget_bias": true, "activity_regularizer": null, "recurrent_dropout": 0.2, "kernel_initializer": {"class_name": "VarianceScaling", "config": {"distribution": "uniform", "scale": 1.0, "seed": null, "mode": "fan_avg"}}, "kernel_constraint": null, "dropout": 0.2, "stateful": false, "recurrent_regularizer": null, "name": "lstm_18", "bias_constraint": null, "go_backwards": false, "implementation": 0, "kernel_regularizer": null, "return_sequences": true, "recurrent_constraint": null}, "inbound_nodes": [[["conv1d_18", 0, 0, {}]]], "name": "lstm_18"}, {"class_name": "LSTM", "config": {"recurrent_activation": "hard_sigmoid", "trainable": true, "recurrent_initializer": {"class_name": "Orthogonal", "config": {"seed": null, "gain": 1.0}}, "use_bias": true, "bias_regularizer": null, "return_state": false, "unroll": false, "activation": "relu", "bias_initializer": {"class_name": "Zeros", "config": {}}, "units": 20, "unit_forget_bias": true, "activity_regularizer": null, "recurrent_dropout": 0.2, "kernel_initializer": {"class_name": "VarianceScaling", "config": {"distribution": "uniform", "scale": 1.0, "seed": null, "mode": "fan_avg"}}, "kernel_constraint": null, "dropout": 0.2, "stateful": false, "recurrent_regularizer": null, "name": "lstm_19", "bias_constraint": null, "go_backwards": false, "implementation": 0, "kernel_regularizer": null, "return_sequences": true, "recurrent_constraint": null}, "inbound_nodes": [[["conv1d_19", 0, 0, {}]]], "name": "lstm_19"}, {"class_name": "LSTM", "config": {"recurrent_activation": "hard_sigmoid", "trainable": true, "recurrent_initializer": {"class_name": "Orthogonal", "config": {"seed": null, "gain": 1.0}}, "use_bias": true, "bias_regularizer": null, "return_state": false, "unroll": false, "activation": "relu", "bias_initializer": {"class_name": "Zeros", "config": {}}, "units": 20, "unit_forget_bias": true, "activity_regularizer": null, "recurrent_dropout": 0.2, "kernel_initializer": {"class_name": "VarianceScaling", "config": {"distribution": "uniform", "scale": 1.0, "seed": null, "mode": "fan_avg"}}, "kernel_constraint": null, "dropout": 0.2, "stateful": false, "recurrent_regularizer": null, "name": "lstm_20", "bias_constraint": null, "go_backwards": false, "implementation": 0, "kernel_regularizer": null, "return_sequences": true, "recurrent_constraint": null}, "inbound_nodes": [[["conv1d_20", 0, 0, {}]]], "name": "lstm_20"}, {"class_name": "LSTM", "config": {"recurrent_activation": "hard_sigmoid", "trainable": true, "recurrent_initializer": {"class_name": "Orthogonal", "config": {"seed": null, "gain": 1.0}}, "use_bias": true, "bias_regularizer": null, "return_state": false, "unroll": false, "activation": "relu", "bias_initializer": {"class_name": "Zeros", "config": {}}, "units": 20, "unit_forget_bias": true, "activity_regularizer": null, "recurrent_dropout": 0.2, "kernel_initializer": {"class_name": "VarianceScaling", "config": {"distribution": "uniform", "scale": 1.0, "seed": null, "mode": "fan_avg"}}, "kernel_constraint": null, "dropout": 0.2, "stateful": false, "recurrent_regularizer": null, "name": "lstm_21", "bias_constraint": null, "go_backwards": false, "implementation": 0, "kernel_regularizer": null, "return_sequences": true, "recurrent_constraint": null}, "inbound_nodes": [[["conv1d_21", 0, 0, {}]]], "name": "lstm_21"}, {"class_name": "LSTM", "config": {"recurrent_activation": "hard_sigmoid", "trainable": true, "recurrent_initializer": {"class_name": "Orthogonal", "config": {"seed": null, "gain": 1.0}}, "use_bias": true, "bias_regularizer": null, "return_state": false, "unroll": false, "activation": "relu", "bias_initializer": {"class_name": "Zeros", "config": {}}, "units": 20, "unit_forget_bias": true, "activity_regularizer": null, "recurrent_dropout": 0.2, "kernel_initializer": {"class_name": "VarianceScaling", "config": {"distribution": "uniform", "scale": 1.0, "seed": null, "mode": "fan_avg"}}, "kernel_constraint": null, "dropout": 0.2, "stateful": false, "recurrent_regularizer": null, "name": "lstm_22", "bias_constraint": null, "go_backwards": false, "implementation": 0, "kernel_regularizer": null, "return_sequences": true, "recurrent_constraint": null}, "inbound_nodes": [[["conv1d_22", 0, 0, {}]]], "name": "lstm_22"}, {"class_name": "LSTM", "config": {"recurrent_activation": "hard_sigmoid", "trainable": true, "recurrent_initializer": {"class_name": "Orthogonal", "config": {"seed": null, "gain": 1.0}}, "use_bias": true, "bias_regularizer": null, "return_state": false, "unroll": false, "activation": "relu", "bias_initializer": {"class_name": "Zeros", "config": {}}, "units": 20, "unit_forget_bias": true, "activity_regularizer": null, "recurrent_dropout": 0.2, "kernel_initializer": {"class_name": "VarianceScaling", "config": {"distribution": "uniform", "scale": 1.0, "seed": null, "mode": "fan_avg"}}, "kernel_constraint": null, "dropout": 0.2, "stateful": false, "recurrent_regularizer": null, "name": "lstm_23", "bias_constraint": null, "go_backwards": false, "implementation": 0, "kernel_regularizer": null, "return_sequences": true, "recurrent_constraint": null}, "inbound_nodes": [[["conv1d_23", 0, 0, {}]]], "name": "lstm_23"}, {"class_name": "LSTM", "config": {"recurrent_activation": "hard_sigmoid", "trainable": true, "recurrent_initializer": {"class_name": "Orthogonal", "config": {"seed": null, "gain": 1.0}}, "use_bias": true, "bias_regularizer": null, "return_state": false, "unroll": false, "activation": "relu", "bias_initializer": {"class_name": "Zeros", "config": {}}, "units": 20, "unit_forget_bias": true, "activity_regularizer": null, "recurrent_dropout": 0.2, "kernel_initializer": {"class_name": "VarianceScaling", "config": {"distribution": "uniform", "scale": 1.0, "seed": null, "mode": "fan_avg"}}, "kernel_constraint": null, "dropout": 0.2, "stateful": false, "recurrent_regularizer": null, "name": "lstm_24", "bias_constraint": null, "go_backwards": false, "implementation": 0, "kernel_regularizer": null, "return_sequences": true, "recurrent_constraint": null}, "inbound_nodes": [[["conv1d_24", 0, 0, {}]]], "name": "lstm_24"}, {"class_name": "LSTM", "config": {"recurrent_activation": "hard_sigmoid", "trainable": true, "recurrent_initializer": {"class_name": "Orthogonal", "config": {"seed": null, "gain": 1.0}}, "use_bias": true, "bias_regularizer": null, "return_state": false, "unroll": false, "activation": "relu", "bias_initializer": {"class_name": "Zeros", "config": {}}, "units": 20, "unit_forget_bias": true, "activity_regularizer": null, "recurrent_dropout": 0.2, "kernel_initializer": {"class_name": "VarianceScaling", "config": {"distribution": "uniform", "scale": 1.0, "seed": null, "mode": "fan_avg"}}, "kernel_constraint": null, "dropout": 0.2, "stateful": false, "recurrent_regularizer": null, "name": "lstm_25", "bias_constraint": null, "go_backwards": false, "implementation": 0, "kernel_regularizer": null, "return_sequences": true, "recurrent_constraint": null}, "inbound_nodes": [[["conv1d_25", 0, 0, {}]]], "name": "lstm_25"}, {"class_name": "LSTM", "config": {"recurrent_activation": "hard_sigmoid", "trainable": true, "recurrent_initializer": {"class_name": "Orthogonal", "config": {"seed": null, "gain": 1.0}}, "use_bias": true, "bias_regularizer": null, "return_state": false, "unroll": false, "activation": "relu", "bias_initializer": {"class_name": "Zeros", "config": {}}, "units": 20, "unit_forget_bias": true, "activity_regularizer": null, "recurrent_dropout": 0.2, "kernel_initializer": {"class_name": "VarianceScaling", "config": {"distribution": "uniform", "scale": 1.0, "seed": null, "mode": "fan_avg"}}, "kernel_constraint": null, "dropout": 0.2, "stateful": false, "recurrent_regularizer": null, "name": "lstm_26", "bias_constraint": null, "go_backwards": false, "implementation": 0, "kernel_regularizer": null, "return_sequences": true, "recurrent_constraint": null}, "inbound_nodes": [[["conv1d_26", 0, 0, {}]]], "name": "lstm_26"}, {"class_name": "LSTM", "config": {"recurrent_activation": "hard_sigmoid", "trainable": true, "recurrent_initializer": {"class_name": "Orthogonal", "config": {"seed": null, "gain": 1.0}}, "use_bias": true, "bias_regularizer": null, "return_state": false, "unroll": false, "activation": "relu", "bias_initializer": {"class_name": "Zeros", "config": {}}, "units": 20, "unit_forget_bias": true, "activity_regularizer": null, "recurrent_dropout": 0.2, "kernel_initializer": {"class_name": "VarianceScaling", "config": {"distribution": "uniform", "scale": 1.0, "seed": null, "mode": "fan_avg"}}, "kernel_constraint": null, "dropout": 0.2, "stateful": false, "recurrent_regularizer": null, "name": "lstm_27", "bias_constraint": null, "go_backwards": false, "implementation": 0, "kernel_regularizer": null, "return_sequences": true, "recurrent_constraint": null}, "inbound_nodes": [[["conv1d_27", 0, 0, {}]]], "name": "lstm_27"}, {"class_name": "LSTM", "config": {"recurrent_activation": "hard_sigmoid", "trainable": true, "recurrent_initializer": {"class_name": "Orthogonal", "config": {"seed": null, "gain": 1.0}}, "use_bias": true, "bias_regularizer": null, "return_state": false, "unroll": false, "activation": "relu", "bias_initializer": {"class_name": "Zeros", "config": {}}, "units": 20, "unit_forget_bias": true, "activity_regularizer": null, "recurrent_dropout": 0.2, "kernel_initializer": {"class_name": "VarianceScaling", "config": {"distribution": "uniform", "scale": 1.0, "seed": null, "mode": "fan_avg"}}, "kernel_constraint": null, "dropout": 0.2, "stateful": false, "recurrent_regularizer": null, "name": "lstm_28", "bias_constraint": null, "go_backwards": false, "implementation": 0, "kernel_regularizer": null, "return_sequences": true, "recurrent_constraint": null}, "inbound_nodes": [[["conv1d_28", 0, 0, {}]]], "name": "lstm_28"}, {"class_name": "LSTM", "config": {"recurrent_activation": "hard_sigmoid", "trainable": true, "recurrent_initializer": {"class_name": "Orthogonal", "config": {"seed": null, "gain": 1.0}}, "use_bias": true, "bias_regularizer": null, "return_state": false, "unroll": false, "activation": "relu", "bias_initializer": {"class_name": "Zeros", "config": {}}, "units": 20, "unit_forget_bias": true, "activity_regularizer": null, "recurrent_dropout": 0.2, "kernel_initializer": {"class_name": "VarianceScaling", "config": {"distribution": "uniform", "scale": 1.0, "seed": null, "mode": "fan_avg"}}, "kernel_constraint": null, "dropout": 0.2, "stateful": false, "recurrent_regularizer": null, "name": "lstm_29", "bias_constraint": null, "go_backwards": false, "implementation": 0, "kernel_regularizer": null, "return_sequences": true, "recurrent_constraint": null}, "inbound_nodes": [[["conv1d_29", 0, 0, {}]]], "name": "lstm_29"}, {"class_name": "LSTM", "config": {"recurrent_activation": "hard_sigmoid", "trainable": true, "recurrent_initializer": {"class_name": "Orthogonal", "config": {"seed": null, "gain": 1.0}}, "use_bias": true, "bias_regularizer": null, "return_state": false, "unroll": false, "activation": "relu", "bias_initializer": {"class_name": "Zeros", "config": {}}, "units": 20, "unit_forget_bias": true, "activity_regularizer": null, "recurrent_dropout": 0.2, "kernel_initializer": {"class_name": "VarianceScaling", "config": {"distribution": "uniform", "scale": 1.0, "seed": null, "mode": "fan_avg"}}, "kernel_constraint": null, "dropout": 0.2, "stateful": false, "recurrent_regularizer": null, "name": "lstm_30", "bias_constraint": null, "go_backwards": false, "implementation": 0, "kernel_regularizer": null, "return_sequences": true, "recurrent_constraint": null}, "inbound_nodes": [[["conv1d_30", 0, 0, {}]]], "name": "lstm_30"}, {"class_name": "LSTM", "config": {"recurrent_activation": "hard_sigmoid", "trainable": true, "recurrent_initializer": {"class_name": "Orthogonal", "config": {"seed": null, "gain": 1.0}}, "use_bias": true, "bias_regularizer": null, "return_state": false, "unroll": false, "activation": "relu", "bias_initializer": {"class_name": "Zeros", "config": {}}, "units": 20, "unit_forget_bias": true, "activity_regularizer": null, "recurrent_dropout": 0.2, "kernel_initializer": {"class_name": "VarianceScaling", "config": {"distribution": "uniform", "scale": 1.0, "seed": null, "mode": "fan_avg"}}, "kernel_constraint": null, "dropout": 0.2, "stateful": false, "recurrent_regularizer": null, "name": "lstm_31", "bias_constraint": null, "go_backwards": false, "implementation": 0, "kernel_regularizer": null, "return_sequences": true, "recurrent_constraint": null}, "inbound_nodes": [[["conv1d_31", 0, 0, {}]]], "name": "lstm_31"}, {"class_name": "LSTM", "config": {"recurrent_activation": "hard_sigmoid", "trainable": true, "recurrent_initializer": {"class_name": "Orthogonal", "config": {"seed": null, "gain": 1.0}}, "use_bias": true, "bias_regularizer": null, "return_state": false, "unroll": false, "activation": "relu", "bias_initializer": {"class_name": "Zeros", "config": {}}, "units": 20, "unit_forget_bias": true, "activity_regularizer": null, "recurrent_dropout": 0.2, "kernel_initializer": {"class_name": "VarianceScaling", "config": {"distribution": "uniform", "scale": 1.0, "seed": null, "mode": "fan_avg"}}, "kernel_constraint": null, "dropout": 0.2, "stateful": false, "recurrent_regularizer": null, "name": "lstm_32", "bias_constraint": null, "go_backwards": false, "implementation": 0, "kernel_regularizer": null, "return_sequences": true, "recurrent_constraint": null}, "inbound_nodes": [[["conv1d_32", 0, 0, {}]]], "name": "lstm_32"}, {"class_name": "LSTM", "config": {"recurrent_activation": "hard_sigmoid", "trainable": true, "recurrent_initializer": {"class_name": "Orthogonal", "config": {"seed": null, "gain": 1.0}}, "use_bias": true, "bias_regularizer": null, "return_state": false, "unroll": false, "activation": "relu", "bias_initializer": {"class_name": "Zeros", "config": {}}, "units": 20, "unit_forget_bias": true, "activity_regularizer": null, "recurrent_dropout": 0.2, "kernel_initializer": {"class_name": "VarianceScaling", "config": {"distribution": "uniform", "scale": 1.0, "seed": null, "mode": "fan_avg"}}, "kernel_constraint": null, "dropout": 0.2, "stateful": false, "recurrent_regularizer": null, "name": "lstm_33", "bias_constraint": null, "go_backwards": false, "implementation": 0, "kernel_regularizer": null, "return_sequences": true, "recurrent_constraint": null}, "inbound_nodes": [[["conv1d_33", 0, 0, {}]]], "name": "lstm_33"}, {"class_name": "LSTM", "config": {"recurrent_activation": "hard_sigmoid", "trainable": true, "recurrent_initializer": {"class_name": "Orthogonal", "config": {"seed": null, "gain": 1.0}}, "use_bias": true, "bias_regularizer": null, "return_state": false, "unroll": false, "activation": "relu", "bias_initializer": {"class_name": "Zeros", "config": {}}, "units": 20, "unit_forget_bias": true, "activity_regularizer": null, "recurrent_dropout": 0.2, "kernel_initializer": {"class_name": "VarianceScaling", "config": {"distribution": "uniform", "scale": 1.0, "seed": null, "mode": "fan_avg"}}, "kernel_constraint": null, "dropout": 0.2, "stateful": false, "recurrent_regularizer": null, "name": "lstm_34", "bias_constraint": null, "go_backwards": false, "implementation": 0, "kernel_regularizer": null, "return_sequences": true, "recurrent_constraint": null}, "inbound_nodes": [[["conv1d_34", 0, 0, {}]]], "name": "lstm_34"}, {"class_name": "LSTM", "config": {"recurrent_activation": "hard_sigmoid", "trainable": true, "recurrent_initializer": {"class_name": "Orthogonal", "config": {"seed": null, "gain": 1.0}}, "use_bias": true, "bias_regularizer": null, "return_state": false, "unroll": false, "activation": "relu", "bias_initializer": {"class_name": "Zeros", "config": {}}, "units": 20, "unit_forget_bias": true, "activity_regularizer": null, "recurrent_dropout": 0.2, "kernel_initializer": {"class_name": "VarianceScaling", "config": {"distribution": "uniform", "scale": 1.0, "seed": null, "mode": "fan_avg"}}, "kernel_constraint": null, "dropout": 0.2, "stateful": false, "recurrent_regularizer": null, "name": "lstm_35", "bias_constraint": null, "go_backwards": false, "implementation": 0, "kernel_regularizer": null, "return_sequences": true, "recurrent_constraint": null}, "inbound_nodes": [[["conv1d_35", 0, 0, {}]]], "name": "lstm_35"}, {"class_name": "LSTM", "config": {"recurrent_activation": "hard_sigmoid", "trainable": true, "recurrent_initializer": {"class_name": "Orthogonal", "config": {"seed": null, "gain": 1.0}}, "use_bias": true, "bias_regularizer": null, "return_state": false, "unroll": false, "activation": "relu", "bias_initializer": {"class_name": "Zeros", "config": {}}, "units": 20, "unit_forget_bias": true, "activity_regularizer": null, "recurrent_dropout": 0.2, "kernel_initializer": {"class_name": "VarianceScaling", "config": {"distribution": "uniform", "scale": 1.0, "seed": null, "mode": "fan_avg"}}, "kernel_constraint": null, "dropout": 0.2, "stateful": false, "recurrent_regularizer": null, "name": "lstm_36", "bias_constraint": null, "go_backwards": false, "implementation": 0, "kernel_regularizer": null, "return_sequences": true, "recurrent_constraint": null}, "inbound_nodes": [[["conv1d_36", 0, 0, {}]]], "name": "lstm_36"}, {"class_name": "LSTM", "config": {"recurrent_activation": "hard_sigmoid", "trainable": true, "recurrent_initializer": {"class_name": "Orthogonal", "config": {"seed": null, "gain": 1.0}}, "use_bias": true, "bias_regularizer": null, "return_state": false, "unroll": false, "activation": "relu", "bias_initializer": {"class_name": "Zeros", "config": {}}, "units": 20, "unit_forget_bias": true, "activity_regularizer": null, "recurrent_dropout": 0.2, "kernel_initializer": {"class_name": "VarianceScaling", "config": {"distribution": "uniform", "scale": 1.0, "seed": null, "mode": "fan_avg"}}, "kernel_constraint": null, "dropout": 0.2, "stateful": false, "recurrent_regularizer": null, "name": "lstm_37", "bias_constraint": null, "go_backwards": false, "implementation": 0, "kernel_regularizer": null, "return_sequences": true, "recurrent_constraint": null}, "inbound_nodes": [[["conv1d_37", 0, 0, {}]]], "name": "lstm_37"}, {"class_name": "LSTM", "config": {"recurrent_activation": "hard_sigmoid", "trainable": true, "recurrent_initializer": {"class_name": "Orthogonal", "config": {"seed": null, "gain": 1.0}}, "use_bias": true, "bias_regularizer": null, "return_state": false, "unroll": false, "activation": "relu", "bias_initializer": {"class_name": "Zeros", "config": {}}, "units": 20, "unit_forget_bias": true, "activity_regularizer": null, "recurrent_dropout": 0.2, "kernel_initializer": {"class_name": "VarianceScaling", "config": {"distribution": "uniform", "scale": 1.0, "seed": null, "mode": "fan_avg"}}, "kernel_constraint": null, "dropout": 0.2, "stateful": false, "recurrent_regularizer": null, "name": "lstm_38", "bias_constraint": null, "go_backwards": false, "implementation": 0, "kernel_regularizer": null, "return_sequences": true, "recurrent_constraint": null}, "inbound_nodes": [[["conv1d_38", 0, 0, {}]]], "name": "lstm_38"}, {"class_name": "LSTM", "config": {"recurrent_activation": "hard_sigmoid", "trainable": true, "recurrent_initializer": {"class_name": "Orthogonal", "config": {"seed": null, "gain": 1.0}}, "use_bias": true, "bias_regularizer": null, "return_state": false, "unroll": false, "activation": "relu", "bias_initializer": {"class_name": "Zeros", "config": {}}, "units": 20, "unit_forget_bias": true, "activity_regularizer": null, "recurrent_dropout": 0.2, "kernel_initializer": {"class_name": "VarianceScaling", "config": {"distribution": "uniform", "scale": 1.0, "seed": null, "mode": "fan_avg"}}, "kernel_constraint": null, "dropout": 0.2, "stateful": false, "recurrent_regularizer": null, "name": "lstm_39", "bias_constraint": null, "go_backwards": false, "implementation": 0, "kernel_regularizer": null, "return_sequences": true, "recurrent_constraint": null}, "inbound_nodes": [[["conv1d_39", 0, 0, {}]]], "name": "lstm_39"}, {"class_name": "LSTM", "config": {"recurrent_activation": "hard_sigmoid", "trainable": true, "recurrent_initializer": {"class_name": "Orthogonal", "config": {"seed": null, "gain": 1.0}}, "use_bias": true, "bias_regularizer": null, "return_state": false, "unroll": false, "activation": "relu", "bias_initializer": {"class_name": "Zeros", "config": {}}, "units": 20, "unit_forget_bias": true, "activity_regularizer": null, "recurrent_dropout": 0.2, "kernel_initializer": {"class_name": "VarianceScaling", "config": {"distribution": "uniform", "scale": 1.0, "seed": null, "mode": "fan_avg"}}, "kernel_constraint": null, "dropout": 0.2, "stateful": false, "recurrent_regularizer": null, "name": "lstm_40", "bias_constraint": null, "go_backwards": false, "implementation": 0, "kernel_regularizer": null, "return_sequences": true, "recurrent_constraint": null}, "inbound_nodes": [[["conv1d_40", 0, 0, {}]]], "name": "lstm_40"}, {"class_name": "LSTM", "config": {"recurrent_activation": "hard_sigmoid", "trainable": true, "recurrent_initializer": {"class_name": "Orthogonal", "config": {"seed": null, "gain": 1.0}}, "use_bias": true, "bias_regularizer": null, "return_state": false, "unroll": false, "activation": "relu", "bias_initializer": {"class_name": "Zeros", "config": {}}, "units": 20, "unit_forget_bias": true, "activity_regularizer": null, "recurrent_dropout": 0.2, "kernel_initializer": {"class_name": "VarianceScaling", "config": {"distribution": "uniform", "scale": 1.0, "seed": null, "mode": "fan_avg"}}, "kernel_constraint": null, "dropout": 0.2, "stateful": false, "recurrent_regularizer": null, "name": "lstm_41", "bias_constraint": null, "go_backwards": false, "implementation": 0, "kernel_regularizer": null, "return_sequences": true, "recurrent_constraint": null}, "inbound_nodes": [[["conv1d_41", 0, 0, {}]]], "name": "lstm_41"}, {"class_name": "LSTM", "config": {"recurrent_activation": "hard_sigmoid", "trainable": true, "recurrent_initializer": {"class_name": "Orthogonal", "config": {"seed": null, "gain": 1.0}}, "use_bias": true, "bias_regularizer": null, "return_state": false, "unroll": false, "activation": "relu", "bias_initializer": {"class_name": "Zeros", "config": {}}, "units": 20, "unit_forget_bias": true, "activity_regularizer": null, "recurrent_dropout": 0.2, "kernel_initializer": {"class_name": "VarianceScaling", "config": {"distribution": "uniform", "scale": 1.0, "seed": null, "mode": "fan_avg"}}, "kernel_constraint": null, "dropout": 0.2, "stateful": false, "recurrent_regularizer": null, "name": "lstm_42", "bias_constraint": null, "go_backwards": false, "implementation": 0, "kernel_regularizer": null, "return_sequences": true, "recurrent_constraint": null}, "inbound_nodes": [[["conv1d_42", 0, 0, {}]]], "name": "lstm_42"}, {"class_name": "LSTM", "config": {"recurrent_activation": "hard_sigmoid", "trainable": true, "recurrent_initializer": {"class_name": "Orthogonal", "config": {"seed": null, "gain": 1.0}}, "use_bias": true, "bias_regularizer": null, "return_state": false, "unroll": false, "activation": "relu", "bias_initializer": {"class_name": "Zeros", "config": {}}, "units": 20, "unit_forget_bias": true, "activity_regularizer": null, "recurrent_dropout": 0.2, "kernel_initializer": {"class_name": "VarianceScaling", "config": {"distribution": "uniform", "scale": 1.0, "seed": null, "mode": "fan_avg"}}, "kernel_constraint": null, "dropout": 0.2, "stateful": false, "recurrent_regularizer": null, "name": "lstm_43", "bias_constraint": null, "go_backwards": false, "implementation": 0, "kernel_regularizer": null, "return_sequences": true, "recurrent_constraint": null}, "inbound_nodes": [[["conv1d_43", 0, 0, {}]]], "name": "lstm_43"}, {"class_name": "LSTM", "config": {"recurrent_activation": "hard_sigmoid", "trainable": true, "recurrent_initializer": {"class_name": "Orthogonal", "config": {"seed": null, "gain": 1.0}}, "use_bias": true, "bias_regularizer": null, "return_state": false, "unroll": false, "activation": "relu", "bias_initializer": {"class_name": "Zeros", "config": {}}, "units": 20, "unit_forget_bias": true, "activity_regularizer": null, "recurrent_dropout": 0.2, "kernel_initializer": {"class_name": "VarianceScaling", "config": {"distribution": "uniform", "scale": 1.0, "seed": null, "mode": "fan_avg"}}, "kernel_constraint": null, "dropout": 0.2, "stateful": false, "recurrent_regularizer": null, "name": "lstm_44", "bias_constraint": null, "go_backwards": false, "implementation": 0, "kernel_regularizer": null, "return_sequences": true, "recurrent_constraint": null}, "inbound_nodes": [[["conv1d_44", 0, 0, {}]]], "name": "lstm_44"}, {"class_name": "LSTM", "config": {"recurrent_activation": "hard_sigmoid", "trainable": true, "recurrent_initializer": {"class_name": "Orthogonal", "config": {"seed": null, "gain": 1.0}}, "use_bias": true, "bias_regularizer": null, "return_state": false, "unroll": false, "activation": "relu", "bias_initializer": {"class_name": "Zeros", "config": {}}, "units": 20, "unit_forget_bias": true, "activity_regularizer": null, "recurrent_dropout": 0.2, "kernel_initializer": {"class_name": "VarianceScaling", "config": {"distribution": "uniform", "scale": 1.0, "seed": null, "mode": "fan_avg"}}, "kernel_constraint": null, "dropout": 0.2, "stateful": false, "recurrent_regularizer": null, "name": "lstm_45", "bias_constraint": null, "go_backwards": false, "implementation": 0, "kernel_regularizer": null, "return_sequences": true, "recurrent_constraint": null}, "inbound_nodes": [[["conv1d_45", 0, 0, {}]]], "name": "lstm_45"}, {"class_name": "LSTM", "config": {"recurrent_activation": "hard_sigmoid", "trainable": true, "recurrent_initializer": {"class_name": "Orthogonal", "config": {"seed": null, "gain": 1.0}}, "use_bias": true, "bias_regularizer": null, "return_state": false, "unroll": false, "activation": "relu", "bias_initializer": {"class_name": "Zeros", "config": {}}, "units": 20, "unit_forget_bias": true, "activity_regularizer": null, "recurrent_dropout": 0.2, "kernel_initializer": {"class_name": "VarianceScaling", "config": {"distribution": "uniform", "scale": 1.0, "seed": null, "mode": "fan_avg"}}, "kernel_constraint": null, "dropout": 0.2, "stateful": false, "recurrent_regularizer": null, "name": "lstm_46", "bias_constraint": null, "go_backwards": false, "implementation": 0, "kernel_regularizer": null, "return_sequences": true, "recurrent_constraint": null}, "inbound_nodes": [[["conv1d_46", 0, 0, {}]]], "name": "lstm_46"}, {"class_name": "LSTM", "config": {"recurrent_activation": "hard_sigmoid", "trainable": true, "recurrent_initializer": {"class_name": "Orthogonal", "config": {"seed": null, "gain": 1.0}}, "use_bias": true, "bias_regularizer": null, "return_state": false, "unroll": false, "activation": "relu", "bias_initializer": {"class_name": "Zeros", "config": {}}, "units": 20, "unit_forget_bias": true, "activity_regularizer": null, "recurrent_dropout": 0.2, "kernel_initializer": {"class_name": "VarianceScaling", "config": {"distribution": "uniform", "scale": 1.0, "seed": null, "mode": "fan_avg"}}, "kernel_constraint": null, "dropout": 0.2, "stateful": false, "recurrent_regularizer": null, "name": "lstm_47", "bias_constraint": null, "go_backwards": false, "implementation": 0, "kernel_regularizer": null, "return_sequences": true, "recurrent_constraint": null}, "inbound_nodes": [[["conv1d_47", 0, 0, {}]]], "name": "lstm_47"}, {"class_name": "LSTM", "config": {"recurrent_activation": "hard_sigmoid", "trainable": true, "recurrent_initializer": {"class_name": "Orthogonal", "config": {"seed": null, "gain": 1.0}}, "use_bias": true, "bias_regularizer": null, "return_state": false, "unroll": false, "activation": "relu", "bias_initializer": {"class_name": "Zeros", "config": {}}, "units": 20, "unit_forget_bias": true, "activity_regularizer": null, "recurrent_dropout": 0.2, "kernel_initializer": {"class_name": "VarianceScaling", "config": {"distribution": "uniform", "scale": 1.0, "seed": null, "mode": "fan_avg"}}, "kernel_constraint": null, "dropout": 0.2, "stateful": false, "recurrent_regularizer": null, "name": "lstm_48", "bias_constraint": null, "go_backwards": false, "implementation": 0, "kernel_regularizer": null, "return_sequences": true, "recurrent_constraint": null}, "inbound_nodes": [[["conv1d_48", 0, 0, {}]]], "name": "lstm_48"}, {"class_name": "LSTM", "config": {"recurrent_activation": "hard_sigmoid", "trainable": true, "recurrent_initializer": {"class_name": "Orthogonal", "config": {"seed": null, "gain": 1.0}}, "use_bias": true, "bias_regularizer": null, "return_state": false, "unroll": false, "activation": "relu", "bias_initializer": {"class_name": "Zeros", "config": {}}, "units": 20, "unit_forget_bias": true, "activity_regularizer": null, "recurrent_dropout": 0.2, "kernel_initializer": {"class_name": "VarianceScaling", "config": {"distribution": "uniform", "scale": 1.0, "seed": null, "mode": "fan_avg"}}, "kernel_constraint": null, "dropout": 0.2, "stateful": false, "recurrent_regularizer": null, "name": "lstm_49", "bias_constraint": null, "go_backwards": false, "implementation": 0, "kernel_regularizer": null, "return_sequences": true, "recurrent_constraint": null}, "inbound_nodes": [[["conv1d_49", 0, 0, {}]]], "name": "lstm_49"}, {"class_name": "LSTM", "config": {"recurrent_activation": "hard_sigmoid", "trainable": true, "recurrent_initializer": {"class_name": "Orthogonal", "config": {"seed": null, "gain": 1.0}}, "use_bias": true, "bias_regularizer": null, "return_state": false, "unroll": false, "activation": "relu", "bias_initializer": {"class_name": "Zeros", "config": {}}, "units": 20, "unit_forget_bias": true, "activity_regularizer": null, "recurrent_dropout": 0.2, "kernel_initializer": {"class_name": "VarianceScaling", "config": {"distribution": "uniform", "scale": 1.0, "seed": null, "mode": "fan_avg"}}, "kernel_constraint": null, "dropout": 0.2, "stateful": false, "recurrent_regularizer": null, "name": "lstm_50", "bias_constraint": null, "go_backwards": false, "implementation": 0, "kernel_regularizer": null, "return_sequences": true, "recurrent_constraint": null}, "inbound_nodes": [[["conv1d_50", 0, 0, {}]]], "name": "lstm_50"}, {"class_name": "LSTM", "config": {"recurrent_activation": "hard_sigmoid", "trainable": true, "recurrent_initializer": {"class_name": "Orthogonal", "config": {"seed": null, "gain": 1.0}}, "use_bias": true, "bias_regularizer": null, "return_state": false, "unroll": false, "activation": "relu", "bias_initializer": {"class_name": "Zeros", "config": {}}, "units": 20, "unit_forget_bias": true, "activity_regularizer": null, "recurrent_dropout": 0.2, "kernel_initializer": {"class_name": "VarianceScaling", "config": {"distribution": "uniform", "scale": 1.0, "seed": null, "mode": "fan_avg"}}, "kernel_constraint": null, "dropout": 0.2, "stateful": false, "recurrent_regularizer": null, "name": "lstm_51", "bias_constraint": null, "go_backwards": false, "implementation": 0, "kernel_regularizer": null, "return_sequences": true, "recurrent_constraint": null}, "inbound_nodes": [[["conv1d_51", 0, 0, {}]]], "name": "lstm_51"}, {"class_name": "LSTM", "config": {"recurrent_activation": "hard_sigmoid", "trainable": true, "recurrent_initializer": {"class_name": "Orthogonal", "config": {"seed": null, "gain": 1.0}}, "use_bias": true, "bias_regularizer": null, "return_state": false, "unroll": false, "activation": "relu", "bias_initializer": {"class_name": "Zeros", "config": {}}, "units": 20, "unit_forget_bias": true, "activity_regularizer": null, "recurrent_dropout": 0.2, "kernel_initializer": {"class_name": "VarianceScaling", "config": {"distribution": "uniform", "scale": 1.0, "seed": null, "mode": "fan_avg"}}, "kernel_constraint": null, "dropout": 0.2, "stateful": false, "recurrent_regularizer": null, "name": "lstm_52", "bias_constraint": null, "go_backwards": false, "implementation": 0, "kernel_regularizer": null, "return_sequences": true, "recurrent_constraint": null}, "inbound_nodes": [[["conv1d_52", 0, 0, {}]]], "name": "lstm_52"}, {"class_name": "LSTM", "config": {"recurrent_activation": "hard_sigmoid", "trainable": true, "recurrent_initializer": {"class_name": "Orthogonal", "config": {"seed": null, "gain": 1.0}}, "use_bias": true, "bias_regularizer": null, "return_state": false, "unroll": false, "activation": "relu", "bias_initializer": {"class_name": "Zeros", "config": {}}, "units": 20, "unit_forget_bias": true, "activity_regularizer": null, "recurrent_dropout": 0.2, "kernel_initializer": {"class_name": "VarianceScaling", "config": {"distribution": "uniform", "scale": 1.0, "seed": null, "mode": "fan_avg"}}, "kernel_constraint": null, "dropout": 0.2, "stateful": false, "recurrent_regularizer": null, "name": "lstm_53", "bias_constraint": null, "go_backwards": false, "implementation": 0, "kernel_regularizer": null, "return_sequences": true, "recurrent_constraint": null}, "inbound_nodes": [[["conv1d_53", 0, 0, {}]]], "name": "lstm_53"}, {"class_name": "LSTM", "config": {"recurrent_activation": "hard_sigmoid", "trainable": true, "recurrent_initializer": {"class_name": "Orthogonal", "config": {"seed": null, "gain": 1.0}}, "use_bias": true, "bias_regularizer": null, "return_state": false, "unroll": false, "activation": "relu", "bias_initializer": {"class_name": "Zeros", "config": {}}, "units": 20, "unit_forget_bias": true, "activity_regularizer": null, "recurrent_dropout": 0.2, "kernel_initializer": {"class_name": "VarianceScaling", "config": {"distribution": "uniform", "scale": 1.0, "seed": null, "mode": "fan_avg"}}, "kernel_constraint": null, "dropout": 0.2, "stateful": false, "recurrent_regularizer": null, "name": "lstm_54", "bias_constraint": null, "go_backwards": false, "implementation": 0, "kernel_regularizer": null, "return_sequences": true, "recurrent_constraint": null}, "inbound_nodes": [[["conv1d_54", 0, 0, {}]]], "name": "lstm_54"}, {"class_name": "LSTM", "config": {"recurrent_activation": "hard_sigmoid", "trainable": true, "recurrent_initializer": {"class_name": "Orthogonal", "config": {"seed": null, "gain": 1.0}}, "use_bias": true, "bias_regularizer": null, "return_state": false, "unroll": false, "activation": "relu", "bias_initializer": {"class_name": "Zeros", "config": {}}, "units": 20, "unit_forget_bias": true, "activity_regularizer": null, "recurrent_dropout": 0.2, "kernel_initializer": {"class_name": "VarianceScaling", "config": {"distribution": "uniform", "scale": 1.0, "seed": null, "mode": "fan_avg"}}, "kernel_constraint": null, "dropout": 0.2, "stateful": false, "recurrent_regularizer": null, "name": "lstm_55", "bias_constraint": null, "go_backwards": false, "implementation": 0, "kernel_regularizer": null, "return_sequences": true, "recurrent_constraint": null}, "inbound_nodes": [[["conv1d_55", 0, 0, {}]]], "name": "lstm_55"}, {"class_name": "LSTM", "config": {"recurrent_activation": "hard_sigmoid", "trainable": true, "recurrent_initializer": {"class_name": "Orthogonal", "config": {"seed": null, "gain": 1.0}}, "use_bias": true, "bias_regularizer": null, "return_state": false, "unroll": false, "activation": "relu", "bias_initializer": {"class_name": "Zeros", "config": {}}, "units": 20, "unit_forget_bias": true, "activity_regularizer": null, "recurrent_dropout": 0.2, "kernel_initializer": {"class_name": "VarianceScaling", "config": {"distribution": "uniform", "scale": 1.0, "seed": null, "mode": "fan_avg"}}, "kernel_constraint": null, "dropout": 0.2, "stateful": false, "recurrent_regularizer": null, "name": "lstm_56", "bias_constraint": null, "go_backwards": false, "implementation": 0, "kernel_regularizer": null, "return_sequences": true, "recurrent_constraint": null}, "inbound_nodes": [[["conv1d_56", 0, 0, {}]]], "name": "lstm_56"}, {"class_name": "LSTM", "config": {"recurrent_activation": "hard_sigmoid", "trainable": true, "recurrent_initializer": {"class_name": "Orthogonal", "config": {"seed": null, "gain": 1.0}}, "use_bias": true, "bias_regularizer": null, "return_state": false, "unroll": false, "activation": "relu", "bias_initializer": {"class_name": "Zeros", "config": {}}, "units": 20, "unit_forget_bias": true, "activity_regularizer": null, "recurrent_dropout": 0.2, "kernel_initializer": {"class_name": "VarianceScaling", "config": {"distribution": "uniform", "scale": 1.0, "seed": null, "mode": "fan_avg"}}, "kernel_constraint": null, "dropout": 0.2, "stateful": false, "recurrent_regularizer": null, "name": "lstm_57", "bias_constraint": null, "go_backwards": false, "implementation": 0, "kernel_regularizer": null, "return_sequences": true, "recurrent_constraint": null}, "inbound_nodes": [[["conv1d_57", 0, 0, {}]]], "name": "lstm_57"}, {"class_name": "LSTM", "config": {"recurrent_activation": "hard_sigmoid", "trainable": true, "recurrent_initializer": {"class_name": "Orthogonal", "config": {"seed": null, "gain": 1.0}}, "use_bias": true, "bias_regularizer": null, "return_state": false, "unroll": false, "activation": "relu", "bias_initializer": {"class_name": "Zeros", "config": {}}, "units": 20, "unit_forget_bias": true, "activity_regularizer": null, "recurrent_dropout": 0.2, "kernel_initializer": {"class_name": "VarianceScaling", "config": {"distribution": "uniform", "scale": 1.0, "seed": null, "mode": "fan_avg"}}, "kernel_constraint": null, "dropout": 0.2, "stateful": false, "recurrent_regularizer": null, "name": "lstm_58", "bias_constraint": null, "go_backwards": false, "implementation": 0, "kernel_regularizer": null, "return_sequences": true, "recurrent_constraint": null}, "inbound_nodes": [[["conv1d_58", 0, 0, {}]]], "name": "lstm_58"}, {"class_name": "LSTM", "config": {"recurrent_activation": "hard_sigmoid", "trainable": true, "recurrent_initializer": {"class_name": "Orthogonal", "config": {"seed": null, "gain": 1.0}}, "use_bias": true, "bias_regularizer": null, "return_state": false, "unroll": false, "activation": "relu", "bias_initializer": {"class_name": "Zeros", "config": {}}, "units": 20, "unit_forget_bias": true, "activity_regularizer": null, "recurrent_dropout": 0.2, "kernel_initializer": {"class_name": "VarianceScaling", "config": {"distribution": "uniform", "scale": 1.0, "seed": null, "mode": "fan_avg"}}, "kernel_constraint": null, "dropout": 0.2, "stateful": false, "recurrent_regularizer": null, "name": "lstm_59", "bias_constraint": null, "go_backwards": false, "implementation": 0, "kernel_regularizer": null, "return_sequences": true, "recurrent_constraint": null}, "inbound_nodes": [[["conv1d_59", 0, 0, {}]]], "name": "lstm_59"}, {"class_name": "LSTM", "config": {"recurrent_activation": "hard_sigmoid", "trainable": true, "recurrent_initializer": {"class_name": "Orthogonal", "config": {"seed": null, "gain": 1.0}}, "use_bias": true, "bias_regularizer": null, "return_state": false, "unroll": false, "activation": "relu", "bias_initializer": {"class_name": "Zeros", "config": {}}, "units": 20, "unit_forget_bias": true, "activity_regularizer": null, "recurrent_dropout": 0.2, "kernel_initializer": {"class_name": "VarianceScaling", "config": {"distribution": "uniform", "scale": 1.0, "seed": null, "mode": "fan_avg"}}, "kernel_constraint": null, "dropout": 0.2, "stateful": false, "recurrent_regularizer": null, "name": "lstm_60", "bias_constraint": null, "go_backwards": false, "implementation": 0, "kernel_regularizer": null, "return_sequences": true, "recurrent_constraint": null}, "inbound_nodes": [[["conv1d_60", 0, 0, {}]]], "name": "lstm_60"}, {"class_name": "LSTM", "config": {"recurrent_activation": "hard_sigmoid", "trainable": true, "recurrent_initializer": {"class_name": "Orthogonal", "config": {"seed": null, "gain": 1.0}}, "use_bias": true, "bias_regularizer": null, "return_state": false, "unroll": false, "activation": "relu", "bias_initializer": {"class_name": "Zeros", "config": {}}, "units": 20, "unit_forget_bias": true, "activity_regularizer": null, "recurrent_dropout": 0.2, "kernel_initializer": {"class_name": "VarianceScaling", "config": {"distribution": "uniform", "scale": 1.0, "seed": null, "mode": "fan_avg"}}, "kernel_constraint": null, "dropout": 0.2, "stateful": false, "recurrent_regularizer": null, "name": "lstm_61", "bias_constraint": null, "go_backwards": false, "implementation": 0, "kernel_regularizer": null, "return_sequences": true, "recurrent_constraint": null}, "inbound_nodes": [[["conv1d_61", 0, 0, {}]]], "name": "lstm_61"}, {"class_name": "LSTM", "config": {"recurrent_activation": "hard_sigmoid", "trainable": true, "recurrent_initializer": {"class_name": "Orthogonal", "config": {"seed": null, "gain": 1.0}}, "use_bias": true, "bias_regularizer": null, "return_state": false, "unroll": false, "activation": "relu", "bias_initializer": {"class_name": "Zeros", "config": {}}, "units": 20, "unit_forget_bias": true, "activity_regularizer": null, "recurrent_dropout": 0.2, "kernel_initializer": {"class_name": "VarianceScaling", "config": {"distribution": "uniform", "scale": 1.0, "seed": null, "mode": "fan_avg"}}, "kernel_constraint": null, "dropout": 0.2, "stateful": false, "recurrent_regularizer": null, "name": "lstm_62", "bias_constraint": null, "go_backwards": false, "implementation": 0, "kernel_regularizer": null, "return_sequences": true, "recurrent_constraint": null}, "inbound_nodes": [[["conv1d_62", 0, 0, {}]]], "name": "lstm_62"}, {"class_name": "LSTM", "config": {"recurrent_activation": "hard_sigmoid", "trainable": true, "recurrent_initializer": {"class_name": "Orthogonal", "config": {"seed": null, "gain": 1.0}}, "use_bias": true, "bias_regularizer": null, "return_state": false, "unroll": false, "activation": "relu", "bias_initializer": {"class_name": "Zeros", "config": {}}, "units": 20, "unit_forget_bias": true, "activity_regularizer": null, "recurrent_dropout": 0.2, "kernel_initializer": {"class_name": "VarianceScaling", "config": {"distribution": "uniform", "scale": 1.0, "seed": null, "mode": "fan_avg"}}, "kernel_constraint": null, "dropout": 0.2, "stateful": false, "recurrent_regularizer": null, "name": "lstm_63", "bias_constraint": null, "go_backwards": false, "implementation": 0, "kernel_regularizer": null, "return_sequences": true, "recurrent_constraint": null}, "inbound_nodes": [[["conv1d_63", 0, 0, {}]]], "name": "lstm_63"}, {"class_name": "LSTM", "config": {"recurrent_activation": "hard_sigmoid", "trainable": true, "recurrent_initializer": {"class_name": "Orthogonal", "config": {"seed": null, "gain": 1.0}}, "use_bias": true, "bias_regularizer": null, "return_state": false, "unroll": false, "activation": "relu", "bias_initializer": {"class_name": "Zeros", "config": {}}, "units": 20, "unit_forget_bias": true, "activity_regularizer": null, "recurrent_dropout": 0.2, "kernel_initializer": {"class_name": "VarianceScaling", "config": {"distribution": "uniform", "scale": 1.0, "seed": null, "mode": "fan_avg"}}, "kernel_constraint": null, "dropout": 0.2, "stateful": false, "recurrent_regularizer": null, "name": "lstm_64", "bias_constraint": null, "go_backwards": false, "implementation": 0, "kernel_regularizer": null, "return_sequences": true, "recurrent_constraint": null}, "inbound_nodes": [[["conv1d_64", 0, 0, {}]]], "name": "lstm_64"}, {"class_name": "LSTM", "config": {"recurrent_activation": "hard_sigmoid", "trainable": true, "recurrent_initializer": {"class_name": "Orthogonal", "config": {"seed": null, "gain": 1.0}}, "use_bias": true, "bias_regularizer": null, "return_state": false, "unroll": false, "activation": "relu", "bias_initializer": {"class_name": "Zeros", "config": {}}, "units": 20, "unit_forget_bias": true, "activity_regularizer": null, "recurrent_dropout": 0.2, "kernel_initializer": {"class_name": "VarianceScaling", "config": {"distribution": "uniform", "scale": 1.0, "seed": null, "mode": "fan_avg"}}, "kernel_constraint": null, "dropout": 0.2, "stateful": false, "recurrent_regularizer": null, "name": "lstm_65", "bias_constraint": null, "go_backwards": false, "implementation": 0, "kernel_regularizer": null, "return_sequences": true, "recurrent_constraint": null}, "inbound_nodes": [[["conv1d_65", 0, 0, {}]]], "name": "lstm_65"}, {"class_name": "LSTM", "config": {"recurrent_activation": "hard_sigmoid", "trainable": true, "recurrent_initializer": {"class_name": "Orthogonal", "config": {"seed": null, "gain": 1.0}}, "use_bias": true, "bias_regularizer": null, "return_state": false, "unroll": false, "activation": "relu", "bias_initializer": {"class_name": "Zeros", "config": {}}, "units": 20, "unit_forget_bias": true, "activity_regularizer": null, "recurrent_dropout": 0.2, "kernel_initializer": {"class_name": "VarianceScaling", "config": {"distribution": "uniform", "scale": 1.0, "seed": null, "mode": "fan_avg"}}, "kernel_constraint": null, "dropout": 0.2, "stateful": false, "recurrent_regularizer": null, "name": "lstm_66", "bias_constraint": null, "go_backwards": false, "implementation": 0, "kernel_regularizer": null, "return_sequences": true, "recurrent_constraint": null}, "inbound_nodes": [[["conv1d_66", 0, 0, {}]]], "name": "lstm_66"}, {"class_name": "LSTM", "config": {"recurrent_activation": "hard_sigmoid", "trainable": true, "recurrent_initializer": {"class_name": "Orthogonal", "config": {"seed": null, "gain": 1.0}}, "use_bias": true, "bias_regularizer": null, "return_state": false, "unroll": false, "activation": "relu", "bias_initializer": {"class_name": "Zeros", "config": {}}, "units": 20, "unit_forget_bias": true, "activity_regularizer": null, "recurrent_dropout": 0.2, "kernel_initializer": {"class_name": "VarianceScaling", "config": {"distribution": "uniform", "scale": 1.0, "seed": null, "mode": "fan_avg"}}, "kernel_constraint": null, "dropout": 0.2, "stateful": false, "recurrent_regularizer": null, "name": "lstm_67", "bias_constraint": null, "go_backwards": false, "implementation": 0, "kernel_regularizer": null, "return_sequences": true, "recurrent_constraint": null}, "inbound_nodes": [[["conv1d_67", 0, 0, {}]]], "name": "lstm_67"}, {"class_name": "LSTM", "config": {"recurrent_activation": "hard_sigmoid", "trainable": true, "recurrent_initializer": {"class_name": "Orthogonal", "config": {"seed": null, "gain": 1.0}}, "use_bias": true, "bias_regularizer": null, "return_state": false, "unroll": false, "activation": "relu", "bias_initializer": {"class_name": "Zeros", "config": {}}, "units": 20, "unit_forget_bias": true, "activity_regularizer": null, "recurrent_dropout": 0.2, "kernel_initializer": {"class_name": "VarianceScaling", "config": {"distribution": "uniform", "scale": 1.0, "seed": null, "mode": "fan_avg"}}, "kernel_constraint": null, "dropout": 0.2, "stateful": false, "recurrent_regularizer": null, "name": "lstm_68", "bias_constraint": null, "go_backwards": false, "implementation": 0, "kernel_regularizer": null, "return_sequences": true, "recurrent_constraint": null}, "inbound_nodes": [[["conv1d_68", 0, 0, {}]]], "name": "lstm_68"}, {"class_name": "LSTM", "config": {"recurrent_activation": "hard_sigmoid", "trainable": true, "recurrent_initializer": {"class_name": "Orthogonal", "config": {"seed": null, "gain": 1.0}}, "use_bias": true, "bias_regularizer": null, "return_state": false, "unroll": false, "activation": "relu", "bias_initializer": {"class_name": "Zeros", "config": {}}, "units": 20, "unit_forget_bias": true, "activity_regularizer": null, "recurrent_dropout": 0.2, "kernel_initializer": {"class_name": "VarianceScaling", "config": {"distribution": "uniform", "scale": 1.0, "seed": null, "mode": "fan_avg"}}, "kernel_constraint": null, "dropout": 0.2, "stateful": false, "recurrent_regularizer": null, "name": "lstm_69", "bias_constraint": null, "go_backwards": false, "implementation": 0, "kernel_regularizer": null, "return_sequences": true, "recurrent_constraint": null}, "inbound_nodes": [[["conv1d_69", 0, 0, {}]]], "name": "lstm_69"}, {"class_name": "LSTM", "config": {"recurrent_activation": "hard_sigmoid", "trainable": true, "recurrent_initializer": {"class_name": "Orthogonal", "config": {"seed": null, "gain": 1.0}}, "use_bias": true, "bias_regularizer": null, "return_state": false, "unroll": false, "activation": "relu", "bias_initializer": {"class_name": "Zeros", "config": {}}, "units": 20, "unit_forget_bias": true, "activity_regularizer": null, "recurrent_dropout": 0.2, "kernel_initializer": {"class_name": "VarianceScaling", "config": {"distribution": "uniform", "scale": 1.0, "seed": null, "mode": "fan_avg"}}, "kernel_constraint": null, "dropout": 0.2, "stateful": false, "recurrent_regularizer": null, "name": "lstm_70", "bias_constraint": null, "go_backwards": false, "implementation": 0, "kernel_regularizer": null, "return_sequences": true, "recurrent_constraint": null}, "inbound_nodes": [[["conv1d_70", 0, 0, {}]]], "name": "lstm_70"}, {"class_name": "LSTM", "config": {"recurrent_activation": "hard_sigmoid", "trainable": true, "recurrent_initializer": {"class_name": "Orthogonal", "config": {"seed": null, "gain": 1.0}}, "use_bias": true, "bias_regularizer": null, "return_state": false, "unroll": false, "activation": "relu", "bias_initializer": {"class_name": "Zeros", "config": {}}, "units": 20, "unit_forget_bias": true, "activity_regularizer": null, "recurrent_dropout": 0.2, "kernel_initializer": {"class_name": "VarianceScaling", "config": {"distribution": "uniform", "scale": 1.0, "seed": null, "mode": "fan_avg"}}, "kernel_constraint": null, "dropout": 0.2, "stateful": false, "recurrent_regularizer": null, "name": "lstm_71", "bias_constraint": null, "go_backwards": false, "implementation": 0, "kernel_regularizer": null, "return_sequences": true, "recurrent_constraint": null}, "inbound_nodes": [[["conv1d_71", 0, 0, {}]]], "name": "lstm_71"}, {"class_name": "LSTM", "config": {"recurrent_activation": "hard_sigmoid", "trainable": true, "recurrent_initializer": {"class_name": "Orthogonal", "config": {"seed": null, "gain": 1.0}}, "use_bias": true, "bias_regularizer": null, "return_state": false, "unroll": false, "activation": "relu", "bias_initializer": {"class_name": "Zeros", "config": {}}, "units": 20, "unit_forget_bias": true, "activity_regularizer": null, "recurrent_dropout": 0.2, "kernel_initializer": {"class_name": "VarianceScaling", "config": {"distribution": "uniform", "scale": 1.0, "seed": null, "mode": "fan_avg"}}, "kernel_constraint": null, "dropout": 0.2, "stateful": false, "recurrent_regularizer": null, "name": "lstm_72", "bias_constraint": null, "go_backwards": false, "implementation": 0, "kernel_regularizer": null, "return_sequences": true, "recurrent_constraint": null}, "inbound_nodes": [[["conv1d_72", 0, 0, {}]]], "name": "lstm_72"}, {"class_name": "LSTM", "config": {"recurrent_activation": "hard_sigmoid", "trainable": true, "recurrent_initializer": {"class_name": "Orthogonal", "config": {"seed": null, "gain": 1.0}}, "use_bias": true, "bias_regularizer": null, "return_state": false, "unroll": false, "activation": "relu", "bias_initializer": {"class_name": "Zeros", "config": {}}, "units": 20, "unit_forget_bias": true, "activity_regularizer": null, "recurrent_dropout": 0.2, "kernel_initializer": {"class_name": "VarianceScaling", "config": {"distribution": "uniform", "scale": 1.0, "seed": null, "mode": "fan_avg"}}, "kernel_constraint": null, "dropout": 0.2, "stateful": false, "recurrent_regularizer": null, "name": "lstm_73", "bias_constraint": null, "go_backwards": false, "implementation": 0, "kerne…
itializer": {"class_name": "Zeros", "config": {}}, "units": 3, "use_bias": true, "activity_regularizer": null}}, "trainable": true, "name": "time_distributed_32"}, "inbound_nodes": [[["lstm_32", 0, 0, {}]]], "name": "time_distributed_32"}, {"class_name": "TimeDistributed", "config": {"layer": {"class_name": "Dense", "config": {"kernel_initializer": {"class_name": "VarianceScaling", "config": {"distribution": "uniform", "scale": 1.0, "seed": null, "mode": "fan_avg"}}, "name": "dense_35", "kernel_constraint": null, "bias_regularizer": null, "bias_constraint": null, "activation": "relu", "trainable": true, "kernel_regularizer": null, "bias_initializer": {"class_name": "Zeros", "config": {}}, "units": 3, "use_bias": true, "activity_regularizer": null}}, "trainable": true, "name": "time_distributed_33"}, "inbound_nodes": [[["lstm_33", 0, 0, {}]]], "name": "time_distributed_33"}, {"class_name": "TimeDistributed", "config": {"layer": {"class_name": "Dense", "config": {"kernel_initializer": {"class_name": "VarianceScaling", "config": {"distribution": "uniform", "scale": 1.0, "seed": null, "mode": "fan_avg"}}, "name": "dense_36", "kernel_constraint": null, "bias_regularizer": null, "bias_constraint": null, "activation": "relu", "trainable": true, "kernel_regularizer": null, "bias_initializer": {"class_name": "Zeros", "config": {}}, "units": 3, "use_bias": true, "activity_regularizer": null}}, "trainable": true, "name": "time_distributed_34"}, "inbound_nodes": [[["lstm_34", 0, 0, {}]]], "name": "time_distributed_34"}, {"class_name": "TimeDistributed", "config": {"layer": {"class_name": "Dense", "config": {"kernel_initializer": {"class_name": "VarianceScaling", "config": {"distribution": "uniform", "scale": 1.0, "seed": null, "mode": "fan_avg"}}, "name": "dense_37", "kernel_constraint": null, "bias_regularizer": null, "bias_constraint": null, "activation": "relu", "trainable": true, "kernel_regularizer": null, "bias_initializer": {"class_name": "Zeros", "config": {}}, "units": 3, "use_bias": true, "activity_regularizer": null}}, "trainable": true, "name": "time_distributed_35"}, "inbound_nodes": [[["lstm_35", 0, 0, {}]]], "name": "time_distributed_35"}, {"class_name": "TimeDistributed", "config": {"layer": {"class_name": "Dense", "config": {"kernel_initializer": {"class_name": "VarianceScaling", "config": {"distribution": "uniform", "scale": 1.0, "seed": null, "mode": "fan_avg"}}, "name": "dense_38", "kernel_constraint": null, "bias_regularizer": null, "bias_constraint": null, "activation": "relu", "trainable": true, "kernel_regularizer": null, "bias_initializer": {"class_name": "Zeros", "config": {}}, "units": 3, "use_bias": true, "activity_regularizer": null}}, "trainable": true, "name": "time_distributed_36"}, "inbound_nodes": [[["lstm_36", 0, 0, {}]]], "name": "time_distributed_36"}, {"class_name": "TimeDistributed", "config": {"layer": {"class_name": "Dense", "config": {"kernel_initializer": {"class_name": "VarianceScaling", "config": {"distribution": "uniform", "scale": 1.0, "seed": null, "mode": "fan_avg"}}, "name": "dense_39", "kernel_constraint": null, "bias_regularizer": null, "bias_constraint": null, "activation": "relu", "trainable": true, "kernel_regularizer": null, "bias_initializer": {"class_name": "Zeros", "config": {}}, "units": 3, "use_bias": true, "activity_regularizer": null}}, "trainable": true, "name": "time_distributed_37"}, "inbound_nodes": [[["lstm_37", 0, 0, {}]]], "name": "time_distributed_37"}, {"class_name": "TimeDistributed", "config": {"layer": {"class_name": "Dense", "config": {"kernel_initializer": {"class_name": "VarianceScaling", "config": {"distribution": "uniform", "scale": 1.0, "seed": null, "mode": "fan_avg"}}, "name": "dense_40", "kernel_constraint": null, "bias_regularizer": null, "bias_constraint": null, "activation": "relu", "trainable": true, "kernel_regularizer": null, "bias_initializer": {"class_name": "Zeros", "config": {}}, "units": 3, "use_bias": true, "activity_regularizer": null}}, "trainable": true, "name": "time_distributed_38"}, "inbound_nodes": [[["lstm_38", 0, 0, {}]]], "name": "time_distributed_38"}, {"class_name": "TimeDistributed", "config": {"layer": {"class_name": "Dense", "config": {"kernel_initializer": {"class_name": "VarianceScaling", "config": {"distribution": "uniform", "scale": 1.0, "seed": null, "mode": "fan_avg"}}, "name": "dense_41", "kernel_constraint": null, "bias_regularizer": null, "bias_constraint": null, "activation": "relu", "trainable": true, "kernel_regularizer": null, "bias_initializer": {"class_name": "Zeros", "config": {}}, "units": 3, "use_bias": true, "activity_regularizer": null}}, "trainable": true, "name": "time_distributed_39"}, "inbound_nodes": [[["lstm_39", 0, 0, {}]]], "name": "time_distributed_39"}, {"class_name": "TimeDistributed", "config": {"layer": {"class_name": "Dense", "config": {"kernel_initializer": {"class_name": "VarianceScaling", "config": {"distribution": "uniform", "scale": 1.0, "seed": null, "mode": "fan_avg"}}, "name": "dense_42", "kernel_constraint": null, "bias_regularizer": null, "bias_constraint": null, "activation": "relu", "trainable": true, "kernel_regularizer": null, "bias_initializer": {"class_name": "Zeros", "config": {}}, "units": 3, "use_bias": true, "activity_regularizer": null}}, "trainable": true, "name": "time_distributed_40"}, "inbound_nodes": [[["lstm_40", 0, 0, {}]]], "name": "time_distributed_40"}, {"class_name": "TimeDistributed", "config": {"layer": {"class_name": "Dense", "config": {"kernel_initializer": {"class_name": "VarianceScaling", "config": {"distribution": "uniform", "scale": 1.0, "seed": null, "mode": "fan_avg"}}, "name": "dense_43", "kernel_constraint": null, "bias_regularizer": null, "bias_constraint": null, "activation": "relu", "trainable": true, "kernel_regularizer": null, "bias_initializer": {"class_name": "Zeros", "config": {}}, "units": 3, "use_bias": true, "activity_regularizer": null}}, "trainable": true, "name": "time_distributed_41"}, "inbound_nodes": [[["lstm_41", 0, 0, {}]]], "name": "time_distributed_41"}, {"class_name": "TimeDistributed", "config": {"layer": {"class_name": "Dense", "config": {"kernel_initializer": {"class_name": "VarianceScaling", "config": {"distribution": "uniform", "scale": 1.0, "seed": null, "mode": "fan_avg"}}, "name": "dense_44", "kernel_constraint": null, "bias_regularizer": null, "bias_constraint": null, "activation": "relu", "trainable": true, "kernel_regularizer": null, "bias_initializer": {"class_name": "Zeros", "config": {}}, "units": 3, "use_bias": true, "activity_regularizer": null}}, "trainable": true, "name": "time_distributed_42"}, "inbound_nodes": [[["lstm_42", 0, 0, {}]]], "name": "time_distributed_42"}, {"class_name": "TimeDistributed", "config": {"layer": {"class_name": "Dense", "config": {"kernel_initializer": {"class_name": "VarianceScaling", "config": {"distribution": "uniform", "scale": 1.0, "seed": null, "mode": "fan_avg"}}, "name": "dense_45", "kernel_constraint": null, "bias_regularizer": null, "bias_constraint": null, "activation": "relu", "trainable": true, "kernel_regularizer": null, "bias_initializer": {"class_name": "Zeros", "config": {}}, "units": 3, "use_bias": true, "activity_regularizer": null}}, "trainable": true, "name": "time_distributed_43"}, "inbound_nodes": [[["lstm_43", 0, 0, {}]]], "name": "time_distributed_43"}, {"class_name": "TimeDistributed", "config": {"layer": {"class_name": "Dense", "config": {"kernel_initializer": {"class_name": "VarianceScaling", "config": {"distribution": "uniform", "scale": 1.0, "seed": null, "mode": "fan_avg"}}, "name": "dense_46", "kernel_constraint": null, "bias_regularizer": null, "bias_constraint": null, "activation": "relu", "trainable": true, "kernel_regularizer": null, "bias_initializer": {"class_name": "Zeros", "config": {}}, "units": 3, "use_bias": true, "activity_regularizer": null}}, "trainable": true, "name": "time_distributed_44"}, "inbound_nodes": [[["lstm_44", 0, 0, {}]]], "name": "time_distributed_44"}, {"class_name": "TimeDistributed", "config": {"layer": {"class_name": "Dense", "config": {"kernel_initializer": {"class_name": "VarianceScaling", "config": {"distribution": "uniform", "scale": 1.0, "seed": null, "mode": "fan_avg"}}, "name": "dense_47", "kernel_constraint": null, "bias_regularizer": null, "bias_constraint": null, "activation": "relu", "trainable": true, "kernel_regularizer": null, "bias_initializer": {"class_name": "Zeros", "config": {}}, "units": 3, "use_bias": true, "activity_regularizer": null}}, "trainable": true, "name": "time_distributed_45"}, "inbound_nodes": [[["lstm_45", 0, 0, {}]]], "name": "time_distributed_45"}, {"class_name": "TimeDistributed", "config": {"layer": {"class_name": "Dense", "config": {"kernel_initializer": {"class_name": "VarianceScaling", "config": {"distribution": "uniform", "scale": 1.0, "seed": null, "mode": "fan_avg"}}, "name": "dense_48", "kernel_constraint": null, "bias_regularizer": null, "bias_constraint": null, "activation": "relu", "trainable": true, "kernel_regularizer": null, "bias_initializer": {"class_name": "Zeros", "config": {}}, "units": 3, "use_bias": true, "activity_regularizer": null}}, "trainable": true, "name": "time_distributed_46"}, "inbound_nodes": [[["lstm_46", 0, 0, {}]]], "name": "time_distributed_46"}, {"class_name": "TimeDistributed", "config": {"layer": {"class_name": "Dense", "config": {"kernel_initializer": {"class_name": "VarianceScaling", "config": {"distribution": "uniform", "scale": 1.0, "seed": null, "mode": "fan_avg"}}, "name": "dense_49", "kernel_constraint": null, "bias_regularizer": null, "bias_constraint": null, "activation": "relu", "trainable": true, "kernel_regularizer": null, "bias_initializer": {"class_name": "Zeros", "config": {}}, "units": 3, "use_bias": true, "activity_regularizer": null}}, "trainable": true, "name": "time_distributed_47"}, "inbound_nodes": [[["lstm_47", 0, 0, {}]]], "name": "time_distributed_47"}, {"class_name": "TimeDistributed", "config": {"layer": {"class_name": "Dense", "config": {"kernel_initializer": {"class_name": "VarianceScaling", "config": {"distribution": "uniform", "scale": 1.0, "seed": null, "mode": "fan_avg"}}, "name": "dense_50", "kernel_constraint": null, "bias_regularizer": null, "bias_constraint": null, "activation": "relu", "trainable": true, "kernel_regularizer": null, "bias_initializer": {"class_name": "Zeros", "config": {}}, "units": 3, "use_bias": true, "activity_regularizer": null}}, "trainable": true, "name": "time_distributed_48"}, "inbound_nodes": [[["lstm_48", 0, 0, {}]]], "name": "time_distributed_48"}, {"class_name": "TimeDistributed", "config": {"layer": {"class_name": "Dense", "config": {"kernel_initializer": {"class_name": "VarianceScaling", "config": {"distribution": "uniform", "scale": 1.0, "seed": null, "mode": "fan_avg"}}, "name": "dense_51", "kernel_constraint": null, "bias_regularizer": null, "bias_constraint": null, "activation": "relu", "trainable": true, "kernel_regularizer": null, "bias_initializer": {"class_name": "Zeros", "config": {}}, "units": 3, "use_bias": true, "activity_regularizer": null}}, "trainable": true, "name": "time_distributed_49"}, "inbound_nodes": [[["lstm_49", 0, 0, {}]]], "name": "time_distributed_49"}, {"class_name": "TimeDistributed", "config": {"layer": {"class_name": "Dense", "config": {"kernel_initializer": {"class_name": "VarianceScaling", "config": {"distribution": "uniform", "scale": 1.0, "seed": null, "mode": "fan_avg"}}, "name": "dense_52", "kernel_constraint": null, "bias_regularizer": null, "bias_constraint": null, "activation": "relu", "trainable": true, "kernel_regularizer": null, "bias_initializer": {"class_name": "Zeros", "config": {}}, "units": 3, "use_bias": true, "activity_regularizer": null}}, "trainable": true, "name": "time_distributed_50"}, "inbound_nodes": [[["lstm_50", 0, 0, {}]]], "name": "time_distributed_50"}, {"class_name": "TimeDistributed", "config": {"layer": {"class_name": "Dense", "config": {"kernel_initializer": {"class_name": "VarianceScaling", "config": {"distribution": "uniform", "scale": 1.0, "seed": null, "mode": "fan_avg"}}, "name": "dense_53", "kernel_constraint": null, "bias_regularizer": null, "bias_constraint": null, "activation": "relu", "trainable": true, "kernel_regularizer": null, "bias_initializer": {"class_name": "Zeros", "config": {}}, "units": 3, "use_bias": true, "activity_regularizer": null}}, "trainable": true, "name": "time_distributed_51"}, "inbound_nodes": [[["lstm_51", 0, 0, {}]]], "name": "time_distributed_51"}, {"class_name": "TimeDistributed", "config": {"layer": {"class_name": "Dense", "config": {"kernel_initializer": {"class_name": "VarianceScaling", "config": {"distribution": "uniform", "scale": 1.0, "seed": null, "mode": "fan_avg"}}, "name": "dense_54", "kernel_constraint": null, "bias_regularizer": null, "bias_constraint": null, "activation": "relu", "trainable": true, "kernel_regularizer": null, "bias_initializer": {"class_name": "Zeros", "config": {}}, "units": 3, "use_bias": true, "activity_regularizer": null}}, "trainable": true, "name": "time_distributed_52"}, "inbound_nodes": [[["lstm_52", 0, 0, {}]]], "name": "time_distributed_52"}, {"class_name": "TimeDistributed", "config": {"layer": {"class_name": "Dense", "config": {"kernel_initializer": {"class_name": "VarianceScaling", "config": {"distribution": "uniform", "scale": 1.0, "seed": null, "mode": "fan_avg"}}, "name": "dense_55", "kernel_constraint": null, "bias_regularizer": null, "bias_constraint": null, "activation": "relu", "trainable": true, "kernel_regularizer": null, "bias_initializer": {"class_name": "Zeros", "config": {}}, "units": 3, "use_bias": true, "activity_regularizer": null}}, "trainable": true, "name": "time_distributed_53"}, "inbound_nodes": [[["lstm_53", 0, 0, {}]]], "name": "time_distributed_53"}, {"class_name": "TimeDistributed", "config": {"layer": {"class_name": "Dense", "config": {"kernel_initializer": {"class_name": "VarianceScaling", "config": {"distribution": "uniform", "scale": 1.0, "seed": null, "mode": "fan_avg"}}, "name": "dense_56", "kernel_constraint": null, "bias_regularizer": null, "bias_constraint": null, "activation": "relu", "trainable": true, "kernel_regularizer": null, "bias_initializer": {"class_name": "Zeros", "config": {}}, "units": 3, "use_bias": true, "activity_regularizer": null}}, "trainable": true, "name": "time_distributed_54"}, "inbound_nodes": [[["lstm_54", 0, 0, {}]]], "name": "time_distributed_54"}, {"class_name": "TimeDistributed", "config": {"layer": {"class_name": "Dense", "config": {"kernel_initializer": {"class_name": "VarianceScaling", "config": {"distribution": "uniform", "scale": 1.0, "seed": null, "mode": "fan_avg"}}, "name": "dense_57", "kernel_constraint": null, "bias_regularizer": null, "bias_constraint": null, "activation": "relu", "trainable": true, "kernel_regularizer": null, "bias_initializer": {"class_name": "Zeros", "config": {}}, "units": 3, "use_bias": true, "activity_regularizer": null}}, "trainable": true, "name": "time_distributed_55"}, "inbound_nodes": [[["lstm_55", 0, 0, {}]]], "name": "time_distributed_55"}, {"class_name": "TimeDistributed", "config": {"layer": {"class_name": "Dense", "config": {"kernel_initializer": {"class_name": "VarianceScaling", "config": {"distribution": "uniform", "scale": 1.0, "seed": null, "mode": "fan_avg"}}, "name": "dense_58", "kernel_constraint": null, "bias_regularizer": null, "bias_constraint": null, "activation": "relu", "trainable": true, "kernel_regularizer": null, "bias_initializer": {"class_name": "Zeros", "config": {}}, "units": 3, "use_bias": true, "activity_regularizer": null}}, "trainable": true, "name": "time_distributed_56"}, "inbound_nodes": [[["lstm_56", 0, 0, {}]]], "name": "time_distributed_56"}, {"class_name": "TimeDistributed", "config": {"layer": {"class_name": "Dense", "config": {"kernel_initializer": {"class_name": "VarianceScaling", "config": {"distribution": "uniform", "scale": 1.0, "seed": null, "mode": "fan_avg"}}, "name": "dense_59", "kernel_constraint": null, "bias_regularizer": null, "bias_constraint": null, "activation": "relu", "trainable": true, "kernel_regularizer": null, "bias_initializer": {"class_name": "Zeros", "config": {}}, "units": 3, "use_bias": true, "activity_regularizer": null}}, "trainable": true, "name": "time_distributed_57"}, "inbound_nodes": [[["lstm_57", 0, 0, {}]]], "name": "time_distributed_57"}, {"class_name": "TimeDistributed", "config": {"layer": {"class_name": "Dense", "config": {"kernel_initializer": {"class_name": "VarianceScaling", "config": {"distribution": "uniform", "scale": 1.0, "seed": null, "mode": "fan_avg"}}, "name": "dense_60", "kernel_constraint": null, "bias_regularizer": null, "bias_constraint": null, "activation": "relu", "trainable": true, "kernel_regularizer": null, "bias_initializer": {"class_name": "Zeros", "config": {}}, "units": 3, "use_bias": true, "activity_regularizer": null}}, "trainable": true, "name": "time_distributed_58"}, "inbound_nodes": [[["lstm_58", 0, 0, {}]]], "name": "time_distributed_58"}, {"class_name": "TimeDistributed", "config": {"layer": {"class_name": "Dense", "config": {"kernel_initializer": {"class_name": "VarianceScaling", "config": {"distribution": "uniform", "scale": 1.0, "seed": null, "mode": "fan_avg"}}, "name": "dense_61", "kernel_constraint": null, "bias_regularizer": null, "bias_constraint": null, "activation": "relu", "trainable": true, "kernel_regularizer": null, "bias_initializer": {"class_name": "Zeros", "config": {}}, "units": 3, "use_bias": true, "activity_regularizer": null}}, "trainable": true, "name": "time_distributed_59"}, "inbound_nodes": [[["lstm_59", 0, 0, {}]]], "name": "time_distributed_59"}, {"class_name": "TimeDistributed", "config": {"layer": {"class_name": "Dense", "config": {"kernel_initializer": {"class_name": "VarianceScaling", "config": {"distribution": "uniform", "scale": 1.0, "seed": null, "mode": "fan_avg"}}, "name": "dense_62", "kernel_constraint": null, "bias_regularizer": null, "bias_constraint": null, "activation": "relu", "trainable": true, "kernel_regularizer": null, "bias_initializer": {"class_name": "Zeros", "config": {}}, "units": 3, "use_bias": true, "activity_regularizer": null}}, "trainable": true, "name": "time_distributed_60"}, "inbound_nodes": [[["lstm_60", 0, 0, {}]]], "name": "time_distributed_60"}, {"class_name": "TimeDistributed", "config": {"layer": {"class_name": "Dense", "config": {"kernel_initializer": {"class_name": "VarianceScaling", "config": {"distribution": "uniform", "scale": 1.0, "seed": null, "mode": "fan_avg"}}, "name": "dense_63", "kernel_constraint": null, "bias_regularizer": null, "bias_constraint": null, "activation": "relu", "trainable": true, "kernel_regularizer": null, "bias_initializer": {"class_name": "Zeros", "config": {}}, "units": 3, "use_bias": true, "activity_regularizer": null}}, "trainable": true, "name": "time_distributed_61"}, "inbound_nodes": [[["lstm_61", 0, 0, {}]]], "name": "time_distributed_61"}, {"class_name": "TimeDistributed", "config": {"layer": {"class_name": "Dense", "config": {"kernel_initializer": {"class_name": "VarianceScaling", "config": {"distribution": "uniform", "scale": 1.0, "seed": null, "mode": "fan_avg"}}, "name": "dense_64", "kernel_constraint": null, "bias_regularizer": null, "bias_constraint": null, "activation": "relu", "trainable": true, "kernel_regularizer": null, "bias_initializer": {"class_name": "Zeros", "config": {}}, "units": 3, "use_bias": true, "activity_regularizer": null}}, "trainable": true, "name": "time_distributed_62"}, "inbound_nodes": [[["lstm_62", 0, 0, {}]]], "name": "time_distributed_62"}, {"class_name": "TimeDistributed", "config": {"layer": {"class_name": "Dense", "config": {"kernel_initializer": {"class_name": "VarianceScaling", "config": {"distribution": "uniform", "scale": 1.0, "seed": null, "mode": "fan_avg"}}, "name": "dense_65", "kernel_constraint": null, "bias_regularizer": null, "bias_constraint": null, "activation": "relu", "trainable": true, "kernel_regularizer": null, "bias_initializer": {"class_name": "Zeros", "config": {}}, "units": 3, "use_bias": true, "activity_regularizer": null}}, "trainable": true, "name": "time_distributed_63"}, "inbound_nodes": [[["lstm_63", 0, 0, {}]]], "name": "time_distributed_63"}, {"class_name": "TimeDistributed", "config": {"layer": {"class_name": "Dense", "config": {"kernel_initializer": {"class_name": "VarianceScaling", "config": {"distribution": "uniform", "scale": 1.0, "seed": null, "mode": "fan_avg"}}, "name": "dense_66", "kernel_constraint": null, "bias_regularizer": null, "bias_constraint": null, "activation": "relu", "trainable": true, "kernel_regularizer": null, "bias_initializer": {"class_name": "Zeros", "config": {}}, "units": 3, "use_bias": true, "activity_regularizer": null}}, "trainable": true, "name": "time_distributed_64"}, "inbound_nodes": [[["lstm_64", 0, 0, {}]]], "name": "time_distributed_64"}, {"class_name": "TimeDistributed", "config": {"layer": {"class_name": "Dense", "config": {"kernel_initializer": {"class_name": "VarianceScaling", "config": {"distribution": "uniform", "scale": 1.0, "seed": null, "mode": "fan_avg"}}, "name": "dense_67", "kernel_constraint": null, "bias_regularizer": null, "bias_constraint": null, "activation": "relu", "trainable": true, "kernel_regularizer": null, "bias_initializer": {"class_name": "Zeros", "config": {}}, "units": 3, "use_bias": true, "activity_regularizer": null}}, "trainable": true, "name": "time_distributed_65"}, "inbound_nodes": [[["lstm_65", 0, 0, {}]]], "name": "time_distributed_65"}, {"class_name": "TimeDistributed", "config": {"layer": {"class_name": "Dense", "config": {"kernel_initializer": {"class_name": "VarianceScaling", "config": {"distribution": "uniform", "scale": 1.0, "seed": null, "mode": "fan_avg"}}, "name": "dense_68", "kernel_constraint": null, "bias_regularizer": null, "bias_constraint": null, "activation": "relu", "trainable": true, "kernel_regularizer": null, "bias_initializer": {"class_name": "Zeros", "config": {}}, "units": 3, "use_bias": true, "activity_regularizer": null}}, "trainable": true, "name": "time_distributed_66"}, "inbound_nodes": [[["lstm_66", 0, 0, {}]]], "name": "time_distributed_66"}, {"class_name": "TimeDistributed", "config": {"layer": {"class_name": "Dense", "config": {"kernel_initializer": {"class_name": "VarianceScaling", "config": {"distribution": "uniform", "scale": 1.0, "seed": null, "mode": "fan_avg"}}, "name": "dense_69", "kernel_constraint": null, "bias_regularizer": null, "bias_constraint": null, "activation": "relu", "trainable": true, "kernel_regularizer": null, "bias_initializer": {"class_name": "Zeros", "config": {}}, "units": 3, "use_bias": true, "activity_regularizer": null}}, "trainable": true, "name": "time_distributed_67"}, "inbound_nodes": [[["lstm_67", 0, 0, {}]]], "name": "time_distributed_67"}, {"class_name": "TimeDistributed", "config": {"layer": {"class_name": "Dense", "config": {"kernel_initializer": {"class_name": "VarianceScaling", "config": {"distribution": "uniform", "scale": 1.0, "seed": null, "mode": "fan_avg"}}, "name": "dense_70", "kernel_constraint": null, "bias_regularizer": null, "bias_constraint": null, "activation": "relu", "trainable": true, "kernel_regularizer": null, "bias_initializer": {"class_name": "Zeros", "config": {}}, "units": 3, "use_bias": true, "activity_regularizer": null}}, "trainable": true, "name": "time_distributed_68"}, "inbound_nodes": [[["lstm_68", 0, 0, {}]]], "name": "time_distributed_68"}, {"class_name": "TimeDistributed", "config": {"layer": {"class_name": "Dense", "config": {"kernel_initializer": {"class_name": "VarianceScaling", "config": {"distribution": "uniform", "scale": 1.0, "seed": null, "mode": "fan_avg"}}, "name": "dense_71", "kernel_constraint": null, "bias_regularizer": null, "bias_constraint": null, "activation": "relu", "trainable": true, "kernel_regularizer": null, "bias_initializer": {"class_name": "Zeros", "config": {}}, "units": 3, "use_bias": true, "activity_regularizer": null}}, "trainable": true, "name": "time_distributed_69"}, "inbound_nodes": [[["lstm_69", 0, 0, {}]]], "name": "time_distributed_69"}, {"class_name": "TimeDistributed", "config": {"layer": {"class_name": "Dense", "config": {"kernel_initializer": {"class_name": "VarianceScaling", "config": {"distribution": "uniform", "scale": 1.0, "seed": null, "mode": "fan_avg"}}, "name": "dense_72", "kernel_constraint": null, "bias_regularizer": null, "bias_constraint": null, "activation": "relu", "trainable": true, "kernel_regularizer": null, "bias_initializer": {"class_name": "Zeros", "config": {}}, "units": 3, "use_bias": true, "activity_regularizer": null}}, "trainable": true, "name": "time_distributed_70"}, "inbound_nodes": [[["lstm_70", 0, 0, {}]]], "name": "time_distributed_70"}, {"class_name": "TimeDistributed", "config": {"layer": {"class_name": "Dense", "config": {"kernel_initializer": {"class_name": "VarianceScaling", "config": {"distribution": "uniform", "scale": 1.0, "seed": null, "mode": "fan_avg"}}, "name": "dense_73", "kernel_constraint": null, "bias_regularizer": null, "bias_constraint": null, "activation": "relu", "trainable": true, "kernel_regularizer": null, "bias_initializer": {"class_name": "Zeros", "config": {}}, "units": 3, "use_bias": true, "activity_regularizer": null}}, "trainable": true, "name": "time_distributed_71"}, "inbound_nodes": [[["lstm_71", 0, 0, {}]]], "name": "time_distributed_71"}, {"class_name": "TimeDistributed", "config": {"layer": {"class_name": "Dense", "config": {"kernel_initializer": {"class_name": "VarianceScaling", "config": {"distribution": "uniform", "scale": 1.0, "seed": null, "mode": "fan_avg"}}, "name": "dense_74", "kernel_constraint": null, "bias_regularizer": null, "bias_constraint": null, "activation": "relu", "trainable": true, "kernel_regularizer": null, "bias_initializer": {"class_name": "Zeros", "config": {}}, "units": 3, "use_bias": true, "activity_regularizer": null}}, "trainable": true, "name": "time_distributed_72"}, "inbound_nodes": [[["lstm_72", 0, 0, {}]]], "name": "time_distributed_72"}, {"class_name": "TimeDistributed", "config": {"layer": {"class_name": "Dense", "config": {"kernel_initializer": {"class_name": "VarianceScaling", "config": {"distribution": "uniform", "scale": 1.0, "seed": null, "mode": "fan_avg"}}, "name": "dense_75", "kernel_constraint": null, "bias_regularizer": null, "bias_constraint": null, "activation": "relu", "trainable": true, "kernel_regularizer": null, "bias_initializer": {"class_name": "Zeros", "config": {}}, "units": 3, "use_bias": true, "activity_regularizer": null}}, "trainable": true, "name": "time_distributed_73"}, "inbound_nodes": [[["lstm_73", 0, 0, {}]]], "name": "time_distributed_73"}, {"class_name": "TimeDistributed", "config": {"layer": {"class_name": "Dense", "config": {"kernel_initializer": {"class_name": "VarianceScaling", "config": {"distribution": "uniform", "scale": 1.0, "seed": null, "mode": "fan_avg"}}, "name": "dense_76", "kernel_constraint": null, "bias_regularizer": null, "bias_constraint": null, "activation": "relu", "trainable": true, "kernel_regularizer": null, "bias_initializer": {"class_name": "Zeros", "config": {}}, "units": 3, "use_bias": true, "activity_regularizer": null}}, "trainable": true, "name": "time_distributed_74"}, "inbound_nodes": [[["lstm_74", 0, 0, {}]]], "name": "time_distributed_74"}, {"class_name": "TimeDistributed", "config": {"layer": {"class_name": "Dense", "config": {"kernel_initializer": {"class_name": "VarianceScaling", "config": {"distribution": "uniform", "scale": 1.0, "seed": null, "mode": "fan_avg"}}, "name": "dense_77", "kernel_constraint": null, "bias_regularizer": null, "bias_constraint": null, "activation": "relu", "trainable": true, "kernel_regularizer": null, "bias_initializer": {"class_name": "Zeros", "config": {}}, "units": 3, "use_bias": true, "activity_regularizer": null}}, "trainable": true, "name": "time_distributed_75"}, "inbound_nodes": [[["lstm_75", 0, 0, {}]]], "name": "time_distributed_75"}, {"class_name": "TimeDistributed", "config": {"layer": {"class_name": "Dense", "config": {"kernel_initializer": {"class_name": "VarianceScaling", "config": {"distribution": "uniform", "scale": 1.0, "seed": null, "mode": "fan_avg"}}, "name": "dense_78", "kernel_constraint": null, "bias_regularizer": null, "bias_constraint": null, "activation": "relu", "trainable": true, "kernel_regularizer": null, "bias_initializer": {"class_name": "Zeros", "config": {}}, "units": 3, "use_bias": true, "activity_regularizer": null}}, "trainable": true, "name": "time_distributed_76"}, "inbound_nodes": [[["lstm_76", 0, 0, {}]]], "name": "time_distributed_76"}, {"class_name": "TimeDistributed", "config": {"layer": {"class_name": "Dense", "config": {"kernel_initializer": {"class_name": "VarianceScaling", "config": {"distribution": "uniform", "scale": 1.0, "seed": null, "mode": "fan_avg"}}, "name": "dense_79", "kernel_constraint": null, "bias_regularizer": null, "bias_constraint": null, "activation": "relu", "trainable": true, "kernel_regularizer": null, "bias_initializer": {"class_name": "Zeros", "config": {}}, "units": 3, "use_bias": true, "activity_regularizer": null}}, "trainable": true, "name": "time_distributed_77"}, "inbound_nodes": [[["lstm_77", 0, 0, {}]]], "name": "time_distributed_77"}, {"class_name": "TimeDistributed", "config": {"layer": {"class_name": "Dense", "config": {"kernel_initializer": {"class_name": "VarianceScaling", "config": {"distribution": "uniform", "scale": 1.0, "seed": null, "mode": "fan_avg"}}, "name": "dense_80", "kernel_constraint": null, "bias_regularizer": null, "bias_constraint": null, "activation": "relu", "trainable": true, "kernel_regularizer": null, "bias_initializer": {"class_name": "Zeros", "config": {}}, "units": 3, "use_bias": true, "activity_regularizer": null}}, "trainable": true, "name": "time_distributed_78"}, "inbound_nodes": [[["lstm_78", 0, 0, {}]]], "name": "time_distributed_78"}, {"class_name": "TimeDistributed", "config": {"layer": {"class_name": "Dense", "config": {"kernel_initializer": {"class_name": "VarianceScaling", "config": {"distribution": "uniform", "scale": 1.0, "seed": null, "mode": "fan_avg"}}, "name": "dense_81", "kernel_constraint": null, "bias_regularizer": null, "bias_constraint": null, "activation": "relu", "trainable": true, "kernel_regularizer": null, "bias_initializer": {"class_name": "Zeros", "config": {}}, "units": 3, "use_bias": true, "activity_regularizer": null}}, "trainable": true, "name": "time_distributed_79"}, "inbound_nodes": [[["lstm_79", 0, 0, {}]]], "name": "time_distributed_79"}, {"class_name": "TimeDistributed", "config": {"layer": {"class_name": "Dense", "config": {"kernel_initializer": {"class_name": "VarianceScaling", "config": {"distribution": "uniform", "scale": 1.0, "seed": null, "mode": "fan_avg"}}, "name": "dense_82", "kernel_constraint": null, "bias_regularizer": null, "bias_constraint": null, "activation": "relu", "trainable": true, "kernel_regularizer": null, "bias_initializer": {"class_name": "Zeros", "config": {}}, "units": 3, "use_bias": true, "activity_regularizer": null}}, "trainable": true, "name": "time_distributed_80"}, "inbound_nodes": [[["lstm_80", 0, 0, {}]]], "name": "time_distributed_80"}, {"class_name": "TimeDistributed", "config": {"layer": {"class_name": "Dense", "config": {"kernel_initializer": {"class_name": "VarianceScaling", "config": {"distribution": "uniform", "scale": 1.0, "seed": null, "mode": "fan_avg"}}, "name": "dense_83", "kernel_constraint": null, "bias_regularizer": null, "bias_constraint": null, "activation": "relu", "trainable": true, "kernel_regularizer": null, "bias_initializer": {"class_name": "Zeros", "config": {}}, "units": 3, "use_bias": true, "activity_regularizer": null}}, "trainable": true, "name": "time_distributed_81"}, "inbound_nodes": [[["lstm_81", 0, 0, {}]]], "name": "time_distributed_81"}, {"class_name": "TimeDistributed", "config": {"layer": {"class_name": "Dense", "config": {"kernel_initializer": {"class_name": "VarianceScaling", "config": {"distribution": "uniform", "scale": 1.0, "seed": null, "mode": "fan_avg"}}, "name": "dense_84", "kernel_constraint": null, "bias_regularizer": null, "bias_constraint": null, "activation": "relu", "trainable": true, "kernel_regularizer": null, "bias_initializer": {"class_name": "Zeros", "config": {}}, "units": 3, "use_bias": true, "activity_regularizer": null}}, "trainable": true, "name": "time_distributed_82"}, "inbound_nodes": [[["lstm_82", 0, 0, {}]]], "name": "time_distributed_82"}, {"class_name": "TimeDistributed", "config": {"layer": {"class_name": "Dense", "config": {"kernel_initializer": {"class_name": "VarianceScaling", "config": {"distribution": "uniform", "scale": 1.0, "seed": null, "mode": "fan_avg"}}, "name": "dense_85", "kernel_constraint": null, "bias_regularizer": null, "bias_constraint": null, "activation": "relu", "trainable": true, "kernel_regularizer": null, "bias_initializer": {"class_name": "Zeros", "config": {}}, "units": 3, "use_bias": true, "activity_regularizer": null}}, "trainable": true, "name": "time_distributed_83"}, "inbound_nodes": [[["lstm_83", 0, 0, {}]]], "name": "time_distributed_83"}, {"class_name": "TimeDistributed", "config": {"layer": {"class_name": "Dense", "config": {"kernel_initializer": {"class_name": "VarianceScaling", "config": {"distribution": "uniform", "scale": 1.0, "seed": null, "mode": "fan_avg"}}, "name": "dense_86", "kernel_constraint": null, "bias_regularizer": null, "bias_constraint": null, "activation": "relu", "trainable": true, "kernel_regularizer": null, "bias_initializer": {"class_name": "Zeros", "config": {}}, "units": 3, "use_bias": true, "activity_regularizer": null}}, "trainable": true, "name": "time_distributed_84"}, "inbound_nodes": [[["lstm_84", 0, 0, {}]]], "name": "time_distributed_84"}, {"class_name": "TimeDistributed", "config": {"layer": {"class_name": "Dense", "config": {"kernel_initializer": {"class_name": "VarianceScaling", "config": {"distribution": "uniform", "scale": 1.0, "seed": null, "mode": "fan_avg"}}, "name": "dense_87", "kernel_constraint": null, "bias_regularizer": null, "bias_constraint": null, "activation": "relu", "trainable": true, "kernel_regularizer": null, "bias_initializer": {"class_name": "Zeros", "config": {}}, "units": 3, "use_bias": true, "activity_regularizer": null}}, "trainable": true, "name": "time_distributed_85"}, "inbound_nodes": [[["lstm_85", 0, 0, {}]]], "name": "time_distributed_85"}, {"class_name": "TimeDistributed", "config": {"layer": {"class_name": "Dense", "config": {"kernel_initializer": {"class_name": "VarianceScaling", "config": {"distribution": "uniform", "scale": 1.0, "seed": null, "mode": "fan_avg"}}, "name": "dense_88", "kernel_constraint": null, "bias_regularizer": null, "bias_constraint": null, "activation": "relu", "trainable": true, "kernel_regularizer": null, "bias_initializer": {"class_name": "Zeros", "config": {}}, "units": 3, "use_bias": true, "activity_regularizer": null}}, "trainable": true, "name": "time_distributed_86"}, "inbound_nodes": [[["lstm_86", 0, 0, {}]]], "name": "time_distributed_86"}, {"class_name": "TimeDistributed", "config": {"layer": {"class_name": "Dense", "config": {"kernel_initializer": {"class_name": "VarianceScaling", "config": {"distribution": "uniform", "scale": 1.0, "seed": null, "mode": "fan_avg"}}, "name": "dense_89", "kernel_constraint": null, "bias_regularizer": null, "bias_constraint": null, "activation": "relu", "trainable": true, "kernel_regularizer": null, "bias_initializer": {"class_name": "Zeros", "config": {}}, "units": 3, "use_bias": true, "activity_regularizer": null}}, "trainable": true, "name": "time_distributed_87"}, "inbound_nodes": [[["lstm_87", 0, 0, {}]]], "name": "time_distributed_87"}, {"class_name": "TimeDistributed", "config": {"layer": {"class_name": "Dense", "config": {"kernel_initializer": {"class_name": "VarianceScaling", "config": {"distribution": "uniform", "scale": 1.0, "seed": null, "mode": "fan_avg"}}, "name": "dense_90", "kernel_constraint": null, "bias_regularizer": null, "bias_constraint": null, "activation": "relu", "trainable": true, "kernel_regularizer": null, "bias_initializer": {"class_name": "Zeros", "config": {}}, "units": 3, "use_bias": true, "activity_regularizer": null}}, "trainable": true, "name": "time_distributed_88"}, "inbound_nodes": [[["lstm_88", 0, 0, {}]]], "name": "time_distributed_88"}, {"class_name": "TimeDistributed", "config": {"layer": {"class_name": "Dense", "config": {"kernel_initializer": {"class_name": "VarianceScaling", "config": {"distribution": "uniform", "scale": 1.0, "seed": null, "mode": "fan_avg"}}, "name": "dense_91", "kernel_constraint": null, "bias_regularizer": null, "bias_constraint": null, "activation": "relu", "trainable": true, "kernel_regularizer": null, "bias_initializer": {"class_name": "Zeros", "config": {}}, "units": 3, "use_bias": true, "activity_regularizer": null}}, "trainable": true, "name": "time_distributed_89"}, "inbound_nodes": [[["lstm_89", 0, 0, {}]]], "name": "time_distributed_89"}, {"class_name": "TimeDistributed", "config": {"layer": {"class_name": "Dense", "config": {"kernel_initializer": {"class_name": "VarianceScaling", "config": {"distribution": "uniform", "scale": 1.0, "seed": null, "mode": "fan_avg"}}, "name": "dense_92", "kernel_constraint": null, "bias_regularizer": null, "bias_constraint": null, "activation": "relu", "trainable": true, "kernel_regularizer": null, "bias_initializer": {"class_name": "Zeros", "config": {}}, "units": 3, "use_bias": true, "activity_regularizer": null}}, "trainable": true, "name": "time_distributed_90"}, "inbound_nodes": [[["lstm_90", 0, 0, {}]]], "name": "time_distributed_90"}, {"class_name": "TimeDistributed", "config": {"layer": {"class_name": "Dense", "config": {"kernel_initializer": {"class_name": "VarianceScaling", "config": {"distribution": "uniform", "scale": 1.0, "seed": null, "mode": "fan_avg"}}, "name": "dense_93", "kernel_constraint": null, "bias_regularizer": null, "bias_constraint": null, "activation": "relu", "trainable": true, "kernel_regularizer": null, "bias_initializer": {"class_name": "Zeros", "config": {}}, "units": 3, "use_bias": true, "activity_regularizer": null}}, "trainable": true, "name": "time_distributed_91"}, "inbound_nodes": [[["lstm_91", 0, 0, {}]]], "name": "time_distributed_91"}, {"class_name": "TimeDistributed", "config": {"layer": {"class_name": "Dense", "config": {"kernel_initializer": {"class_name": "VarianceScaling", "config": {"distribution": "uniform", "scale": 1.0, "seed": null, "mode": "fan_avg"}}, "name": "dense_94", "kernel_constraint": null, "bias_regularizer": null, "bias_constraint": null, "activation": "relu", "trainable": true, "kernel_regularizer": null, "bias_initializer": {"class_name": "Zeros", "config": {}}, "units": 3, "use_bias": true, "activity_regularizer": null}}, "trainable": true, "name": "time_distributed_92"}, "inbound_nodes": [[["lstm_92", 0, 0, {}]]], "name": "time_distributed_92"}, {"class_name": "TimeDistributed", "config": {"layer": {"class_name": "Dense", "config": {"kernel_initializer": {"class_name": "VarianceScaling", "config": {"distribution": "uniform", "scale": 1.0, "seed": null, "mode": "fan_avg"}}, "name": "dense_95", "kernel_constraint": null, "bias_regularizer": null, "bias_constraint": null, "activation": "relu", "trainable": true, "kernel_regularizer": null, "bias_initializer": {"class_name": "Zeros", "config": {}}, "units": 3, "use_bias": true, "activity_regularizer": null}}, "trainable": true, "name": "time_distributed_93"}, "inbound_nodes": [[["lstm_93", 0, 0, {}]]], "name": "time_distributed_93"}, {"class_name": "TimeDistributed", "config": {"layer": {"class_name": "Dense", "config": {"kernel_initializer": {"class_name": "VarianceScaling", "config": {"distribution": "uniform", "scale": 1.0, "seed": null, "mode": "fan_avg"}}, "name": "dense_96", "kernel_constraint": null, "bias_regularizer": null, "bias_constraint": null, "activation": "relu", "trainable": true, "kernel_regularizer": null, "bias_initializer": {"class_name": "Zeros", "config": {}}, "units": 3, "use_bias": true, "activity_regularizer": null}}, "trainable": true, "name": "time_distributed_94"}, "inbound_nodes": [[["lstm_94", 0, 0, {}]]], "name": "time_distributed_94"}, {"class_name": "TimeDistributed", "config": {"layer": {"class_name": "Dense", "config": {"kernel_initializer": {"class_name": "VarianceScaling", "config": {"distribution": "uniform", "scale": 1.0, "seed": null, "mode": "fan_avg"}}, "name": "dense_97", "kernel_constraint": null, "bias_regularizer": null, "bias_constraint": null, "activation": "relu", "trainable": true, "kernel_regularizer": null, "bias_initializer": {"class_name": "Zeros", "config": {}}, "units": 3, "use_bias": true, "activity_regularizer": null}}, "trainable": true, "name": "time_distributed_95"}, "inbound_nodes": [[["lstm_95", 0, 0, {}]]], "name": "time_distributed_95"}, {"class_name": "TimeDistributed", "config": {"layer": {"class_name": "Dense", "config": {"kernel_initializer": {"class_name": "VarianceScaling", "config": {"distribution": "uniform", "scale": 1.0, "seed": null, "mode": "fan_avg"}}, "name": "dense_98", "kernel_constraint": null, "bias_regularizer": null, "bias_constraint": null, "activation": "relu", "trainable": true, "kernel_regularizer": null, "bias_initializer": {"class_name": "Zeros", "config": {}}, "units": 3, "use_bias": true, "activity_regularizer": null}}, "trainable": true, "name": "time_distributed_96"}, "inbound_nodes": [[["lstm_96", 0, 0, {}]]], "name": "time_distributed_96"}, {"class_name": "TimeDistributed", "config": {"layer": {"class_name": "Dense", "config": {"kernel_initializer": {"class_name": "VarianceScaling", "config": {"distribution": "uniform", "scale": 1.0, "seed": null, "mode": "fan_avg"}}, "name": "dense_99", "kernel_constraint": null, "bias_regularizer": null, "bias_constraint": null, "activation": "relu", "trainable": true, "kernel_regularizer": null, "bias_initializer": {"class_name": "Zeros", "config": {}}, "units": 3, "use_bias": true, "activity_regularizer": null}}, "trainable": true, "name": "time_distributed_97"}, "inbound_nodes": [[["lstm_97", 0, 0, {}]]], "name": "time_distributed_97"}, {"class_name": "TimeDistributed", "config": {"layer": {"class_name": "Dense", "config": {"kernel_initializer": {"class_name": "VarianceScaling", "config": {"distribution": "uniform", "scale": 1.0, "seed": null, "mode": "fan_avg"}}, "name": "dense_100", "kernel_constraint": null, "bias_regularizer": null, "bias_constraint": null, "activation": "relu", "trainable": true, "kernel_regularizer": null, "bias_initializer": {"class_name": "Zeros", "config": {}}, "units": 3, "use_bias": true, "activity_regularizer": null}}, "trainable": true, "name": "time_distributed_98"}, "inbound_nodes": [[["lstm_98", 0, 0, {}]]], "name": "time_distributed_98"}, {"class_name": "TimeDistributed", "config": {"layer": {"class_name": "Dense", "config": {"kernel_initializer": {"class_name": "VarianceScaling", "config": {"distribution": "uniform", "scale": 1.0, "seed": null, "mode": "fan_avg"}}, "name": "dense_101", "kernel_constraint": null, "bias_regularizer": null, "bias_constraint": null, "activation": "relu", "trainable": true, "kernel_regularizer": null, "bias_initializer": {"class_name": "Zeros", "config": {}}, "units": 3, "use_bias": true, "activity_regularizer": null}}, "trainable": true, "name": "time_distributed_99"}, "inbound_nodes": [[["lstm_99", 0, 0, {}]]], "name": "time_distributed_99"}, {"class_name": "TimeDistributed", "config": {"layer": {"class_name": "Dense", "config": {"kernel_initializer": {"class_name": "VarianceScaling", "config": {"distribution": "uniform", "scale": 1.0, "seed": null, "mode": "fan_avg"}}, "name": "dense_102", "kernel_constraint": null, "bias_regularizer": null, "bias_constraint": null, "activation": "relu", "trainable": true, "kernel_regularizer": null, "bias_initializer": {"class_name": "Zeros", "config": {}}, "units": 3, "use_bias": true, "activity_regularizer": null}}, "trainable": true, "name": "time_distributed_100"}, "inbound_nodes": [[["lstm_100", 0, 0, {}]]], "name": "time_distributed_100"}, {"class_name": "Dense", "config": {"kernel_initializer": {"class_name": "VarianceScaling", "config": {"distribution": "uniform", "scale": 1.0, "seed": null, "mode": "fan_avg"}}, "name": "dense_103", "kernel_constraint": null, "bias_regularizer": null, "bias_constraint": null, "activation": "sigmoid", "trainable": true, "kernel_regularizer": null, "bias_initializer": {"class_name": "Zeros", "config": {}}, "units": 1, "use_bias": true, "activity_regularizer": null}, "inbound_nodes": [[["dense_2", 0, 0, {}]]], "name": "dense_103"}], "input_layers": [["input_1", 0, 0], ["input_2", 0, 0], ["input_3", 0, 0], ["input_4", 0, 0], ["input_5", 0, 0], ["input_6", 0, 0], ["input_7", 0, 0], ["input_8", 0, 0], ["input_9", 0, 0], ["input_10", 0, 0], ["input_11", 0, 0], ["input_12", 0, 0], ["input_13", 0, 0], ["input_14", 0, 0], ["input_15", 0, 0], ["input_16", 0, 0], ["input_17", 0, 0], ["input_18", 0, 0], ["input_19", 0, 0], ["input_20", 0, 0], ["input_21", 0, 0], ["input_22", 0, 0], ["input_23", 0, 0], ["input_24", 0, 0], ["input_25", 0, 0], ["input_26", 0, 0], ["input_27", 0, 0], ["input_28", 0, 0], ["input_29", 0, 0], ["input_30", 0, 0], ["input_31", 0, 0], ["input_32", 0, 0], ["input_33", 0, 0], ["input_34", 0, 0], ["input_35", 0, 0], ["input_36", 0, 0], ["input_37", 0, 0], ["input_38", 0, 0], ["input_39", 0, 0], ["input_40", 0, 0], ["input_41", 0, 0], ["input_42", 0, 0], ["input_43", 0, 0], ["input_44", 0, 0], ["input_45", 0, 0], ["input_46", 0, 0], ["input_47", 0, 0], ["input_48", 0, 0], ["input_49", 0, 0], ["input_50", 0, 0], ["input_51", 0, 0], ["input_52", 0, 0], ["input_53", 0, 0], ["input_54", 0, 0], ["input_55", 0, 0], ["input_56", 0, 0], ["input_57", 0, 0], ["input_58", 0, 0], ["input_59", 0, 0], ["input_60", 0, 0], ["input_61", 0, 0], ["input_62", 0, 0], ["input_63", 0, 0], ["input_64", 0, 0], ["input_65", 0, 0], ["input_66", 0, 0], ["input_67", 0, 0], ["input_68", 0, 0], ["input_69", 0, 0], ["input_70", 0, 0], ["input_71", 0, 0], ["input_72", 0, 0], ["input_73", 0, 0], ["input_74", 0, 0], ["input_75", 0, 0], ["input_76", 0, 0], ["input_77", 0, 0], ["input_78", 0, 0], ["input_79", 0, 0], ["input_80", 0, 0], ["input_81", 0, 0], ["input_82", 0, 0], ["input_83", 0, 0], ["input_84", 0, 0], ["input_85", 0, 0], ["input_86", 0, 0], ["input_87", 0, 0], ["input_88", 0, 0], ["input_89", 0, 0], ["input_90", 0, 0], ["input_91", 0, 0], ["input_92", 0, 0], ["input_93", 0, 0], ["input_94", 0, 0], ["input_95", 0, 0], ["input_96", 0, 0], ["input_97", 0, 0], ["input_98", 0, 0], ["input_99", 0, 0], ["input_100", 0, 0], ["input_101", 0, 0]], "output_layers": [["dense_2", 0, 0], ["time_distributed_1", 0, 0], ["time_distributed_2", 0, 0], ["time_distributed_3", 0, 0], ["time_distributed_4", 0, 0], ["time_distributed_5", 0, 0], ["time_distributed_6", 0, 0], ["time_distributed_7", 0, 0], ["time_distributed_8", 0, 0], ["time_distributed_9", 0, 0], ["time_distributed_10", 0, 0], ["time_distributed_11", 0, 0], ["time_distributed_12", 0, 0], ["time_distributed_13", 0, 0], ["time_distributed_14", 0, 0], ["time_distributed_15", 0, 0], ["time_distributed_16", 0, 0], ["time_distributed_17", 0, 0], ["time_distributed_18", 0, 0], ["time_distributed_19", 0, 0], ["time_distributed_20", 0, 0], ["time_distributed_21", 0, 0], ["time_distributed_22", 0, 0], ["time_distributed_23", 0, 0], ["time_distributed_24", 0, 0], ["time_distributed_25", 0, 0], ["time_distributed_26", 0, 0], ["time_distributed_27", 0, 0], ["time_distributed_28", 0, 0], ["time_distributed_29", 0, 0], ["time_distributed_30", 0, 0], ["time_distributed_31", 0, 0], ["time_distributed_32", 0, 0], ["time_distributed_33", 0, 0], ["time_distributed_34", 0, 0], ["time_distributed_35", 0, 0], ["time_distributed_36", 0, 0], ["time_distributed_37", 0, 0], ["time_distributed_38", 0, 0], ["time_distributed_39", 0, 0], ["time_distributed_40", 0, 0], ["time_distributed_41", 0, 0], ["time_distributed_42", 0, 0], ["time_distributed_43", 0, 0], ["time_distributed_44", 0, 0], ["time_distributed_45", 0, 0], ["time_distributed_46", 0, 0], ["time_distributed_47", 0, 0], ["time_distributed_48", 0, 0], ["time_distributed_49", 0, 0], ["time_distributed_50", 0, 0], ["time_distributed_51", 0, 0], ["time_distributed_52", 0, 0], ["time_distributed_53", 0, 0], ["time_distributed_54", 0, 0], ["time_distributed_55", 0, 0], ["time_distributed_56", 0, 0], ["time_distributed_57", 0, 0], ["time_distributed_58", 0, 0], ["time_distributed_59", 0, 0], ["time_distributed_60", 0, 0], ["time_distributed_61", 0, 0], ["time_distributed_62", 0, 0], ["time_distributed_63", 0, 0], ["time_distributed_64", 0, 0], ["time_distributed_65", 0, 0], ["time_distributed_66", 0, 0], ["time_distributed_67", 0, 0], ["time_distributed_68", 0, 0], ["time_distributed_69", 0, 0], ["time_distributed_70", 0, 0], ["time_distributed_71", 0, 0], ["time_distributed_72", 0, 0], ["time_distributed_73", 0, 0], ["time_distributed_74", 0, 0], ["time_distributed_75", 0, 0], ["time_distributed_76", 0, 0], ["time_distributed_77", 0, 0], ["time_distributed_78", 0, 0], ["time_distributed_79", 0, 0], ["time_distributed_80", 0, 0], ["time_distributed_81", 0, 0], ["time_distributed_82", 0, 0], ["time_distributed_83", 0, 0], ["time_distributed_84", 0, 0], ["time_distributed_85", 0, 0], ["time_distributed_86", 0, 0], ["time_distributed_87", 0, 0], ["time_distributed_88", 0, 0], ["time_distributed_89", 0, 0], ["time_distributed_90", 0, 0], ["time_distributed_91", 0, 0], ["time_distributed_92", 0, 0], ["time_distributed_93", 0, 0], ["time_distributed_94", 0, 0], ["time_distributed_95", 0, 0], ["time_distributed_96", 0, 0], ["time_distributed_97", 0, 0], ["time_distributed_98", 0, 0], ["time_distributed_99", 0, 0], ["time_distributed_100", 0, 0], ["dense_103", 0, 0]], "name": "model_1"}, "backend": "theano"}