{"class_name": "Model", "keras_version": "2.0.6", "config": {"layers": [{"class_name": "InputLayer", "config": {"dtype": "float32", "batch_input_shape": [null, 10, 50, 16], "name": "input_1", "sparse": false}, "inbound_nodes": [], "name": "input_1"}, {"class_name": "Conv2D", "config": {"kernel_initializer": {"class_name": "VarianceScaling", "config": {"distribution": "uniform", "scale": 1.0, "seed": null, "mode": "fan_avg"}}, "name": "conv2d_1", "kernel_constraint": null, "bias_regularizer": null, "bias_constraint": null, "dtype": "float32", "activation": "relu", "trainable": true, "data_format": "channels_last", "filters": 32, "padding": "valid", "strides": [1, 1], "dilation_rate": [1, 1], "kernel_regularizer": null, "bias_initializer": {"class_name": "Zeros", "config": {}}, "batch_input_shape": [null, 10, 50, 16], "use_bias": true, "activity_regularizer": null, "kernel_size": [4, 4]}, "inbound_nodes": [[["input_1", 0, 0, {}]]], "name": "conv2d_1"}, {"class_name": "Conv2D", "config": {"kernel_constraint": null, "kernel_initializer": {"class_name": "VarianceScaling", "config": {"distribution": "uniform", "scale": 1.0, "seed": null, "mode": "fan_avg"}}, "name": "conv2d_2", "bias_regularizer": null, "bias_constraint": null, "activation": "relu", "trainable": true, "data_format": "channels_last", "padding": "valid", "strides": [1, 1], "dilation_rate": [1, 1], "kernel_regularizer": null, "filters": 64, "bias_initializer": {"class_name": "Zeros", "config": {}}, "use_bias": true, "activity_regularizer": null, "kernel_size": [2, 2]}, "inbound_nodes": [[["conv2d_1", 0, 0, {}]]], "name": "conv2d_2"}, {"class_name": "Conv2D", "config": {"kernel_constraint": null, "kernel_initializer": {"class_name": "VarianceScaling", "config": {"distribution": "uniform", "scale": 1.0, "seed": null, "mode": "fan_avg"}}, "name": "conv2d_3", "bias_regularizer": null, "bias_constraint": null, "activation": "relu", "trainable": true, "data_format": "channels_last", "padding": "valid", "strides": [1, 1], "dilation_rate": [1, 1], "kernel_regularizer": null, "filters": 64, "bias_initializer": {"class_name": "Zeros", "config": {}}, "use_bias": true, "activity_regularizer": null, "kernel_size": [2, 2]}, "inbound_nodes": [[["conv2d_2", 0, 0, {}]]], "name": "conv2d_3"}, {"class_name": "MaxPooling2D", "config": {"name": "max_pooling2d_1", "trainable": true, "data_format": "channels_last", "pool_size": [3, 3], "padding": "valid", "strides": [3, 3]}, "inbound_nodes": [[["conv2d_3", 0, 0, {}]]], "name": "max_pooling2d_1"}, {"class_name": "Dropout", "config": {"rate": 0.5, "trainable": true, "name": "dropout_1"}, "inbound_nodes": [[["max_pooling2d_1", 0, 0, {}]]], "name": "dropout_1"}, {"class_name": "InputLayer", "config": {"dtype": "float32", "batch_input_shape": [null, 1, 25], "name": "input_2", "sparse": false}, "inbound_nodes": [], "name": "input_2"}, {"class_name": "InputLayer", "config": {"dtype": "float32", "batch_input_shape": [null, 1, 25], "name": "input_3", "sparse": false}, "inbound_nodes": [], "name": "input_3"}, {"class_name": "InputLayer", "config": {"dtype": "float32", "batch_input_shape": [null, 1, 25], "name": "input_4", "sparse": false}, "inbound_nodes": [], "name": "input_4"}, {"class_name": "InputLayer", "config": {"dtype": "float32", "batch_input_shape": [null, 1, 25], "name": "input_5", "sparse": false}, "inbound_nodes": [], "name": "input_5"}, {"class_name": "InputLayer", "config": {"dtype": "float32", "batch_input_shape": [null, 1, 25], "name": "input_6", "sparse": false}, "inbound_nodes": [], "name": "input_6"}, {"class_name": "InputLayer", "config": {"dtype": "float32", "batch_input_shape": [null, 1, 25], "name": "input_7", "sparse": false}, "inbound_nodes": [], "name": "input_7"}, {"class_name": "InputLayer", "config": {"dtype": "float32", "batch_input_shape": [null, 1, 25], "name": "input_8", "sparse": false}, "inbound_nodes": [], "name": "input_8"}, {"class_name": "InputLayer", "config": {"dtype": "float32", "batch_input_shape": [null, 1, 25], "name": "input_9", "sparse": false}, "inbound_nodes": [], "name": "input_9"}, {"class_name": "InputLayer", "config": {"dtype": "float32", "batch_input_shape": [null, 1, 25], "name": "input_10", "sparse": false}, "inbound_nodes": [], "name": "input_10"}, {"class_name": "InputLayer", "config": {"dtype": "float32", "batch_input_shape": [null, 1, 25], "name": "input_11", "sparse": false}, "inbound_nodes": [], "name": "input_11"}, {"class_name": "InputLayer", "config": {"dtype": "float32", "batch_input_shape": [null, 1, 25], "name": "input_12", "sparse": false}, "inbound_nodes": [], "name": "input_12"}, {"class_name": "InputLayer", "config": {"dtype": "float32", "batch_input_shape": [null, 1, 25], "name": "input_13", "sparse": false}, "inbound_nodes": [], "name": "input_13"}, {"class_name": "InputLayer", "config": {"dtype": "float32", "batch_input_shape": [null, 1, 25], "name": "input_14", "sparse": false}, "inbound_nodes": [], "name": "input_14"}, {"class_name": "InputLayer", "config": {"dtype": "float32", "batch_input_shape": [null, 1, 25], "name": "input_15", "sparse": false}, "inbound_nodes": [], "name": "input_15"}, {"class_name": "InputLayer", "config": {"dtype": "float32", "batch_input_shape": [null, 1, 25], "name": "input_16", "sparse": false}, "inbound_nodes": [], "name": "input_16"}, {"class_name": "InputLayer", "config": {"dtype": "float32", "batch_input_shape": [null, 1, 25], "name": "input_17", "sparse": false}, "inbound_nodes": [], "name": "input_17"}, {"class_name": "InputLayer", "config": {"dtype": "float32", "batch_input_shape": [null, 1, 25], "name": "input_18", "sparse": false}, "inbound_nodes": [], "name": "input_18"}, {"class_name": "InputLayer", "config": {"dtype": "float32", "batch_input_shape": [null, 1, 25], "name": "input_19", "sparse": false}, "inbound_nodes": [], "name": "input_19"}, {"class_name": "InputLayer", "config": {"dtype": "float32", "batch_input_shape": [null, 1, 25], "name": "input_20", "sparse": false}, "inbound_nodes": [], "name": "input_20"}, {"class_name": "InputLayer", "config": {"dtype": "float32", "batch_input_shape": [null, 1, 25], "name": "input_21", "sparse": false}, "inbound_nodes": [], "name": "input_21"}, {"class_name": "InputLayer", "config": {"dtype": "float32", "batch_input_shape": [null, 1, 25], "name": "input_22", "sparse": false}, "inbound_nodes": [], "name": "input_22"}, {"class_name": "InputLayer", "config": {"dtype": "float32", "batch_input_shape": [null, 1, 25], "name": "input_23", "sparse": false}, "inbound_nodes": [], "name": "input_23"}, {"class_name": "InputLayer", "config": {"dtype": "float32", "batch_input_shape": [null, 1, 25], "name": "input_24", "sparse": false}, "inbound_nodes": [], "name": "input_24"}, {"class_name": "InputLayer", "config": {"dtype": "float32", "batch_input_shape": [null, 1, 25], "name": "input_25", "sparse": false}, "inbound_nodes": [], "name": "input_25"}, {"class_name": "InputLayer", "config": {"dtype": "float32", "batch_input_shape": [null, 1, 25], "name": "input_26", "sparse": false}, "inbound_nodes": [], "name": "input_26"}, {"class_name": "InputLayer", "config": {"dtype": "float32", "batch_input_shape": [null, 1, 25], "name": "input_27", "sparse": false}, "inbound_nodes": [], "name": "input_27"}, {"class_name": "InputLayer", "config": {"dtype": "float32", "batch_input_shape": [null, 1, 25], "name": "input_28", "sparse": false}, "inbound_nodes": [], "name": "input_28"}, {"class_name": "InputLayer", "config": {"dtype": "float32", "batch_input_shape": [null, 1, 25], "name": "input_29", "sparse": false}, "inbound_nodes": [], "name": "input_29"}, {"class_name": "InputLayer", "config": {"dtype": "float32", "batch_input_shape": [null, 1, 25], "name": "input_30", "sparse": false}, "inbound_nodes": [], "name": "input_30"}, {"class_name": "InputLayer", "config": {"dtype": "float32", "batch_input_shape": [null, 1, 25], "name": "input_31", "sparse": false}, "inbound_nodes": [], "name": "input_31"}, {"class_name": "InputLayer", "config": {"dtype": "float32", "batch_input_shape": [null, 1, 25], "name": "input_32", "sparse": false}, "inbound_nodes": [], "name": "input_32"}, {"class_name": "InputLayer", "config": {"dtype": "float32", "batch_input_shape": [null, 1, 25], "name": "input_33", "sparse": false}, "inbound_nodes": [], "name": "input_33"}, {"class_name": "InputLayer", "config": {"dtype": "float32", "batch_input_shape": [null, 1, 25], "name": "input_34", "sparse": false}, "inbound_nodes": [], "name": "input_34"}, {"class_name": "InputLayer", "config": {"dtype": "float32", "batch_input_shape": [null, 1, 25], "name": "input_35", "sparse": false}, "inbound_nodes": [], "name": "input_35"}, {"class_name": "InputLayer", "config": {"dtype": "float32", "batch_input_shape": [null, 1, 25], "name": "input_36", "sparse": false}, "inbound_nodes": [], "name": "input_36"}, {"class_name": "InputLayer", "config": {"dtype": "float32", "batch_input_shape": [null, 1, 25], "name": "input_37", "sparse": false}, "inbound_nodes": [], "name": "input_37"}, {"class_name": "InputLayer", "config": {"dtype": "float32", "batch_input_shape": [null, 1, 25], "name": "input_38", "sparse": false}, "inbound_nodes": [], "name": "input_38"}, {"class_name": "InputLayer", "config": {"dtype": "float32", "batch_input_shape": [null, 1, 25], "name": "input_39", "sparse": false}, "inbound_nodes": [], "name": "input_39"}, {"class_name": "InputLayer", "config": {"dtype": "float32", "batch_input_shape": [null, 1, 25], "name": "input_40", "sparse": false}, "inbound_nodes": [], "name": "input_40"}, {"class_name": "InputLayer", "config": {"dtype": "float32", "batch_input_shape": [null, 1, 25], "name": "input_41", "sparse": false}, "inbound_nodes": [], "name": "input_41"}, {"class_name": "InputLayer", "config": {"dtype": "float32", "batch_input_shape": [null, 1, 25], "name": "input_42", "sparse": false}, "inbound_nodes": [], "name": "input_42"}, {"class_name": "InputLayer", "config": {"dtype": "float32", "batch_input_shape": [null, 1, 25], "name": "input_43", "sparse": false}, "inbound_nodes": [], "name": "input_43"}, {"class_name": "InputLayer", "config": {"dtype": "float32", "batch_input_shape": [null, 1, 25], "name": "input_44", "sparse": false}, "inbound_nodes": [], "name": "input_44"}, {"class_name": "InputLayer", "config": {"dtype": "float32", "batch_input_shape": [null, 1, 25], "name": "input_45", "sparse": false}, "inbound_nodes": [], "name": "input_45"}, {"class_name": "InputLayer", "config": {"dtype": "float32", "batch_input_shape": [null, 1, 25], "name": "input_46", "sparse": false}, "inbound_nodes": [], "name": "input_46"}, {"class_name": "InputLayer", "config": {"dtype": "float32", "batch_input_shape": [null, 1, 25], "name": "input_47", "sparse": false}, "inbound_nodes": [], "name": "input_47"}, {"class_name": "InputLayer", "config": {"dtype": "float32", "batch_input_shape": [null, 1, 25], "name": "input_48", "sparse": false}, "inbound_nodes": [], "name": "input_48"}, {"class_name": "InputLayer", "config": {"dtype": "float32", "batch_input_shape": [null, 1, 25], "name": "input_49", "sparse": false}, "inbound_nodes": [], "name": "input_49"}, {"class_name": "InputLayer", "config": {"dtype": "float32", "batch_input_shape": [null, 1, 25], "name": "input_50", "sparse": false}, "inbound_nodes": [], "name": "input_50"}, {"class_name": "InputLayer", "config": {"dtype": "float32", "batch_input_shape": [null, 1, 25], "name": "input_51", "sparse": false}, "inbound_nodes": [], "name": "input_51"}, {"class_name": "Flatten", "config": {"trainable": true, "name": "flatten_1"}, "inbound_nodes": [[["dropout_1", 0, 0, {}]]], "name": "flatten_1"}, {"class_name": "Conv1D", "config": {"kernel_constraint": null, "kernel_initializer": {"class_name": "VarianceScaling", "config": {"distribution": "uniform", "scale": 1.0, "seed": null, "mode": "fan_avg"}}, "name": "conv1d_1", "bias_regularizer": null, "bias_constraint": null, "activation": "relu", "trainable": true, "padding": "same", "strides": [1], "dilation_rate": [1], "kernel_regularizer": null, "filters": 32, "bias_initializer": {"class_name": "Zeros", "config": {}}, "use_bias": true, "activity_regularizer": null, "kernel_size": [3]}, "inbound_nodes": [[["input_2", 0, 0, {}]]], "name": "conv1d_1"}, {"class_name": "Conv1D", "config": {"kernel_constraint": null, "kernel_initializer": {"class_name": "VarianceScaling", "config": {"distribution": "uniform", "scale": 1.0, "seed": null, "mode": "fan_avg"}}, "name": "conv1d_2", "bias_regularizer": null, "bias_constraint": null, "activation": "relu", "trainable": true, "padding": "same", "strides": [1], "dilation_rate": [1], "kernel_regularizer": null, "filters": 32, "bias_initializer": {"class_name": "Zeros", "config": {}}, "use_bias": true, "activity_regularizer": null, "kernel_size": [3]}, "inbound_nodes": [[["input_3", 0, 0, {}]]], "name": "conv1d_2"}, {"class_name": "Conv1D", "config": {"kernel_constraint": null, "kernel_initializer": {"class_name": "VarianceScaling", "config": {"distribution": "uniform", "scale": 1.0, "seed": null, "mode": "fan_avg"}}, "name": "conv1d_3", "bias_regularizer": null, "bias_constraint": null, "activation": "relu", "trainable": true, "padding": "same", "strides": [1], "dilation_rate": [1], "kernel_regularizer": null, "filters": 32, "bias_initializer": {"class_name": "Zeros", "config": {}}, "use_bias": true, "activity_regularizer": null, "kernel_size": [3]}, "inbound_nodes": [[["input_4", 0, 0, {}]]], "name": "conv1d_3"}, {"class_name": "Conv1D", "config": {"kernel_constraint": null, "kernel_initializer": {"class_name": "VarianceScaling", "config": {"distribution": "uniform", "scale": 1.0, "seed": null, "mode": "fan_avg"}}, "name": "conv1d_4", "bias_regularizer": null, "bias_constraint": null, "activation": "relu", "trainable": true, "padding": "same", "strides": [1], "dilation_rate": [1], "kernel_regularizer": null, "filters": 32, "bias_initializer": {"class_name": "Zeros", "config": {}}, "use_bias": true, "activity_regularizer": null, "kernel_size": [3]}, "inbound_nodes": [[["input_5", 0, 0, {}]]], "name": "conv1d_4"}, {"class_name": "Conv1D", "config": {"kernel_constraint": null, "kernel_initializer": {"class_name": "VarianceScaling", "config": {"distribution": "uniform", "scale": 1.0, "seed": null, "mode": "fan_avg"}}, "name": "conv1d_5", "bias_regularizer": null, "bias_constraint": null, "activation": "relu", "trainable": true, "padding": "same", "strides": [1], "dilation_rate": [1], "kernel_regularizer": null, "filters": 32, "bias_initializer": {"class_name": "Zeros", "config": {}}, "use_bias": true, "activity_regularizer": null, "kernel_size": [3]}, "inbound_nodes": [[["input_6", 0, 0, {}]]], "name": "conv1d_5"}, {"class_name": "Conv1D", "config": {"kernel_constraint": null, "kernel_initializer": {"class_name": "VarianceScaling", "config": {"distribution": "uniform", "scale": 1.0, "seed": null, "mode": "fan_avg"}}, "name": "conv1d_6", "bias_regularizer": null, "bias_constraint": null, "activation": "relu", "trainable": true, "padding": "same", "strides": [1], "dilation_rate": [1], "kernel_regularizer": null, "filters": 32, "bias_initializer": {"class_name": "Zeros", "config": {}}, "use_bias": true, "activity_regularizer": null, "kernel_size": [3]}, "inbound_nodes": [[["input_7", 0, 0, {}]]], "name": "conv1d_6"}, {"class_name": "Conv1D", "config": {"kernel_constraint": null, "kernel_initializer": {"class_name": "VarianceScaling", "config": {"distribution": "uniform", "scale": 1.0, "seed": null, "mode": "fan_avg"}}, "name": "conv1d_7", "bias_regularizer": null, "bias_constraint": null, "activation": "relu", "trainable": true, "padding": "same", "strides": [1], "dilation_rate": [1], "kernel_regularizer": null, "filters": 32, "bias_initializer": {"class_name": "Zeros", "config": {}}, "use_bias": true, "activity_regularizer": null, "kernel_size": [3]}, "inbound_nodes": [[["input_8", 0, 0, {}]]], "name": "conv1d_7"}, {"class_name": "Conv1D", "config": {"kernel_constraint": null, "kernel_initializer": {"class_name": "VarianceScaling", "config": {"distribution": "uniform", "scale": 1.0, "seed": null, "mode": "fan_avg"}}, "name": "conv1d_8", "bias_regularizer": null, "bias_constraint": null, "activation": "relu", "trainable": true, "padding": "same", "strides": [1], "dilation_rate": [1], "kernel_regularizer": null, "filters": 32, "bias_initializer": {"class_name": "Zeros", "config": {}}, "use_bias": true, "activity_regularizer": null, "kernel_size": [3]}, "inbound_nodes": [[["input_9", 0, 0, {}]]], "name": "conv1d_8"}, {"class_name": "Conv1D", "config": {"kernel_constraint": null, "kernel_initializer": {"class_name": "VarianceScaling", "config": {"distribution": "uniform", "scale": 1.0, "seed": null, "mode": "fan_avg"}}, "name": "conv1d_9", "bias_regularizer": null, "bias_constraint": null, "activation": "relu", "trainable": true, "padding": "same", "strides": [1], "dilation_rate": [1], "kernel_regularizer": null, "filters": 32, "bias_initializer": {"class_name": "Zeros", "config": {}}, "use_bias": true, "activity_regularizer": null, "kernel_size": [3]}, "inbound_nodes": [[["input_10", 0, 0, {}]]], "name": "conv1d_9"}, {"class_name": "Conv1D", "config": {"kernel_constraint": null, "kernel_initializer": {"class_name": "VarianceScaling", "config": {"distribution": "uniform", "scale": 1.0, "seed": null, "mode": "fan_avg"}}, "name": "conv1d_10", "bias_regularizer": null, "bias_constraint": null, "activation": "relu", "trainable": true, "padding": "same", "strides": [1], "dilation_rate": [1], "kernel_regularizer": null, "filters": 32, "bias_initializer": {"class_name": "Zeros", "config": {}}, "use_bias": true, "activity_regularizer": null, "kernel_size": [3]}, "inbound_nodes": [[["input_11", 0, 0, {}]]], "name": "conv1d_10"}, {"class_name": "Conv1D", "config": {"kernel_constraint": null, "kernel_initializer": {"class_name": "VarianceScaling", "config": {"distribution": "uniform", "scale": 1.0, "seed": null, "mode": "fan_avg"}}, "name": "conv1d_11", "bias_regularizer": null, "bias_constraint": null, "activation": "relu", "trainable": true, "padding": "same", "strides": [1], "dilation_rate": [1], "kernel_regularizer": null, "filters": 32, "bias_initializer": {"class_name": "Zeros", "config": {}}, "use_bias": true, "activity_regularizer": null, "kernel_size": [3]}, "inbound_nodes": [[["input_12", 0, 0, {}]]], "name": "conv1d_11"}, {"class_name": "Conv1D", "config": {"kernel_constraint": null, "kernel_initializer": {"class_name": "VarianceScaling", "config": {"distribution": "uniform", "scale": 1.0, "seed": null, "mode": "fan_avg"}}, "name": "conv1d_12", "bias_regularizer": null, "bias_constraint": null, "activation": "relu", "trainable": true, "padding": "same", "strides": [1], "dilation_rate": [1], "kernel_regularizer": null, "filters": 32, "bias_initializer": {"class_name": "Zeros", "config": {}}, "use_bias": true, "activity_regularizer": null, "kernel_size": [3]}, "inbound_nodes": [[["input_13", 0, 0, {}]]], "name": "conv1d_12"}, {"class_name": "Conv1D", "config": {"kernel_constraint": null, "kernel_initializer": {"class_name": "VarianceScaling", "config": {"distribution": "uniform", "scale": 1.0, "seed": null, "mode": "fan_avg"}}, "name": "conv1d_13", "bias_regularizer": null, "bias_constraint": null, "activation": "relu", "trainable": true, "padding": "same", "strides": [1], "dilation_rate": [1], "kernel_regularizer": null, "filters": 32, "bias_initializer": {"class_name": "Zeros", "config": {}}, "use_bias": true, "activity_regularizer": null, "kernel_size": [3]}, "inbound_nodes": [[["input_14", 0, 0, {}]]], "name": "conv1d_13"}, {"class_name": "Conv1D", "config": {"kernel_constraint": null, "kernel_initializer": {"class_name": "VarianceScaling", "config": {"distribution": "uniform", "scale": 1.0, "seed": null, "mode": "fan_avg"}}, "name": "conv1d_14", "bias_regularizer": null, "bias_constraint": null, "activation": "relu", "trainable": true, "padding": "same", "strides": [1], "dilation_rate": [1], "kernel_regularizer": null, "filters": 32, "bias_initializer": {"class_name": "Zeros", "config": {}}, "use_bias": true, "activity_regularizer": null, "kernel_size": [3]}, "inbound_nodes": [[["input_15", 0, 0, {}]]], "name": "conv1d_14"}, {"class_name": "Conv1D", "config": {"kernel_constraint": null, "kernel_initializer": {"class_name": "VarianceScaling", "config": {"distribution": "uniform", "scale": 1.0, "seed": null, "mode": "fan_avg"}}, "name": "conv1d_15", "bias_regularizer": null, "bias_constraint": null, "activation": "relu", "trainable": true, "padding": "same", "strides": [1], "dilation_rate": [1], "kernel_regularizer": null, "filters": 32, "bias_initializer": {"class_name": "Zeros", "config": {}}, "use_bias": true, "activity_regularizer": null, "kernel_size": [3]}, "inbound_nodes": [[["input_16", 0, 0, {}]]], "name": "conv1d_15"}, {"class_name": "Conv1D", "config": {"kernel_constraint": null, "kernel_initializer": {"class_name": "VarianceScaling", "config": {"distribution": "uniform", "scale": 1.0, "seed": null, "mode": "fan_avg"}}, "name": "conv1d_16", "bias_regularizer": null, "bias_constraint": null, "activation": "relu", "trainable": true, "padding": "same", "strides": [1], "dilation_rate": [1], "kernel_regularizer": null, "filters": 32, "bias_initializer": {"class_name": "Zeros", "config": {}}, "use_bias": true, "activity_regularizer": null, "kernel_size": [3]}, "inbound_nodes": [[["input_17", 0, 0, {}]]], "name": "conv1d_16"}, {"class_name": "Conv1D", "config": {"kernel_constraint": null, "kernel_initializer": {"class_name": "VarianceScaling", "config": {"distribution": "uniform", "scale": 1.0, "seed": null, "mode": "fan_avg"}}, "name": "conv1d_17", "bias_regularizer": null, "bias_constraint": null, "activation": "relu", "trainable": true, "padding": "same", "strides": [1], "dilation_rate": [1], "kernel_regularizer": null, "filters": 32, "bias_initializer": {"class_name": "Zeros", "config": {}}, "use_bias": true, "activity_regularizer": null, "kernel_size": [3]}, "inbound_nodes": [[["input_18", 0, 0, {}]]], "name": "conv1d_17"}, {"class_name": "Conv1D", "config": {"kernel_constraint": null, "kernel_initializer": {"class_name": "VarianceScaling", "config": {"distribution": "uniform", "scale": 1.0, "seed": null, "mode": "fan_avg"}}, "name": "conv1d_18", "bias_regularizer": null, "bias_constraint": null, "activation": "relu", "trainable": true, "padding": "same", "strides": [1], "dilation_rate": [1], "kernel_regularizer": null, "filters": 32, "bias_initializer": {"class_name": "Zeros", "config": {}}, "use_bias": true, "activity_regularizer": null, "kernel_size": [3]}, "inbound_nodes": [[["input_19", 0, 0, {}]]], "name": "conv1d_18"}, {"class_name": "Conv1D", "config": {"kernel_constraint": null, "kernel_initializer": {"class_name": "VarianceScaling", "config": {"distribution": "uniform", "scale": 1.0, "seed": null, "mode": "fan_avg"}}, "name": "conv1d_19", "bias_regularizer": null, "bias_constraint": null, "activation": "relu", "trainable": true, "padding": "same", "strides": [1], "dilation_rate": [1], "kernel_regularizer": null, "filters": 32, "bias_initializer": {"class_name": "Zeros", "config": {}}, "use_bias": true, "activity_regularizer": null, "kernel_size": [3]}, "inbound_nodes": [[["input_20", 0, 0, {}]]], "name": "conv1d_19"}, {"class_name": "Conv1D", "config": {"kernel_constraint": null, "kernel_initializer": {"class_name": "VarianceScaling", "config": {"distribution": "uniform", "scale": 1.0, "seed": null, "mode": "fan_avg"}}, "name": "conv1d_20", "bias_regularizer": null, "bias_constraint": null, "activation": "relu", "trainable": true, "padding": "same", "strides": [1], "dilation_rate": [1], "kernel_regularizer": null, "filters": 32, "bias_initializer": {"class_name": "Zeros", "config": {}}, "use_bias": true, "activity_regularizer": null, "kernel_size": [3]}, "inbound_nodes": [[["input_21", 0, 0, {}]]], "name": "conv1d_20"}, {"class_name": "Conv1D", "config": {"kernel_constraint": null, "kernel_initializer": {"class_name": "VarianceScaling", "config": {"distribution": "uniform", "scale": 1.0, "seed": null, "mode": "fan_avg"}}, "name": "conv1d_21", "bias_regularizer": null, "bias_constraint": null, "activation": "relu", "trainable": true, "padding": "same", "strides": [1], "dilation_rate": [1], "kernel_regularizer": null, "filters": 32, "bias_initializer": {"class_name": "Zeros", "config": {}}, "use_bias": true, "activity_regularizer": null, "kernel_size": [3]}, "inbound_nodes": [[["input_22", 0, 0, {}]]], "name": "conv1d_21"}, {"class_name": "Conv1D", "config": {"kernel_constraint": null, "kernel_initializer": {"class_name": "VarianceScaling", "config": {"distribution": "uniform", "scale": 1.0, "seed": null, "mode": "fan_avg"}}, "name": "conv1d_22", "bias_regularizer": null, "bias_constraint": null, "activation": "relu", "trainable": true, "padding": "same", "strides": [1], "dilation_rate": [1], "kernel_regularizer": null, "filters": 32, "bias_initializer": {"class_name": "Zeros", "config": {}}, "use_bias": true, "activity_regularizer": null, "kernel_size": [3]}, "inbound_nodes": [[["input_23", 0, 0, {}]]], "name": "conv1d_22"}, {"class_name": "Conv1D", "config": {"kernel_constraint": null, "kernel_initializer": {"class_name": "VarianceScaling", "config": {"distribution": "uniform", "scale": 1.0, "seed": null, "mode": "fan_avg"}}, "name": "conv1d_23", "bias_regularizer": null, "bias_constraint": null, "activation": "relu", "trainable": true, "padding": "same", "strides": [1], "dilation_rate": [1], "kernel_regularizer": null, "filters": 32, "bias_initializer": {"class_name": "Zeros", "config": {}}, "use_bias": true, "activity_regularizer": null, "kernel_size": [3]}, "inbound_nodes": [[["input_24", 0, 0, {}]]], "name": "conv1d_23"}, {"class_name": "Conv1D", "config": {"kernel_constraint": null, "kernel_initializer": {"class_name": "VarianceScaling", "config": {"distribution": "uniform", "scale": 1.0, "seed": null, "mode": "fan_avg"}}, "name": "conv1d_24", "bias_regularizer": null, "bias_constraint": null, "activation": "relu", "trainable": true, "padding": "same", "strides": [1], "dilation_rate": [1], "kernel_regularizer": null, "filters": 32, "bias_initializer": {"class_name": "Zeros", "config": {}}, "use_bias": true, "activity_regularizer": null, "kernel_size": [3]}, "inbound_nodes": [[["input_25", 0, 0, {}]]], "name": "conv1d_24"}, {"class_name": "Conv1D", "config": {"kernel_constraint": null, "kernel_initializer": {"class_name": "VarianceScaling", "config": {"distribution": "uniform", "scale": 1.0, "seed": null, "mode": "fan_avg"}}, "name": "conv1d_25", "bias_regularizer": null, "bias_constraint": null, "activation": "relu", "trainable": true, "padding": "same", "strides": [1], "dilation_rate": [1], "kernel_regularizer": null, "filters": 32, "bias_initializer": {"class_name": "Zeros", "config": {}}, "use_bias": true, "activity_regularizer": null, "kernel_size": [3]}, "inbound_nodes": [[["input_26", 0, 0, {}]]], "name": "conv1d_25"}, {"class_name": "Conv1D", "config": {"kernel_constraint": null, "kernel_initializer": {"class_name": "VarianceScaling", "config": {"distribution": "uniform", "scale": 1.0, "seed": null, "mode": "fan_avg"}}, "name": "conv1d_26", "bias_regularizer": null, "bias_constraint": null, "activation": "relu", "trainable": true, "padding": "same", "strides": [1], "dilation_rate": [1], "kernel_regularizer": null, "filters": 32, "bias_initializer": {"class_name": "Zeros", "config": {}}, "use_bias": true, "activity_regularizer": null, "kernel_size": [3]}, "inbound_nodes": [[["input_27", 0, 0, {}]]], "name": "conv1d_26"}, {"class_name": "Conv1D", "config": {"kernel_constraint": null, "kernel_initializer": {"class_name": "VarianceScaling", "config": {"distribution": "uniform", "scale": 1.0, "seed": null, "mode": "fan_avg"}}, "name": "conv1d_27", "bias_regularizer": null, "bias_constraint": null, "activation": "relu", "trainable": true, "padding": "same", "strides": [1], "dilation_rate": [1], "kernel_regularizer": null, "filters": 32, "bias_initializer": {"class_name": "Zeros", "config": {}}, "use_bias": true, "activity_regularizer": null, "kernel_size": [3]}, "inbound_nodes": [[["input_28", 0, 0, {}]]], "name": "conv1d_27"}, {"class_name": "Conv1D", "config": {"kernel_constraint": null, "kernel_initializer": {"class_name": "VarianceScaling", "config": {"distribution": "uniform", "scale": 1.0, "seed": null, "mode": "fan_avg"}}, "name": "conv1d_28", "bias_regularizer": null, "bias_constraint": null, "activation": "relu", "trainable": true, "padding": "same", "strides": [1], "dilation_rate": [1], "kernel_regularizer": null, "filters": 32, "bias_initializer": {"class_name": "Zeros", "config": {}}, "use_bias": true, "activity_regularizer": null, "kernel_size": [3]}, "inbound_nodes": [[["input_29", 0, 0, {}]]], "name": "conv1d_28"}, {"class_name": "Conv1D", "config": {"kernel_constraint": null, "kernel_initializer": {"class_name": "VarianceScaling", "config": {"distribution": "uniform", "scale": 1.0, "seed": null, "mode": "fan_avg"}}, "name": "conv1d_29", "bias_regularizer": null, "bias_constraint": null, "activation": "relu", "trainable": true, "padding": "same", "strides": [1], "dilation_rate": [1], "kernel_regularizer": null, "filters": 32, "bias_initializer": {"class_name": "Zeros", "config": {}}, "use_bias": true, "activity_regularizer": null, "kernel_size": [3]}, "inbound_nodes": [[["input_30", 0, 0, {}]]], "name": "conv1d_29"}, {"class_name": "Conv1D", "config": {"kernel_constraint": null, "kernel_initializer": {"class_name": "VarianceScaling", "config": {"distribution": "uniform", "scale": 1.0, "seed": null, "mode": "fan_avg"}}, "name": "conv1d_30", "bias_regularizer": null, "bias_constraint": null, "activation": "relu", "trainable": true, "padding": "same", "strides": [1], "dilation_rate": [1], "kernel_regularizer": null, "filters": 32, "bias_initializer": {"class_name": "Zeros", "config": {}}, "use_bias": true, "activity_regularizer": null, "kernel_size": [3]}, "inbound_nodes": [[["input_31", 0, 0, {}]]], "name": "conv1d_30"}, {"class_name": "Conv1D", "config": {"kernel_constraint": null, "kernel_initializer": {"class_name": "VarianceScaling", "config": {"distribution": "uniform", "scale": 1.0, "seed": null, "mode": "fan_avg"}}, "name": "conv1d_31", "bias_regularizer": null, "bias_constraint": null, "activation": "relu", "trainable": true, "padding": "same", "strides": [1], "dilation_rate": [1], "kernel_regularizer": null, "filters": 32, "bias_initializer": {"class_name": "Zeros", "config": {}}, "use_bias": true, "activity_regularizer": null, "kernel_size": [3]}, "inbound_nodes": [[["input_32", 0, 0, {}]]], "name": "conv1d_31"}, {"class_name": "Conv1D", "config": {"kernel_constraint": null, "kernel_initializer": {"class_name": "VarianceScaling", "config": {"distribution": "uniform", "scale": 1.0, "seed": null, "mode": "fan_avg"}}, "name": "conv1d_32", "bias_regularizer": null, "bias_constraint": null, "activation": "relu", "trainable": true, "padding": "same", "strides": [1], "dilation_rate": [1], "kernel_regularizer": null, "filters": 32, "bias_initializer": {"class_name": "Zeros", "config": {}}, "use_bias": true, "activity_regularizer": null, "kernel_size": [3]}, "inbound_nodes": [[["input_33", 0, 0, {}]]], "name": "conv1d_32"}, {"class_name": "Conv1D", "config": {"kernel_constraint": null, "kernel_initializer": {"class_name": "VarianceScaling", "config": {"distribution": "uniform", "scale": 1.0, "seed": null, "mode": "fan_avg"}}, "name": "conv1d_33", "bias_regularizer": null, "bias_constraint": null, "activation": "relu", "trainable": true, "padding": "same", "strides": [1], "dilation_rate": [1], "kernel_regularizer": null, "filters": 32, "bias_initializer": {"class_name": "Zeros", "config": {}}, "use_bias": true, "activity_regularizer": null, "kernel_size": [3]}, "inbound_nodes": [[["input_34", 0, 0, {}]]], "name": "conv1d_33"}, {"class_name": "Conv1D", "config": {"kernel_constraint": null, "kernel_initializer": {"class_name": "VarianceScaling", "config": {"distribution": "uniform", "scale": 1.0, "seed": null, "mode": "fan_avg"}}, "name": "conv1d_34", "bias_regularizer": null, "bias_constraint": null, "activation": "relu", "trainable": true, "padding": "same", "strides": [1], "dilation_rate": [1], "kernel_regularizer": null, "filters": 32, "bias_initializer": {"class_name": "Zeros", "config": {}}, "use_bias": true, "activity_regularizer": null, "kernel_size": [3]}, "inbound_nodes": [[["input_35", 0, 0, {}]]], "name": "conv1d_34"}, {"class_name": "Conv1D", "config": {"kernel_constraint": null, "kernel_initializer": {"class_name": "VarianceScaling", "config": {"distribution": "uniform", "scale": 1.0, "seed": null, "mode": "fan_avg"}}, "name": "conv1d_35", "bias_regularizer": null, "bias_constraint": null, "activation": "relu", "trainable": true, "padding": "same", "strides": [1], "dilation_rate": [1], "kernel_regularizer": null, "filters": 32, "bias_initializer": {"class_name": "Zeros", "config": {}}, "use_bias": true, "activity_regularizer": null, "kernel_size": [3]}, "inbound_nodes": [[["input_36", 0, 0, {}]]], "name": "conv1d_35"}, {"class_name": "Conv1D", "config": {"kernel_constraint": null, "kernel_initializer": {"class_name": "VarianceScaling", "config": {"distribution": "uniform", "scale": 1.0, "seed": null, "mode": "fan_avg"}}, "name": "conv1d_36", "bias_regularizer": null, "bias_constraint": null, "activation": "relu", "trainable": true, "padding": "same", "strides": [1], "dilation_rate": [1], "kernel_regularizer": null, "filters": 32, "bias_initializer": {"class_name": "Zeros", "config": {}}, "use_bias": true, "activity_regularizer": null, "kernel_size": [3]}, "inbound_nodes": [[["input_37", 0, 0, {}]]], "name": "conv1d_36"}, {"class_name": "Conv1D", "config": {"kernel_constraint": null, "kernel_initializer": {"class_name": "VarianceScaling", "config": {"distribution": "uniform", "scale": 1.0, "seed": null, "mode": "fan_avg"}}, "name": "conv1d_37", "bias_regularizer": null, "bias_constraint": null, "activation": "relu", "trainable": true, "padding": "same", "strides": [1], "dilation_rate": [1], "kernel_regularizer": null, "filters": 32, "bias_initializer": {"class_name": "Zeros", "config": {}}, "use_bias": true, "activity_regularizer": null, "kernel_size": [3]}, "inbound_nodes": [[["input_38", 0, 0, {}]]], "name": "conv1d_37"}, {"class_name": "Conv1D", "config": {"kernel_constraint": null, "kernel_initializer": {"class_name": "VarianceScaling", "config": {"distribution": "uniform", "scale": 1.0, "seed": null, "mode": "fan_avg"}}, "name": "conv1d_38", "bias_regularizer": null, "bias_constraint": null, "activation": "relu", "trainable": true, "padding": "same", "strides": [1], "dilation_rate": [1], "kernel_regularizer": null, "filters": 32, "bias_initializer": {"class_name": "Zeros", "config": {}}, "use_bias": true, "activity_regularizer": null, "kernel_size": [3]}, "inbound_nodes": [[["input_39", 0, 0, {}]]], "name": "conv1d_38"}, {"class_name": "Conv1D", "config": {"kernel_constraint": null, "kernel_initializer": {"class_name": "VarianceScaling", "config": {"distribution": "uniform", "scale": 1.0, "seed": null, "mode": "fan_avg"}}, "name": "conv1d_39", "bias_regularizer": null, "bias_constraint": null, "activation": "relu", "trainable": true, "padding": "same", "strides": [1], "dilation_rate": [1], "kernel_regularizer": null, "filters": 32, "bias_initializer": {"class_name": "Zeros", "config": {}}, "use_bias": true, "activity_regularizer": null, "kernel_size": [3]}, "inbound_nodes": [[["input_40", 0, 0, {}]]], "name": "conv1d_39"}, {"class_name": "Conv1D", "config": {"kernel_constraint": null, "kernel_initializer": {"class_name": "VarianceScaling", "config": {"distribution": "uniform", "scale": 1.0, "seed": null, "mode": "fan_avg"}}, "name": "conv1d_40", "bias_regularizer": null, "bias_constraint": null, "activation": "relu", "trainable": true, "padding": "same", "strides": [1], "dilation_rate": [1], "kernel_regularizer": null, "filters": 32, "bias_initializer": {"class_name": "Zeros", "config": {}}, "use_bias": true, "activity_regularizer": null, "kernel_size": [3]}, "inbound_nodes": [[["input_41", 0, 0, {}]]], "name": "conv1d_40"}, {"class_name": "Conv1D", "config": {"kernel_constraint": null, "kernel_initializer": {"class_name": "VarianceScaling", "config": {"distribution": "uniform", "scale": 1.0, "seed": null, "mode": "fan_avg"}}, "name": "conv1d_41", "bias_regularizer": null, "bias_constraint": null, "activation": "relu", "trainable": true, "padding": "same", "strides": [1], "dilation_rate": [1], "kernel_regularizer": null, "filters": 32, "bias_initializer": {"class_name": "Zeros", "config": {}}, "use_bias": true, "activity_regularizer": null, "kernel_size": [3]}, "inbound_nodes": [[["input_42", 0, 0, {}]]], "name": "conv1d_41"}, {"class_name": "Conv1D", "config": {"kernel_constraint": null, "kernel_initializer": {"class_name": "VarianceScaling", "config": {"distribution": "uniform", "scale": 1.0, "seed": null, "mode": "fan_avg"}}, "name": "conv1d_42", "bias_regularizer": null, "bias_constraint": null, "activation": "relu", "trainable": true, "padding": "same", "strides": [1], "dilation_rate": [1], "kernel_regularizer": null, "filters": 32, "bias_initializer": {"class_name": "Zeros", "config": {}}, "use_bias": true, "activity_regularizer": null, "kernel_size": [3]}, "inbound_nodes": [[["input_43", 0, 0, {}]]], "name": "conv1d_42"}, {"class_name": "Conv1D", "config": {"kernel_constraint": null, "kernel_initializer": {"class_name": "VarianceScaling", "config": {"distribution": "uniform", "scale": 1.0, "seed": null, "mode": "fan_avg"}}, "name": "conv1d_43", "bias_regularizer": null, "bias_constraint": null, "activation": "relu", "trainable": true, "padding": "same", "strides": [1], "dilation_rate": [1], "kernel_regularizer": null, "filters": 32, "bias_initializer": {"class_name": "Zeros", "config": {}}, "use_bias": true, "activity_regularizer": null, "kernel_size": [3]}, "inbound_nodes": [[["input_44", 0, 0, {}]]], "name": "conv1d_43"}, {"class_name": "Conv1D", "config": {"kernel_constraint": null, "kernel_initializer": {"class_name": "VarianceScaling", "config": {"distribution": "uniform", "scale": 1.0, "seed": null, "mode": "fan_avg"}}, "name": "conv1d_44", "bias_regularizer": null, "bias_constraint": null, "activation": "relu", "trainable": true, "padding": "same", "strides": [1], "dilation_rate": [1], "kernel_regularizer": null, "filters": 32, "bias_initializer": {"class_name": "Zeros", "config": {}}, "use_bias": true, "activity_regularizer": null, "kernel_size": [3]}, "inbound_nodes": [[["input_45", 0, 0, {}]]], "name": "conv1d_44"}, {"class_name": "Conv1D", "config": {"kernel_constraint": null, "kernel_initializer": {"class_name": "VarianceScaling", "config": {"distribution": "uniform", "scale": 1.0, "seed": null, "mode": "fan_avg"}}, "name": "conv1d_45", "bias_regularizer": null, "bias_constraint": null, "activation": "relu", "trainable": true, "padding": "same", "strides": [1], "dilation_rate": [1], "kernel_regularizer": null, "filters": 32, "bias_initializer": {"class_name": "Zeros", "config": {}}, "use_bias": true, "activity_regularizer": null, "kernel_size": [3]}, "inbound_nodes": [[["input_46", 0, 0, {}]]], "name": "conv1d_45"}, {"class_name": "Conv1D", "config": {"kernel_constraint": null, "kernel_initializer": {"class_name": "VarianceScaling", "config": {"distribution": "uniform", "scale": 1.0, "seed": null, "mode": "fan_avg"}}, "name": "conv1d_46", "bias_regularizer": null, "bias_constraint": null, "activation": "relu", "trainable": true, "padding": "same", "strides": [1], "dilation_rate": [1], "kernel_regularizer": null, "filters": 32, "bias_initializer": {"class_name": "Zeros", "config": {}}, "use_bias": true, "activity_regularizer": null, "kernel_size": [3]}, "inbound_nodes": [[["input_47", 0, 0, {}]]], "name": "conv1d_46"}, {"class_name": "Conv1D", "config": {"kernel_constraint": null, "kernel_initializer": {"class_name": "VarianceScaling", "config": {"distribution": "uniform", "scale": 1.0, "seed": null, "mode": "fan_avg"}}, "name": "conv1d_47", "bias_regularizer": null, "bias_constraint": null, "activation": "relu", "trainable": true, "padding": "same", "strides": [1], "dilation_rate": [1], "kernel_regularizer": null, "filters": 32, "bias_initializer": {"class_name": "Zeros", "config": {}}, "use_bias": true, "activity_regularizer": null, "kernel_size": [3]}, "inbound_nodes": [[["input_48", 0, 0, {}]]], "name": "conv1d_47"}, {"class_name": "Conv1D", "config": {"kernel_constraint": null, "kernel_initializer": {"class_name": "VarianceScaling", "config": {"distribution": "uniform", "scale": 1.0, "seed": null, "mode": "fan_avg"}}, "name": "conv1d_48", "bias_regularizer": null, "bias_constraint": null, "activation": "relu", "trainable": true, "padding": "same", "strides": [1], "dilation_rate": [1], "kernel_regularizer": null, "filters": 32, "bias_initializer": {"class_name": "Zeros", "config": {}}, "use_bias": true, "activity_regularizer": null, "kernel_size": [3]}, "inbound_nodes": [[["input_49", 0, 0, {}]]], "name": "conv1d_48"}, {"class_name": "Conv1D", "config": {"kernel_constraint": null, "kernel_initializer": {"class_name": "VarianceScaling", "config": {"distribution": "uniform", "scale": 1.0, "seed": null, "mode": "fan_avg"}}, "name": "conv1d_49", "bias_regularizer": null, "bias_constraint": null, "activation": "relu", "trainable": true, "padding": "same", "strides": [1], "dilation_rate": [1], "kernel_regularizer": null, "filters": 32, "bias_initializer": {"class_name": "Zeros", "config": {}}, "use_bias": true, "activity_regularizer": null, "kernel_size": [3]}, "inbound_nodes": [[["input_50", 0, 0, {}]]], "name": "conv1d_49"}, {"class_name": "Conv1D", "config": {"kernel_constraint": null, "kernel_initializer": {"class_name": "VarianceScaling", "config": {"distribution": "uniform", "scale": 1.0, "seed": null, "mode": "fan_avg"}}, "name": "conv1d_50", "bias_regularizer": null, "bias_constraint": null, "activation": "relu", "trainable": true, "padding": "same", "strides": [1], "dilation_rate": [1], "kernel_regularizer": null, "filters": 32, "bias_initializer": {"class_name": "Zeros", "config": {}}, "use_bias": true, "activity_regularizer": null, "kernel_size": [3]}, "inbound_nodes": [[["input_51", 0, 0, {}]]], "name": "conv1d_50"}, {"class_name": "Dense", "config": {"kernel_initializer": {"class_name": "VarianceScaling", "config": {"distribution": "uniform", "scale": 1.0, "seed": null, "mode": "fan_avg"}}, "name": "dense_1", "kernel_constraint": null, "bias_regularizer": null, "bias_constraint": null, "activation": "relu", "trainable": true, "kernel_regularizer": null, "bias_initializer": {"class_name": "Zeros", "config": {}}, "units": 128, "use_bias": true, "activity_regularizer": null}, "inbound_nodes": [[["flatten_1", 0, 0, {}]]], "name": "dense_1"}, {"class_name": "LSTM", "config": {"recurrent_activation": "hard_sigmoid", "trainable": true, "recurrent_initializer": {"class_name": "Orthogonal", "config": {"seed": null, "gain": 1.0}}, "use_bias": true, "bias_regularizer": null, "return_state": false, "unroll": false, "activation": "relu", "bias_initializer": {"class_name": "Zeros", "config": {}}, "units": 20, "unit_forget_bias": true, "activity_regularizer": null, "recurrent_dropout": 0.2, "kernel_initializer": {"class_name": "VarianceScaling", "config": {"distribution": "uniform", "scale": 1.0, "seed": null, "mode": "fan_avg"}}, "kernel_constraint": null, "dropout": 0.2, "stateful": false, "recurrent_regularizer": null, "name": "lstm_1", "bias_constraint": null, "go_backwards": false, "implementation": 0, "kernel_regularizer": null, "return_sequences": true, "recurrent_constraint": null}, "inbound_nodes": [[["conv1d_1", 0, 0, {}]]], "name": "lstm_1"}, {"class_name": "LSTM", "config": {"recurrent_activation": "hard_sigmoid", "trainable": true, "recurrent_initializer": {"class_name": "Orthogonal", "config": {"seed": null, "gain": 1.0}}, "use_bias": true, "bias_regularizer": null, "return_state": false, "unroll": false, "activation": "relu", "bias_initializer": {"class_name": "Zeros", "config": {}}, "units": 20, "unit_forget_bias": true, "activity_regularizer": null, "recurrent_dropout": 0.2, "kernel_initializer": {"class_name": "VarianceScaling", "config": {"distribution": "uniform", "scale": 1.0, "seed": null, "mode": "fan_avg"}}, "kernel_constraint": null, "dropout": 0.2, "stateful": false, "recurrent_regularizer": null, "name": "lstm_2", "bias_constraint": null, "go_backwards": false, "implementation": 0, "kernel_regularizer": null, "return_sequences": true, "recurrent_constraint": null}, "inbound_nodes": [[["conv1d_2", 0, 0, {}]]], "name": "lstm_2"}, {"class_name": "LSTM", "config": {"recurrent_activation": "hard_sigmoid", "trainable": true, "recurrent_initializer": {"class_name": "Orthogonal", "config": {"seed": null, "gain": 1.0}}, "use_bias": true, "bias_regularizer": null, "return_state": false, "unroll": false, "activation": "relu", "bias_initializer": {"class_name": "Zeros", "config": {}}, "units": 20, "unit_forget_bias": true, "activity_regularizer": null, "recurrent_dropout": 0.2, "kernel_initializer": {"class_name": "VarianceScaling", "config": {"distribution": "uniform", "scale": 1.0, "seed": null, "mode": "fan_avg"}}, "kernel_constraint": null, "dropout": 0.2, "stateful": false, "recurrent_regularizer": null, "name": "lstm_3", "bias_constraint": null, "go_backwards": false, "implementation": 0, "kernel_regularizer": null, "return_sequences": true, "recurrent_constraint": null}, "inbound_nodes": [[["conv1d_3", 0, 0, {}]]], "name": "lstm_3"}, {"class_name": "LSTM", "config": {"recurrent_activation": "hard_sigmoid", "trainable": true, "recurrent_initializer": {"class_name": "Orthogonal", "config": {"seed": null, "gain": 1.0}}, "use_bias": true, "bias_regularizer": null, "return_state": false, "unroll": false, "activation": "relu", "bias_initializer": {"class_name": "Zeros", "config": {}}, "units": 20, "unit_forget_bias": true, "activity_regularizer": null, "recurrent_dropout": 0.2, "kernel_initializer": {"class_name": "VarianceScaling", "config": {"distribution": "uniform", "scale": 1.0, "seed": null, "mode": "fan_avg"}}, "kernel_constraint": null, "dropout": 0.2, "stateful": false, "recurrent_regularizer": null, "name": "lstm_4", "bias_constraint": null, "go_backwards": false, "implementation": 0, "kernel_regularizer": null, "return_sequences": true, "recurrent_constraint": null}, "inbound_nodes": [[["conv1d_4", 0, 0, {}]]], "name": "lstm_4"}, {"class_name": "LSTM", "config": {"recurrent_activation": "hard_sigmoid", "trainable": true, "recurrent_initializer": {"class_name": "Orthogonal", "config": {"seed": null, "gain": 1.0}}, "use_bias": true, "bias_regularizer": null, "return_state": false, "unroll": false, "activation": "relu", "bias_initializer": {"class_name": "Zeros", "config": {}}, "units": 20, "unit_forget_bias": true, "activity_regularizer": null, "recurrent_dropout": 0.2, "kernel_initializer": {"class_name": "VarianceScaling", "config": {"distribution": "uniform", "scale": 1.0, "seed": null, "mode": "fan_avg"}}, "kernel_constraint": null, "dropout": 0.2, "stateful": false, "recurrent_regularizer": null, "name": "lstm_5", "bias_constraint": null, "go_backwards": false, "implementation": 0, "kernel_regularizer": null, "return_sequences": true, "recurrent_constraint": null}, "inbound_nodes": [[["conv1d_5", 0, 0, {}]]], "name": "lstm_5"}, {"class_name": "LSTM", "config": {"recurrent_activation": "hard_sigmoid", "trainable": true, "recurrent_initializer": {"class_name": "Orthogonal", "config": {"seed": null, "gain": 1.0}}, "use_bias": true, "bias_regularizer": null, "return_state": false, "unroll": false, "activation": "relu", "bias_initializer": {"class_name": "Zeros", "config": {}}, "units": 20, "unit_forget_bias": true, "activity_regularizer": null, "recurrent_dropout": 0.2, "kernel_initializer": {"class_name": "VarianceScaling", "config": {"distribution": "uniform", "scale": 1.0, "seed": null, "mode": "fan_avg"}}, "kernel_constraint": null, "dropout": 0.2, "stateful": false, "recurrent_regularizer": null, "name": "lstm_6", "bias_constraint": null, "go_backwards": false, "implementation": 0, "kernel_regularizer": null, "return_sequences": true, "recurrent_constraint": null}, "inbound_nodes": [[["conv1d_6", 0, 0, {}]]], "name": "lstm_6"}, {"class_name": "LSTM", "config": {"recurrent_activation": "hard_sigmoid", "trainable": true, "recurrent_initializer": {"class_name": "Orthogonal", "config": {"seed": null, "gain": 1.0}}, "use_bias": true, "bias_regularizer": null, "return_state": false, "unroll": false, "activation": "relu", "bias_initializer": {"class_name": "Zeros", "config": {}}, "units": 20, "unit_forget_bias": true, "activity_regularizer": null, "recurrent_dropout": 0.2, "kernel_initializer": {"class_name": "VarianceScaling", "config": {"distribution": "uniform", "scale": 1.0, "seed": null, "mode": "fan_avg"}}, "kernel_constraint": null, "dropout": 0.2, "stateful": false, "recurrent_regularizer": null, "name": "lstm_7", "bias_constraint": null, "go_backwards": false, "implementation": 0, "kernel_regularizer": null, "return_sequences": true, "recurrent_constraint": null}, "inbound_nodes": [[["conv1d_7", 0, 0, {}]]], "name": "lstm_7"}, {"class_name": "LSTM", "config": {"recurrent_activation": "hard_sigmoid", "trainable": true, "recurrent_initializer": {"class_name": "Orthogonal", "config": {"seed": null, "gain": 1.0}}, "use_bias": true, "bias_regularizer": null, "return_state": false, "unroll": false, "activation": "relu", "bias_initializer": {"class_name": "Zeros", "config": {}}, "units": 20, "unit_forget_bias": true, "activity_regularizer": null, "recurrent_dropout": 0.2, "kernel_initializer": {"class_name": "VarianceScaling", "config": {"distribution": "uniform", "scale": 1.0, "seed": null, "mode": "fan_avg"}}, "kernel_constraint": null, "dropout": 0.2, "stateful": false, "recurrent_regularizer": null, "name": "lstm_8", "bias_constraint": null, "go_backwards": false, "implementation": 0, "kernel_regularizer": null, "return_sequences": true, "recurrent_constraint": null}, "inbound_nodes": [[["conv1d_8", 0, 0, {}]]], "name": "lstm_8"}, {"class_name": "LSTM", "config": {"recurrent_activation": "hard_sigmoid", "trainable": true, "recurrent_initializer": {"class_name": "Orthogonal", "config": {"seed": null, "gain": 1.0}}, "use_bias": true, "bias_regularizer": null, "return_state": false, "unroll": false, "activation": "relu", "bias_initializer": {"class_name": "Zeros", "config": {}}, "units": 20, "unit_forget_bias": true, "activity_regularizer": null, "recurrent_dropout": 0.2, "kernel_initializer": {"class_name": "VarianceScaling", "config": {"distribution": "uniform", "scale": 1.0, "seed": null, "mode": "fan_avg"}}, "kernel_constraint": null, "dropout": 0.2, "stateful": false, "recurrent_regularizer": null, "name": "lstm_9", "bias_constraint": null, "go_backwards": false, "implementation": 0, "kernel_regularizer": null, "return_sequences": true, "recurrent_constraint": null}, "inbound_nodes": [[["conv1d_9", 0, 0, {}]]], "name": "lstm_9"}, {"class_name": "LSTM", "config": {"recurrent_activation": "hard_sigmoid", "trainable": true, "recurrent_initializer": {"class_name": "Orthogonal", "config": {"seed": null, "gain": 1.0}}, "use_bias": true, "bias_regularizer": null, "return_state": false, "unroll": false, "activation": "relu", "bias_initializer": {"class_name": "Zeros", "config": {}}, "units": 20, "unit_forget_bias": true, "activity_regularizer": null, "recurrent_dropout": 0.2, "kernel_initializer": {"class_name": "VarianceScaling", "config": {"distribution": "uniform", "scale": 1.0, "seed": null, "mode": "fan_avg"}}, "kernel_constraint": null, "dropout": 0.2, "stateful": false, "recurrent_regularizer": null, "name": "lstm_10", "bias_constraint": null, "go_backwards": false, "implementation": 0, "kernel_regularizer": null, "return_sequences": true, "recurrent_constraint": null}, "inbound_nodes": [[["conv1d_10", 0, 0, {}]]], "name": "lstm_10"}, {"class_name": "LSTM", "config": {"recurrent_activation": "hard_sigmoid", "trainable": true, "recurrent_initializer": {"class_name": "Orthogonal", "config": {"seed": null, "gain": 1.0}}, "use_bias": true, "bias_regularizer": null, "return_state": false, "unroll": false, "activation": "relu", "bias_initializer": {"class_name": "Zeros", "config": {}}, "units": 20, "unit_forget_bias": true, "activity_regularizer": null, "recurrent_dropout": 0.2, "kernel_initializer": {"class_name": "VarianceScaling", "config": {"distribution": "uniform", "scale": 1.0, "seed": null, "mode": "fan_avg"}}, "kernel_constraint": null, "dropout": 0.2, "stateful": false, "recurrent_regularizer": null, "name": "lstm_11", "bias_constraint": null, "go_backwards": false, "implementation": 0, "kernel_regularizer": null, "return_sequences": true, "recurrent_constraint": null}, "inbound_nodes": [[["conv1d_11", 0, 0, {}]]], "name": "lstm_11"}, {"class_name": "LSTM", "config": {"recurrent_activation": "hard_sigmoid", "trainable": true, "recurrent_initializer": {"class_name": "Orthogonal", "config": {"seed": null, "gain": 1.0}}, "use_bias": true, "bias_regularizer": null, "return_state": false, "unroll": false, "activation": "relu", "bias_initializer": {"class_name": "Zeros", "config": {}}, "units": 20, "unit_forget_bias": true, "activity_regularizer": null, "recurrent_dropout": 0.2, "kernel_initializer": {"class_name": "VarianceScaling", "config": {"distribution": "uniform", "scale": 1.0, "seed": null, "mode": "fan_avg"}}, "kernel_constraint": null, "dropout": 0.2, "stateful": false, "recurrent_regularizer": null, "name": "lstm_12", "bias_constraint": null, "go_backwards": false, "implementation": 0, "kernel_regularizer": null, "return_sequences": true, "recurrent_constraint": null}, "inbound_nodes": [[["conv1d_12", 0, 0, {}]]], "name": "lstm_12"}, {"class_name": "LSTM", "config": {"recurrent_activation": "hard_sigmoid", "trainable": true, "recurrent_initializer": {"class_name": "Orthogonal", "config": {"seed": null, "gain": 1.0}}, "use_bias": true, "bias_regularizer": null, "return_state": false, "unroll": false, "activation": "relu", "bias_initializer": {"class_name": "Zeros", "config": {}}, "units": 20, "unit_forget_bias": true, "activity_regularizer": null, "recurrent_dropout": 0.2, "kernel_initializer": {"class_name": "VarianceScaling", "config": {"distribution": "uniform", "scale": 1.0, "seed": null, "mode": "fan_avg"}}, "kernel_constraint": null, "dropout": 0.2, "stateful": false, "recurrent_regularizer": null, "name": "lstm_13", "bias_constraint": null, "go_backwards": false, "implementation": 0, "kernel_regularizer": null, "return_sequences": true, "recurrent_constraint": null}, "inbound_nodes": [[["conv1d_13", 0, 0, {}]]], "name": "lstm_13"}, {"class_name": "LSTM", "config": {"recurrent_activation": "hard_sigmoid", "trainable": true, "recurrent_initializer": {"class_name": "Orthogonal", "config": {"seed": null, "gain": 1.0}}, "use_bias": true, "bias_regularizer": null, "return_state": false, "unroll": false, "activation": "relu", "bias_initializer": {"class_name": "Zeros", "config": {}}, "units": 20, "unit_forget_bias": true, "activity_regularizer": null, "recurrent_dropout": 0.2, "kernel_initializer": {"class_name": "VarianceScaling", "config": {"distribution": "uniform", "scale": 1.0, "seed": null, "mode": "fan_avg"}}, "kernel_constraint": null, "dropout": 0.2, "stateful": false, "recurrent_regularizer": null, "name": "lstm_14", "bias_constraint": null, "go_backwards": false, "implementation": 0, "kernel_regularizer": null, "return_sequences": true, "recurrent_constraint": null}, "inbound_nodes": [[["conv1d_14", 0, 0, {}]]], "name": "lstm_14"}, {"class_name": "LSTM", "config": {"recurrent_activation": "hard_sigmoid", "trainable": true, "recurrent_initializer": {"class_name": "Orthogonal", "config": {"seed": null, "gain": 1.0}}, "use_bias": true, "bias_regularizer": null, "return_state": false, "unroll": false, "activation": "relu", "bias_initializer": {"class_name": "Zeros", "config": {}}, "units": 20, "unit_forget_bias": true, "activity_regularizer": null, "recurrent_dropout": 0.2, "kernel_initializer": {"class_name": "VarianceScaling", "config": {"distribution": "uniform", "scale": 1.0, "seed": null, "mode": "fan_avg"}}, "kernel_constraint": null, "dropout": 0.2, "stateful": false, "recurrent_regularizer": null, "name": "lstm_15", "bias_constraint": null, "go_backwards": false, "implementation": 0, "kernel_regularizer": null, "return_sequences": true, "recurrent_constraint": null}, "inbound_nodes": [[["conv1d_15", 0, 0, {}]]], "name": "lstm_15"}, {"class_name": "LSTM", "config": {"recurrent_activation": "hard_sigmoid", "trainable": true, "recurrent_initializer": {"class_name": "Orthogonal", "config": {"seed": null, "gain": 1.0}}, "use_bias": true, "bias_regularizer": null, "return_state": false, "unroll": false, "activation": "relu", "bias_initializer": {"class_name": "Zeros", "config": {}}, "units": 20, "unit_forget_bias": true, "activity_regularizer": null, "recurrent_dropout": 0.2, "kernel_initializer": {"class_name": "VarianceScaling", "config": {"distribution": "uniform", "scale": 1.0, "seed": null, "mode": "fan_avg"}}, "kernel_constraint": null, "dropout": 0.2, "stateful": false, "recurrent_regularizer": null, "name": "lstm_16", "bias_constraint": null, "go_backwards": false, "implementation": 0, "kernel_regularizer": null, "return_sequences": true, "recurrent_constraint": null}, "inbound_nodes": [[["conv1d_16", 0, 0, {}]]], "name": "lstm_16"}, {"class_name": "LSTM", "config": {"recurrent_activation": "hard_sigmoid", "trainable": true, "recurrent_initializer": {"class_name": "Orthogonal", "config": {"seed": null, "gain": 1.0}}, "use_bias": true, "bias_regularizer": null, "return_state": false, "unroll": false, "activation": "relu", "bias_initializer": {"class_name": "Zeros", "config": {}}, "units": 20, "unit_forget_bias": true, "activity_regularizer": null, "recurrent_dropout": 0.2, "kernel_initializer": {"class_name": "VarianceScaling", "config": {"distribution": "uniform", "scale": 1.0, "seed": null, "mode": "fan_avg"}}, "kernel_constraint": null, "dropout": 0.2, "stateful": false, "recurrent_regularizer": null, "name": "lstm_17", "bias_constraint": null, "go_backwards": false, "implementation": 0, "kernel_regularizer": null, "return_sequences": true, "recurrent_constraint": null}, "inbound_nodes": [[["conv1d_17", 0, 0, {}]]], "name": "lstm_17"}, {"class_name": "LSTM", "config": {"recurrent_activation": "hard_sigmoid", "trainable": true, "recurrent_initializer": {"class_name": "Orthogonal", "config": {"seed": null, "gain": 1.0}}, "use_bias": true, "bias_regularizer": null, "return_state": false, "unroll": false, "activation": "relu", "bias_initializer": {"class_name": "Zeros", "config": {}}, "units": 20, "unit_forget_bias": true, "activity_regularizer": null, "recurrent_dropout": 0.2, "kernel_initializer": {"class_name": "VarianceScaling", "config": {"distribution": "uniform", "scale": 1.0, "seed": null, "mode": "fan_avg"}}, "kernel_constraint": null, "dropout": 0.2, "stateful": false, "recurrent_regularizer": null, "name": "lstm_18", "bias_constraint": null, "go_backwards": false, "implementation": 0, "kernel_regularizer": null, "return_sequences": true, "recurrent_constraint": null}, "inbound_nodes": [[["conv1d_18", 0, 0, {}]]], "name": "lstm_18"}, {"class_name": "LSTM", "config": {"recurrent_activation": "hard_sigmoid", "trainable": true, "recurrent_initializer": {"class_name": "Orthogonal", "config": {"seed": null, "gain": 1.0}}, "use_bias": true, "bias_regularizer": null, "return_state": false, "unroll": false, "activation": "relu", "bias_initializer": {"class_name": "Zeros", "config": {}}, "units": 20, "unit_forget_bias": true, "activity_regularizer": null, "recurrent_dropout": 0.2, "kernel_initializer": {"class_name": "VarianceScaling", "config": {"distribution": "uniform", "scale": 1.0, "seed": null, "mode": "fan_avg"}}, "kernel_constraint": null, "dropout": 0.2, "stateful": false, "recurrent_regularizer": null, "name": "lstm_19", "bias_constraint": null, "go_backwards": false, "implementation": 0, "kernel_regularizer": null, "return_sequences": true, "recurrent_constraint": null}, "inbound_nodes": [[["conv1d_19", 0, 0, {}]]], "name": "lstm_19"}, {"class_name": "LSTM", "config": {"recurrent_activation": "hard_sigmoid", "trainable": true, "recurrent_initializer": {"class_name": "Orthogonal", "config": {"seed": null, "gain": 1.0}}, "use_bias": true, "bias_regularizer": null, "return_state": false, "unroll": false, "activation": "relu", "bias_initializer": {"class_name": "Zeros", "config": {}}, "units": 20, "unit_forget_bias": true, "activity_regularizer": null, "recurrent_dropout": 0.2, "kernel_initializer": {"class_name": "VarianceScaling", "config": {"distribution": "uniform", "scale": 1.0, "seed": null, "mode": "fan_avg"}}, "kernel_constraint": null, "dropout": 0.2, "stateful": false, "recurrent_regularizer": null, "name": "lstm_20", "bias_constraint": null, "go_backwards": false, "implementation": 0, "kernel_regularizer": null, "return_sequences": true, "recurrent_constraint": null}, "inbound_nodes": [[["conv1d_20", 0, 0, {}]]], "name": "lstm_20"}, {"class_name": "LSTM", "config": {"recurrent_activation": "hard_sigmoid", "trainable": true, "recurrent_initializer": {"class_name": "Orthogonal", "config": {"seed": null, "gain": 1.0}}, "use_bias": true, "bias_regularizer": null, "return_state": false, "unroll": false, "activation": "relu", "bias_initializer": {"class_name": "Zeros", "config": {}}, "units": 20, "unit_forget_bias": true, "activity_regularizer": null, "recurrent_dropout": 0.2, "kernel_initializer": {"class_name": "VarianceScaling", "config": {"distribution": "uniform", "scale": 1.0, "seed": null, "mode": "fan_avg"}}, "kernel_constraint": null, "dropout": 0.2, "stateful": false, "recurrent_regularizer": null, "name": "lstm_21", "bias_constraint": null, "go_backwards": false, "implementation": 0, "kernel_regularizer": null, "return_sequences": true, "recurrent_constraint": null}, "inbound_nodes": [[["conv1d_21", 0, 0, {}]]], "name": "lstm_21"}, {"class_name": "LSTM", "config": {"recurrent_activation": "hard_sigmoid", "trainable": true, "recurrent_initializer": {"class_name": "Orthogonal", "config": {"seed": null, "gain": 1.0}}, "use_bias": true, "bias_regularizer": null, "return_state": false, "unroll": false, "activation": "relu", "bias_initializer": {"class_name": "Zeros", "config": {}}, "units": 20, "unit_forget_bias": true, "activity_regularizer": null, "recurrent_dropout": 0.2, "kernel_initializer": {"class_name": "VarianceScaling", "config": {"distribution": "uniform", "scale": 1.0, "seed": null, "mode": "fan_avg"}}, "kernel_constraint": null, "dropout": 0.2, "stateful": false, "recurrent_regularizer": null, "name": "lstm_22", "bias_constraint": null, "go_backwards": false, "implementation": 0, "kernel_regularizer": null, "return_sequences": true, "recurrent_constraint": null}, "inbound_nodes": [[["conv1d_22", 0, 0, {}]]], "name": "lstm_22"}, {"class_name": "LSTM", "config": {"recurrent_activation": "hard_sigmoid", "trainable": true, "recurrent_initializer": {"class_name": "Orthogonal", "config": {"seed": null, "gain": 1.0}}, "use_bias": true, "bias_regularizer": null, "return_state": false, "unroll": false, "activation": "relu", "bias_initializer": {"class_name": "Zeros", "config": {}}, "units": 20, "unit_forget_bias": true, "activity_regularizer": null, "recurrent_dropout": 0.2, "kernel_initializer": {"class_name": "VarianceScaling", "config": {"distribution": "uniform", "scale": 1.0, "seed": null, "mode": "fan_avg"}}, "kernel_constraint": null, "dropout": 0.2, "stateful": false, "recurrent_regularizer": null, "name": "lstm_23", "bias_constraint": null, "go_backwards": false, "implementation": 0, "kernel_regularizer": null, "return_sequences": true, "recurrent_constraint": null}, "inbound_nodes": [[["conv1d_23", 0, 0, {}]]], "name": "lstm_23"}, {"class_name": "LSTM", "config": {"recurrent_activation": "hard_sigmoid", "trainable": true, "recurrent_initializer": {"class_name": "Orthogonal", "config": {"seed": null, "gain": 1.0}}, "use_bias": true, "bias_regularizer": null, "return_state": false, "unroll": false, "activation": "relu", "bias_initializer": {"class_name": "Zeros", "config": {}}, "units": 20, "unit_forget_bias": true, "activity_regularizer": null, "recurrent_dropout": 0.2, "kernel_initializer": {"class_name": "VarianceScaling", "config": {"distribution": "uniform", "scale": 1.0, "seed": null, "mode": "fan_avg"}}, "kernel_constraint": null, "dropout": 0.2, "stateful": false, "recurrent_regularizer": null, "name": "lstm_24", "bias_constraint": null, "go_backwards": false, "implementation": 0, "kernel_regularizer": null, "return_sequences": true, "recurrent_constraint": null}, "inbound_nodes": [[["conv1d_24", 0, 0, {}]]], "name": "lstm_24"}, {"class_name": "LSTM", "config": {"recurrent_activation": "hard_sigmoid", "trainable": true, "recurrent_initializer": {"class_name": "Orthogonal", "config": {"seed": null, "gain": 1.0}}, "use_bias": true, "bias_regularizer": null, "return_state": false, "unroll": false, "activation": "relu", "bias_initializer": {"class_name": "Zeros", "config": {}}, "units": 20, "unit_forget_bias": true, "activity_regularizer": null, "recurrent_dropout": 0.2, "kernel_initializer": {"class_name": "VarianceScaling", "config": {"distribution": "uniform", "scale": 1.0, "seed": null, "mode": "fan_avg"}}, "kernel_constraint": null, "dropout": 0.2, "stateful": false, "recurrent_regularizer": null, "name": "lstm_25", "bias_constraint": null, "go_backwards": false, "implementation": 0, "kernel_regularizer": null, "return_sequences": true, "recurrent_constraint": null}, "inbound_nodes": [[["conv1d_25", 0, 0, {}]]], "name": "lstm_25"}, {"class_name": "LSTM", "config": {"recurrent_activation": "hard_sigmoid", "trainable": true, "recurrent_initializer": {"class_name": "Orthogonal", "config": {"seed": null, "gain": 1.0}}, "use_bias": true, "bias_regularizer": null, "return_state": false, "unroll": false, "activation": "relu", "bias_initializer": {"class_name": "Zeros", "config": {}}, "units": 20, "unit_forget_bias": true, "activity_regularizer": null, "recurrent_dropout": 0.2, "kernel_initializer": {"class_name": "VarianceScaling", "config": {"distribution": "uniform", "scale": 1.0, "seed": null, "mode": "fan_avg"}}, "kernel_constraint": null, "dropout": 0.2, "stateful": false, "recurrent_regularizer": null, "name": "lstm_26", "bias_constraint": null, "go_backwards": false, "implementation": 0, "kernel_regularizer": null, "return_sequences": true, "recurrent_constraint": null}, "inbound_nodes": [[["conv1d_26", 0, 0, {}]]], "name": "lstm_26"}, {"class_name": "LSTM", "config": {"recurrent_activation": "hard_sigmoid", "trainable": true, "recurrent_initializer": {"class_name": "Orthogonal", "config": {"seed": null, "gain": 1.0}}, "use_bias": true, "bias_regularizer": null, "return_state": false, "unroll": false, "activation": "relu", "bias_initializer": {"class_name": "Zeros", "config": {}}, "units": 20, "unit_forget_bias": true, "activity_regularizer": null, "recurrent_dropout": 0.2, "kernel_initializer": {"class_name": "VarianceScaling", "config": {"distribution": "uniform", "scale": 1.0, "seed": null, "mode": "fan_avg"}}, "kernel_constraint": null, "dropout": 0.2, "stateful": false, "recurrent_regularizer": null, "name": "lstm_27", "bias_constraint": null, "go_backwards": false, "implementation": 0, "kernel_regularizer": null, "return_sequences": true, "recurrent_constraint": null}, "inbound_nodes": [[["conv1d_27", 0, 0, {}]]], "name": "lstm_27"}, {"class_name": "LSTM", "config": {"recurrent_activation": "hard_sigmoid", "trainable": true, "recurrent_initializer": {"class_name": "Orthogonal", "config": {"seed": null, "gain": 1.0}}, "use_bias": true, "bias_regularizer": null, "return_state": false, "unroll": false, "activation": "relu", "bias_initializer": {"class_name": "Zeros", "config": {}}, "units": 20, "unit_forget_bias": true, "activity_regularizer": null, "recurrent_dropout": 0.2, "kernel_initializer": {"class_name": "VarianceScaling", "config": {"distribution": "uniform", "scale": 1.0, "seed": null, "mode": "fan_avg"}}, "kernel_constraint": null, "dropout": 0.2, "stateful": false, "recurrent_regularizer": null, "name": "lstm_28", "bias_constraint": null, "go_backwards": false, "implementation": 0, "kernel_regularizer": null, "return_sequences": true, "recurrent_constraint": null}, "inbound_nodes": [[["conv1d_28", 0, 0, {}]]], "name": "lstm_28"}, {"class_name": "LSTM", "config": {"recurrent_activation": "hard_sigmoid", "trainable": true, "recurrent_initializer": {"class_name": "Orthogonal", "config": {"seed": null, "gain": 1.0}}, "use_bias": true, "bias_regularizer": null, "return_state": false, "unroll": false, "activation": "relu", "bias_initializer": {"class_name": "Zeros", "config": {}}, "units": 20, "unit_forget_bias": true, "activity_regularizer": null, "recurrent_dropout": 0.2, "kernel_initializer": {"class_name": "VarianceScaling", "config": {"distribution": "uniform", "scale": 1.0, "seed": null, "mode": "fan_avg"}}, "kernel_constraint": null, "dropout": 0.2, "stateful": false, "recurrent_regularizer": null, "name": "lstm_29", "bias_constraint": null, "go_backwards": false, "implementation": 0, "kernel_regularizer": null, "return_sequences": true, "recurrent_constraint": null}, "inbound_nodes": [[["conv1d_29", 0, 0, {}]]], "name": "lstm_29"}, {"class_name": "LSTM", "config": {"recurrent_activation": "hard_sigmoid", "trainable": true, "recurrent_initializer": {"class_name": "Orthogonal", "config": {"seed": null, "gain": 1.0}}, "use_bias": true, "bias_regularizer": null, "return_state": false, "unroll": false, "activation": "relu", "bias_initializer": {"class_name": "Zeros", "config": {}}, "units": 20, "unit_forget_bias": true, "activity_regularizer": null, "recurrent_dropout": 0.2, "kernel_initializer": {"class_name": "VarianceScaling", "config": {"distribution": "uniform", "scale": 1.0, "seed": null, "mode": "fan_avg"}}, "kernel_constraint": null, "dropout": 0.2, "stateful": false, "recurrent_regularizer": null, "name": "lstm_30", "bias_constraint": null, "go_backwards": false, "implementation": 0, "kernel_regularizer": null, "return_sequences": true, "recurrent_constraint": null}, "inbound_nodes": [[["conv1d_30", 0, 0, {}]]], "name": "lstm_30"}, {"class_name": "LSTM", "config": {"recurrent_activation": "hard_sigmoid", "trainable": true, "recurrent_initializer": {"class_name": "Orthogonal", "config": {"seed": null, "gain": 1.0}}, "use_bias": true, "bias_regularizer": null, "return_state": false, "unroll": false, "activation": "relu", "bias_initializer": {"class_name": "Zeros", "config": {}}, "units": 20, "unit_forget_bias": true, "activity_regularizer": null, "recurrent_dropout": 0.2, "kernel_initializer": {"class_name": "VarianceScaling", "config": {"distribution": "uniform", "scale": 1.0, "seed": null, "mode": "fan_avg"}}, "kernel_constraint": null, "dropout": 0.2, "stateful": false, "recurrent_regularizer": null, "name": "lstm_31", "bias_constraint": null, "go_backwards": false, "implementation": 0, "kernel_regularizer": null, "return_sequences": true, "recurrent_constraint": null}, "inbound_nodes": [[["conv1d_31", 0, 0, {}]]], "name": "lstm_31"}, {"class_name": "LSTM", "config": {"recurrent_activation": "hard_sigmoid", "trainable": true, "recurrent_initializer": {"class_name": "Orthogonal", "config": {"seed": null, "gain": 1.0}}, "use_bias": true, "bias_regularizer": null, "return_state": false, "unroll": false, "activation": "relu", "bias_initializer": {"class_name": "Zeros", "config": {}}, "units": 20, "unit_forget_bias": true, "activity_regularizer": null, "recurrent_dropout": 0.2, "kernel_initializer": {"class_name": "VarianceScaling", "config": {"distribution": "uniform", "scale": 1.0, "seed": null, "mode": "fan_avg"}}, "kernel_constraint": null, "dropout": 0.2, "stateful": false, "recurrent_regularizer": null, "name": "lstm_32", "bias_constraint": null, "go_backwards": false, "implementation": 0, "kernel_regularizer": null, "return_sequences": true, "recurrent_constraint": null}, "inbound_nodes": [[["conv1d_32", 0, 0, {}]]], "name": "lstm_32"}, {"class_name": "LSTM", "config": {"recurrent_activation": "hard_sigmoid", "trainable": true, "recurrent_initializer": {"class_name": "Orthogonal", "config": {"seed": null, "gain": 1.0}}, "use_bias": true, "bias_regularizer": null, "return_state": false, "unroll": false, "activation": "relu", "bias_initializer": {"class_name": "Zeros", "config": {}}, "units": 20, "unit_forget_bias": true, "activity_regularizer": null, "recurrent_dropout": 0.2, "kernel_initializer": {"class_name": "VarianceScaling", "config": {"distribution": "uniform", "scale": 1.0, "seed": null, "mode": "fan_avg"}}, "kernel_constraint": null, "dropout": 0.2, "stateful": false, "recurrent_regularizer": null, "name": "lstm_33", "bias_constraint": null, "go_backwards": false, "implementation": 0, "kernel_regularizer": null, "return_sequences": true, "recurrent_constraint": null}, "inbound_nodes": [[["conv1d_33", 0, 0, {}]]], "name": "lstm_33"}, {"class_name": "LSTM", "config": {"recurrent_activation": "hard_sigmoid", "trainable": true, "recurrent_initializer": {"class_name": "Orthogonal", "config": {"seed": null, "gain": 1.0}}, "use_bias": true, "bias_regularizer": null, "return_state": false, "unroll": false, "activation": "relu", "bias_initializer": {"class_name": "Zeros", "config": {}}, "units": 20, "unit_forget_bias": true, "activity_regularizer": null, "recurrent_dropout": 0.2, "kernel_initializer": {"class_name": "VarianceScaling", "config": {"distribution": "uniform", "scale": 1.0, "seed": null, "mode": "fan_avg"}}, "kernel_constraint": null, "dropout": 0.2, "stateful": false, "recurrent_regularizer": null, "name": "lstm_34", "bias_constraint": null, "go_backwards": false, "implementation": 0, "kernel_regularizer": null, "return_sequences": true, "recurrent_constraint": null}, "inbound_nodes": [[["conv1d_34", 0, 0, {}]]], "name": "lstm_34"}, {"class_name": "LSTM", "config": {"recurrent_activation": "hard_sigmoid", "trainable": true, "recurrent_initializer": {"class_name": "Orthogonal", "config": {"seed": null, "gain": 1.0}}, "use_bias": true, "bias_regularizer": null, "return_state": false, "unroll": false, "activation": "relu", "bias_initializer": {"class_name": "Zeros", "config": {}}, "units": 20, "unit_forget_bias": true, "activity_regularizer": null, "recurrent_dropout": 0.2, "kernel_initializer": {"class_name": "VarianceScaling", "config": {"distribution": "uniform", "scale": 1.0, "seed": null, "mode": "fan_avg"}}, "kernel_constraint": null, "dropout": 0.2, "stateful": false, "recurrent_regularizer": null, "name": "lstm_35", "bias_constraint": null, "go_backwards": false, "implementation": 0, "kernel_regularizer": null, "return_sequences": true, "recurrent_constraint": null}, "inbound_nodes": [[["conv1d_35", 0, 0, {}]]], "name": "lstm_35"}, {"class_name": "LSTM", "config": {"recurrent_activation": "hard_sigmoid", "trainable": true, "recurrent_initializer": {"class_name": "Orthogonal", "config": {"seed": null, "gain": 1.0}}, "use_bias": true, "bias_regularizer": null, "return_state": false, "unroll": false, "activation": "relu", "bias_initializer": {"class_name": "Zeros", "config": {}}, "units": 20, "unit_forget_bias": true, "activity_regularizer": null, "recurrent_dropout": 0.2, "kernel_initializer": {"class_name": "VarianceScaling", "config": {"distribution": "uniform", "scale": 1.0, "seed": null, "mode": "fan_avg"}}, "kernel_constraint": null, "dropout": 0.2, "stateful": false, "recurrent_regularizer": null, "name": "lstm_36", "bias_constraint": null, "go_backwards": false, "implementation": 0, "kernel_regularizer": null, "return_sequences": true, "recurrent_constraint": null}, "inbound_nodes": [[["conv1d_36", 0, 0, {}]]], "name": "lstm_36"}, {"class_name": "LSTM", "config": {"recurrent_activation": "hard_sigmoid", "trainable": true, "recurrent_initializer": {"class_name": "Orthogonal", "config": {"seed": null, "gain": 1.0}}, "use_bias": true, "bias_regularizer": null, "return_state": false, "unroll": false, "activation": "relu", "bias_initializer": {"class_name": "Zeros", "config": {}}, "units": 20, "unit_forget_bias": true, "activity_regularizer": null, "recurrent_dropout": 0.2, "kernel_initializer": {"class_name": "VarianceScaling", "config": {"distribution": "uniform", "scale": 1.0, "seed": null, "mode": "fan_avg"}}, "kernel_constraint": null, "dropout": 0.2, "stateful": false, "recurrent_regularizer": null, "name": "lstm_37", "bias_constraint": null, "go_backwards": false, "implementation": 0, "kernel_regularizer": null, "return_sequences": true, "recurrent_constraint": null}, "inbound_nodes": [[["conv1d_37", 0, 0, {}]]], "name": "lstm_37"}, {"class_name": "LSTM", "config": {"recurrent_activation": "hard_sigmoid", "trainable": true, "recurrent_initializer": {"class_name": "Orthogonal", "config": {"seed": null, "gain": 1.0}}, "use_bias": true, "bias_regularizer": null, "return_state": false, "unroll": false, "activation": "relu", "bias_initializer": {"class_name": "Zeros", "config": {}}, "units": 20, "unit_forget_bias": true, "activity_regularizer": null, "recurrent_dropout": 0.2, "kernel_initializer": {"class_name": "VarianceScaling", "config": {"distribution": "uniform", "scale": 1.0, "seed": null, "mode": "fan_avg"}}, "kernel_constraint": null, "dropout": 0.2, "stateful": false, "recurrent_regularizer": null, "name": "lstm_38", "bias_constraint": null, "go_backwards": false, "implementation": 0, "kernel_regularizer": null, "return_sequences": true, "recurrent_constraint": null}, "inbound_nodes": [[["conv1d_38", 0, 0, {}]]], "name": "lstm_38"}, {"class_name": "LSTM", "config": {"recurrent_activation": "hard_sigmoid", "trainable": true, "recurrent_initializer": {"class_name": "Orthogonal", "config": {"seed": null, "gain": 1.0}}, "use_bias": true, "bias_regularizer": null, "return_state": false, "unroll": false, "activation": "relu", "bias_initializer": {"class_name": "Zeros", "config": {}}, "units": 20, "unit_forget_bias": true, "activity_regularizer": null, "recurrent_dropout": 0.2, "kernel_initializer": {"class_name": "VarianceScaling", "config": {"distribution": "uniform", "scale": 1.0, "seed": null, "mode": "fan_avg"}}, "kernel_constraint": null, "dropout": 0.2, "stateful": false, "recurrent_regularizer": null, "name": "lstm_39", "bias_constraint": null, "go_backwards": false, "implementation": 0, "kernel_regularizer": null, "return_sequences": true, "recurrent_constraint": null}, "inbound_nodes": [[["conv1d_39", 0, 0, {}]]], "name": "lstm_39"}, {"class_name": "LSTM", "config": {"recurrent_activation": "hard_sigmoid", "trainable": true, "recurrent_initializer": {"class_name": "Orthogonal", "config": {"seed": null, "gain": 1.0}}, "use_bias": true, "bias_regularizer": null, "return_state": false, "unroll": false, "activation": "relu", "bias_initializer": {"class_name": "Zeros", "config": {}}, "units": 20, "unit_forget_bias": true, "activity_regularizer": null, "recurrent_dropout": 0.2, "kernel_initializer": {"class_name": "VarianceScaling", "config": {"distribution": "uniform", "scale": 1.0, "seed": null, "mode": "fan_avg"}}, "kernel_constraint": null, "dropout": 0.2, "stateful": false, "recurrent_regularizer": null, "name": "lstm_40", "bias_constraint": null, "go_backwards": false, "implementation": 0, "kernel_regularizer": null, "return_sequences": true, "recurrent_constraint": null}, "inbound_nodes": [[["conv1d_40", 0, 0, {}]]], "name": "lstm_40"}, {"class_name": "LSTM", "config": {"recurrent_activation": "hard_sigmoid", "trainable": true, "recurrent_initializer": {"class_name": "Orthogonal", "config": {"seed": null, "gain": 1.0}}, "use_bias": true, "bias_regularizer": null, "return_state": false, "unroll": false, "activation": "relu", "bias_initializer": {"class_name": "Zeros", "config": {}}, "units": 20, "unit_forget_bias": true, "activity_regularizer": null, "recurrent_dropout": 0.2, "kernel_initializer": {"class_name": "VarianceScaling", "config": {"distribution": "uniform", "scale": 1.0, "seed": null, "mode": "fan_avg"}}, "kernel_constraint": null, "dropout": 0.2, "stateful": false, "recurrent_regularizer": null, "name": "lstm_41", "bias_constraint": null, "go_backwards": false, "implementation": 0, "kernel_regularizer": null, "return_sequences": true, "recurrent_constraint": null}, "inbound_nodes": [[["conv1d_41", 0, 0, {}]]], "name": "lstm_41"}, {"class_name": "LSTM", "config": {"recurrent_activation": "hard_sigmoid", "trainable": true, "recurrent_initializer": {"class_name": "Orthogonal", "config": {"seed": null, "gain": 1.0}}, "use_bias": true, "bias_regularizer": null, "return_state": false, "unroll": false, "activation": "relu", "bias_initializer": {"class_name": "Zeros", "config": {}}, "units": 20, "unit_forget_bias": true, "activity_regularizer": null, "recurrent_dropout": 0.2, "kernel_initializer": {"class_name": "VarianceScaling", "config": {"distribution": "uniform", "scale": 1.0, "seed": null, "mode": "fan_avg"}}, "kernel_constraint": null, "dropout": 0.2, "stateful": false, "recurrent_regularizer": null, "name": "lstm_42", "bias_constraint": null, "go_backwards": false, "implementation": 0, "kernel_regularizer": null, "return_sequences": true, "recurrent_constraint": null}, "inbound_nodes": [[["conv1d_42", 0, 0, {}]]], "name": "lstm_42"}, {"class_name": "LSTM", "config": {"recurrent_activation": "hard_sigmoid", "trainable": true, "recurrent_initializer": {"class_name": "Orthogonal", "config": {"seed": null, "gain": 1.0}}, "use_bias": true, "bias_regularizer": null, "return_state": false, "unroll": false, "activation": "relu", "bias_initializer": {"class_name": "Zeros", "config": {}}, "units": 20, "unit_forget_bias": true, "activity_regularizer": null, "recurrent_dropout": 0.2, "kernel_initializer": {"class_name": "VarianceScaling", "config": {"distribution": "uniform", "scale": 1.0, "seed": null, "mode": "fan_avg"}}, "kernel_constraint": null, "dropout": 0.2, "stateful": false, "recurrent_regularizer": null, "name": "lstm_43", "bias_constraint": null, "go_backwards": false, "implementation": 0, "kernel_regularizer": null, "return_sequences": true, "recurrent_constraint": null}, "inbound_nodes": [[["conv1d_43", 0, 0, {}]]], "name": "lstm_43"}, {"class_name": "LSTM", "config": {"recurrent_activation": "hard_sigmoid", "trainable": true, "recurrent_initializer": {"class_name": "Orthogonal", "config": {"seed": null, "gain": 1.0}}, "use_bias": true, "bias_regularizer": null, "return_state": false, "unroll": false, "activation": "relu", "bias_initializer": {"class_name": "Zeros", "config": {}}, "units": 20, "unit_forget_bias": true, "activity_regularizer": null, "recurrent_dropout": 0.2, "kernel_initializer": {"class_name": "VarianceScaling", "config": {"distribution": "uniform", "scale": 1.0, "seed": null, "mode": "fan_avg"}}, "kernel_constraint": null, "dropout": 0.2, "stateful": false, "recurrent_regularizer": null, "name": "lstm_44", "bias_constraint": null, "go_backwards": false, "implementation": 0, "kernel_regularizer": null, "return_sequences": true, "recurrent_constraint": null}, "inbound_nodes": [[["conv1d_44", 0, 0, {}]]], "name": "lstm_44"}, {"class_name": "LSTM", "config": {"recurrent_activation": "hard_sigmoid", "trainable": true, "recurrent_initializer": {"class_name": "Orthogonal", "config": {"seed": null, "gain": 1.0}}, "use_bias": true, "bias_regularizer": null, "return_state": false, "unroll": false, "activation": "relu", "bias_initializer": {"class_name": "Zeros", "config": {}}, "units": 20, "unit_forget_bias": true, "activity_regularizer": null, "recurrent_dropout": 0.2, "kernel_initializer": {"class_name": "VarianceScaling", "config": {"distribution": "uniform", "scale": 1.0, "seed": null, "mode": "fan_avg"}}, "kernel_constraint": null, "dropout": 0.2, "stateful": false, "recurrent_regularizer": null, "name": "lstm_45", "bias_constraint": null, "go_backwards": false, "implementation": 0, "kernel_regularizer": null, "return_sequences": true, "recurrent_constraint": null}, "inbound_nodes": [[["conv1d_45", 0, 0, {}]]], "name": "lstm_45"}, {"class_name": "LSTM", "config": {"recurrent_activation": "hard_sigmoid", "trainable": true, "recurrent_initializer": {"class_name": "Orthogonal", "config": {"seed": null, "gain": 1.0}}, "use_bias": true, "bias_regularizer": null, "return_state": false, "unroll": false, "activation": "relu", "bias_initializer": {"class_name": "Zeros", "config": {}}, "units": 20, "unit_forget_bias": true, "activity_regularizer": null, "recurrent_dropout": 0.2, "kernel_initializer": {"class_name": "VarianceScaling", "config": {"distribution": "uniform", "scale": 1.0, "seed": null, "mode": "fan_avg"}}, "kernel_constraint": null, "dropout": 0.2, "stateful": false, "recurrent_regularizer": null, "name": "lstm_46", "bias_constraint": null, "go_backwards": false, "implementation": 0, "kernel_regularizer": null, "return_sequences": true, "recurrent_constraint": null}, "inbound_nodes": [[["conv1d_46", 0, 0, {}]]], "name": "lstm_46"}, {"class_name": "LSTM", "config": {"recurrent_activation": "hard_sigmoid", "trainable": true, "recurrent_initializer": {"class_name": "Orthogonal", "config": {"seed": null, "gain": 1.0}}, "use_bias": true, "bias_regularizer": null, "return_state": false, "unroll": false, "activation": "relu", "bias_initializer": {"class_name": "Zeros", "config": {}}, "units": 20, "unit_forget_bias": true, "activity_regularizer": null, "recurrent_dropout": 0.2, "kernel_initializer": {"class_name": "VarianceScaling", "config": {"distribution": "uniform", "scale": 1.0, "seed": null, "mode": "fan_avg"}}, "kernel_constraint": null, "dropout": 0.2, "stateful": false, "recurrent_regularizer": null, "name": "lstm_47", "bias_constraint": null, "go_backwards": false, "implementation": 0, "kernel_regularizer": null, "return_sequences": true, "recurrent_constraint": null}, "inbound_nodes": [[["conv1d_47", 0, 0, {}]]], "name": "lstm_47"}, {"class_name": "LSTM", "config": {"recurrent_activation": "hard_sigmoid", "trainable": true, "recurrent_initializer": {"class_name": "Orthogonal", "config": {"seed": null, "gain": 1.0}}, "use_bias": true, "bias_regularizer": null, "return_state": false, "unroll": false, "activation": "relu", "bias_initializer": {"class_name": "Zeros", "config": {}}, "units": 20, "unit_forget_bias": true, "activity_regularizer": null, "recurrent_dropout": 0.2, "kernel_initializer": {"class_name": "VarianceScaling", "config": {"distribution": "uniform", "scale": 1.0, "seed": null, "mode": "fan_avg"}}, "kernel_constraint": null, "dropout": 0.2, "stateful": false, "recurrent_regularizer": null, "name": "lstm_48", "bias_constraint": null, "go_backwards": false, "implementation": 0, "kernel_regularizer": null, "return_sequences": true, "recurrent_constraint": null}, "inbound_nodes": [[["conv1d_48", 0, 0, {}]]], "name": "lstm_48"}, {"class_name": "LSTM", "config": {"recurrent_activation": "hard_sigmoid", "trainable": true, "recurrent_initializer": {"class_name": "Orthogonal", "config": {"seed": null, "gain": 1.0}}, "use_bias": true, "bias_regularizer": null, "return_state": false, "unroll": false, "activation": "relu", "bias_initializer": {"class_name": "Zeros", "config": {}}, "units": 20, "unit_forget_bias": true, "activity_regularizer": null, "recurrent_dropout": 0.2, "kernel_initializer": {"class_name": "VarianceScaling", "config": {"distribution": "uniform", "scale": 1.0, "seed": null, "mode": "fan_avg"}}, "kernel_constraint": null, "dropout": 0.2, "stateful": false, "recurrent_regularizer": null, "name": "lstm_49", "bias_constraint": null, "go_backwards": false, "implementation": 0, "kernel_regularizer": null, "return_sequences": true, "recurrent_constraint": null}, "inbound_nodes": [[["conv1d_49", 0, 0, {}]]], "name": "lstm_49"}, {"class_name": "LSTM", "config": {"recurrent_activation": "hard_sigmoid", "trainable": true, "recurrent_initializer": {"class_name": "Orthogonal", "config": {"seed": null, "gain": 1.0}}, "use_bias": true, "bias_regularizer": null, "return_state": false, "unroll": false, "activation": "relu", "bias_initializer": {"class_name": "Zeros", "config": {}}, "units": 20, "unit_forget_bias": true, "activity_regularizer": null, "recurrent_dropout": 0.2, "kernel_initializer": {"class_name": "VarianceScaling", "config": {"distribution": "uniform", "scale": 1.0, "seed": null, "mode": "fan_avg"}}, "kernel_constraint": null, "dropout": 0.2, "stateful": false, "recurrent_regularizer": null, "name": "lstm_50", "bias_constraint": null, "go_backwards": false, "implementation": 0, "kernel_regularizer": null, "return_sequences": true, "recurrent_constraint": null}, "inbound_nodes": [[["conv1d_50", 0, 0, {}]]], "name": "lstm_50"}, {"class_name": "Dense", "config": {"kernel_initializer": {"class_name": "VarianceScaling", "config": {"distribution": "uniform", "scale": 1.0, "seed": null, "mode": "fan_avg"}}, "name": "dense_2", "kernel_constraint": null, "bias_regularizer": null, "bias_constraint": null, "activation": "relu", "trainable": true, "kernel_regularizer": null, "bias_initializer": {"class_name": "Zeros", "config": {}}, "units": 150, "use_bias": true, "activity_regularizer": null}, "inbound_nodes": [[["dense_1", 0, 0, {}]]], "name": "dense_2"}, {"class_name": "TimeDistributed", "config": {"layer": {"class_name": "Dense", "config": {"kernel_initializer": {"class_name": "VarianceScaling", "config": {"distribution": "uniform", "scale": 1.0, "seed": null, "mode": "fan_avg"}}, "name": "dense_3", "kernel_constraint": null, "bias_regularizer": null, "bias_constraint": null, "activation": "relu", "trainable": true, "kernel_regularizer": null, "bias_initializer": {"class_name": "Zeros", "config": {}}, "units": 3, "use_bias": true, "activity_regularizer": null}}, "trainable": true, "name": "time_distributed_1"}, "inbound_nodes": [[["lstm_1", 0, 0, {}]]], "name": "time_distributed_1"}, {"class_name": "TimeDistributed", "config": {"layer": {"class_name": "Dense", "config": {"kernel_initializer": {"class_name": "VarianceScaling", "config": {"distribution": "uniform", "scale": 1.0, "seed": null, "mode": "fan_avg"}}, "name": "dense_4", "kernel_constraint": null, "bias_regularizer": null, "bias_constraint": null, "activation": "relu", "trainable": true, "kernel_regularizer": null, "bias_initializer": {"class_name": "Zeros", "config": {}}, "units": 3, "use_bias": true, "activity_regularizer": null}}, "trainable": true, "name": "time_distributed_2"}, "inbound_nodes": [[["lstm_2", 0, 0, {}]]], "name": "time_distributed_2"}, {"class_name": "TimeDistributed", "config": {"layer": {"class_name": "Dense", "config": {"kernel_initializer": {"class_name": "VarianceScaling", "config": {"distribution": "uniform", "scale": 1.0, "seed": null, "mode": "fan_avg"}}, "name": "dense_5", "kernel_constraint": null, "bias_regularizer": null, "bias_constraint": null, "activation": "relu", "trainable": true, "kernel_regularizer": null, "bias_initializer": {"class_name": "Zeros", "config": {}}, "units": 3, "use_bias": true, "activity_regularizer": null}}, "trainable": true, "name": "time_distributed_3"}, "inbound_nodes": [[["lstm_3", 0, 0, {}]]], "name": "time_distributed_3"}, {"class_name": "TimeDistributed", "config": {"layer": {"class_name": "Dense", "config": {"kernel_initializer": {"class_name": "VarianceScaling", "config": {"distribution": "uniform", "scale": 1.0, "seed": null, "mode": "fan_avg"}}, "name": "dense_6", "kernel_constraint": null, "bias_regularizer": null, "bias_constraint": null, "activation": "relu", "trainable": true, "kernel_regularizer": null, "bias_initializer": {"class_name": "Zeros", "config": {}}, "units": 3, "use_bias": true, "activity_regularizer": null}}, "trainable": true, "name": "time_distributed_4"}, "inbound_nodes": [[["lstm_4", 0, 0, {}]]], "name": "time_distributed_4"}, {"class_name": "TimeDistributed", "config": {"layer": {"class_name": "Dense", "config": {"kernel_initializer": {"class_name": "VarianceScaling", "config": {"distribution": "uniform", "scale": 1.0, "seed": null, "mode": "fan_avg"}}, "name": "dense_7", "kernel_constraint": null, "bias_regularizer": null, "bias_constraint": null, "activation": "relu", "trainable": true, "kernel_regularizer": null, "bias_initializer": {"class_name": "Zeros", "config": {}}, "units": 3, "use_bias": true, "activity_regularizer": null}}, "trainable": true, "name": "time_distributed_5"}, "inbound_nodes": [[["lstm_5", 0, 0, {}]]], "name": "time_distributed_5"}, {"class_name": "TimeDistributed", "config": {"layer": {"class_name": "Dense", "config": {"kernel_initializer": {"class_name": "VarianceScaling", "config": {"distribution": "uniform", "scale": 1.0, "seed": null, "mode": "fan_avg"}}, "name": "dense_8", "kernel_constraint": null, "bias_regularizer": null, "bias_constraint": null, "activation": "relu", "trainable": true, "kernel_regularizer": null, "bias_initializer": {"class_name": "Zeros", "config": {}}, "units": 3, "use_bias": true, "activity_regularizer": null}}, "trainable": true, "name": "time_distributed_6"}, "inbound_nodes": [[["lstm_6", 0, 0, {}]]], "name": "time_distributed_6"}, {"class_name": "TimeDistributed", "config": {"layer": {"class_name": "Dense", "config": {"kernel_initializer": {"class_name": "VarianceScaling", "config": {"distribution": "uniform", "scale": 1.0, "seed": null, "mode": "fan_avg"}}, "name": "dense_9", "kernel_constraint": null, "bias_regularizer": null, "bias_constraint": null, "activation": "relu", "trainable": true, "kernel_regularizer": null, "bias_initializer": {"class_name": "Zeros", "config": {}}, "units": 3, "use_bias": true, "activity_regularizer": null}}, "trainable": true, "name": "time_distributed_7"}, "inbound_nodes": [[["lstm_7", 0, 0, {}]]], "name": "time_distributed_7"}, {"class_name": "TimeDistributed", "config": {"layer": {"class_name": "Dense", "config": {"kernel_initializer": {"class_name": "VarianceScaling", "config": {"distribution": "uniform", "scale": 1.0, "seed": null, "mode": "fan_avg"}}, "name": "dense_10", "kernel_constraint": null, "bias_regularizer": null, "bias_constraint": null, "activation": "relu", "trainable": true, "kernel_regularizer": null, "bias_initializer": {"class_name": "Zeros", "config": {}}, "units": 3, "use_bias": true, "activity_regularizer": null}}, "trainable": true, "name": "time_distributed_8"}, "inbound_nodes": [[["lstm_8", 0, 0, {}]]], "name": "time_distributed_8"}, {"class_name": "TimeDistributed", "config": {"layer": {"class_name": "Dense", "config": {"kernel_initializer": {"class_name": "VarianceScaling", "config": {"distribution": "uniform", "scale": 1.0, "seed": null, "mode": "fan_avg"}}, "name": "dense_11", "kernel_constraint": null, "bias_regularizer": null, "bias_constraint": null, "activation": "relu", "trainable": true, "kernel_regularizer": null, "bias_initializer": {"class_name": "Zeros", "config": {}}, "units": 3, "use_bias": true, "activity_regularizer": null}}, "trainable": true, "name": "time_distributed_9"}, "inbound_nodes": [[["lstm_9", 0, 0, {}]]], "name": "time_distributed_9"}, {"class_name": "TimeDistributed", "config": {"layer": {"class_name": "Dense", "config": {"kernel_initializer": {"class_name": "VarianceScaling", "config": {"distribution": "uniform", "scale": 1.0, "seed": null, "mode": "fan_avg"}}, "name": "dense_12", "kernel_constraint": null, "bias_regularizer": null, "bias_constraint": null, "activation": "relu", "trainable": true, "kernel_regularizer": null, "bias_initializer": {"class_name": "Zeros", "config": {}}, "units": 3, "use_bias": true, "activity_regularizer": null}}, "trainable": true, "name": "time_distributed_10"}, "inbound_nodes": [[["lstm_10", 0, 0, {}]]], "name": "time_distributed_10"}, {"class_name": "TimeDistributed", "config": {"layer": {"class_name": "Dense", "config": {"kernel_initializer": {"class_name": "VarianceScaling", "config": {"distribution": "uniform", "scale": 1.0, "seed": null, "mode": "fan_avg"}}, "name": "dense_13", "kernel_constraint": null, "bias_regularizer": null, "bias_constraint": null, "activation": "relu", "trainable": true, "kernel_regularizer": null, "bias_initializer": {"class_name": "Zeros", "config": {}}, "units": 3, "use_bias": true, "activity_regularizer": null}}, "trainable": true, "name": "time_distributed_11"}, "inbound_nodes": [[["lstm_11", 0, 0, {}]]], "name": "time_distributed_11"}, {"class_name": "TimeDistributed", "config": {"layer": {"class_name": "Dense", "config": {"kernel_initializer": {"class_name": "VarianceScaling", "config": {"distribution": "uniform", "scale": 1.0, "seed": null, "mode": "fan_avg"}}, "name": "dense_14", "kernel_constraint": null, "bias_regularizer": null, "bias_constraint": null, "activation": "relu", "trainable": true, "kernel_regularizer": null, "bias_initializer": {"class_name": "Zeros", "config": {}}, "units": 3, "use_bias": true, "activity_regularizer": null}}, "trainable": true, "name": "time_distributed_12"}, "inbound_nodes": [[["lstm_12", 0, 0, {}]]], "name": "time_distributed_12"}, {"class_name": "TimeDistributed", "config": {"layer": {"class_name": "Dense", "config": {"kernel_initializer": {"class_name": "VarianceScaling", "config": {"distribution": "uniform", "scale": 1.0, "seed": null, "mode": "fan_avg"}}, "name": "dense_15", "kernel_constraint": null, "bias_regularizer": null, "bias_constraint": null, "activation": "relu", "trainable": true, "kernel_regularizer": null, "bias_initializer": {"class_name": "Zeros", "config": {}}, "units": 3, "use_bias": true, "activity_regularizer": null}}, "trainable": true, "name": "time_distributed_13"}, "inbound_nodes": [[["lstm_13", 0, 0, {}]]], "name": "time_distributed_13"}, {"class_name": "TimeDistributed", "config": {"layer": {"class_name": "Dense", "config": {"kernel_initializer": {"class_name": "VarianceScaling", "config": {"distribution": "uniform", "scale": 1.0, "seed": null, "mode": "fan_avg"}}, "name": "dense_16", "kernel_constraint": null, "bias_regularizer": null, "bias_constraint": null, "activation": "relu", "trainable": true, "kernel_regularizer": null, "bias_initializer": {"class_name": "Zeros", "config": {}}, "units": 3, "use_bias": true, "activity_regularizer": null}}, "trainable": true, "name": "time_distributed_14"}, "inbound_nodes": [[["lstm_14", 0, 0, {}]]], "name": "time_distributed_14"}, {"class_name": "TimeDistributed", "config": {"layer": {"class_name": "Dense", "config": {"kernel_initializer": {"class_name": "VarianceScaling", "config": {"distribution": "uniform", "scale": 1.0, "seed": null, "mode": "fan_avg"}}, "name": "dense_17", "kernel_constraint": null, "bias_regularizer": null, "bias_constraint": null, "activation": "relu", "trainable": true, "kernel_regularizer": null, "bias_initializer": {"class_name": "Zeros", "config": {}}, "units": 3, "use_bias": true, "activity_regularizer": null}}, "trainable": true, "name": "time_distributed_15"}, "inbound_nodes": [[["lstm_15", 0, 0, {}]]], "name": "time_distributed_15"}, {"class_name": "TimeDistributed", "config": {"layer": {"class_name": "Dense", "config": {"kernel_initializer": {"class_name": "VarianceScaling", "config": {"distribution": "uniform", "scale": 1.0, "seed": null, "mode": "fan_avg"}}, "name": "dense_18", "kernel_constraint": null, "bias_regularizer": null, "bias_constraint": null, "activation": "relu", "trainable": true, "kernel_regularizer": null, "bias_initializer": {"class_name": "Zeros", "config": {}}, "units": 3, "use_bias": true, "activity_regularizer": null}}, "trainable": true, "name": "time_distributed_16"}, "inbound_nodes": [[["lstm_16", 0, 0, {}]]], "name": "time_distributed_16"}, {"class_name": "TimeDistributed", "config": {"layer": {"class_name": "Dense", "config": {"kernel_initializer": {"class_name": "VarianceScaling", "config": {"distribution": "uniform", "scale": 1.0, "seed": null, "mode": "fan_avg"}}, "name": "dense_19", "kernel_constraint": null, "bias_regularizer": null, "bias_constraint": null, "activation": "relu", "trainable": true, "kernel_regularizer": null, "bias_initializer": {"class_name": "Zeros", "config": {}}, "units": 3, "use_bias": true, "activity_regularizer": null}}, "trainable": true, "name": "time_distributed_17"}, "inbound_nodes": [[["lstm_17", 0, 0, {}]]], "name": "time_distributed_17"}, {"class_name": "TimeDistributed", "config": {"layer": {"class_name": "Dense", "config": {"kernel_initializer": {"class_name": "VarianceScaling", "config": {"distribution": "uniform", "scale": 1.0, "seed": null, "mode": "fan_avg"}}, "name": "dense_20", "kernel_constraint": null, "bias_regularizer": null, "bias_constraint": null, "activation": "relu", "trainable": true, "kernel_regularizer": null, "bias_initializer": {"class_name": "Zeros", "config": {}}, "units": 3, "use_bias": true, "activity_regularizer": null}}, "trainable": true, "name": "time_distributed_18"}, "inbound_nodes": [[["lstm_18", 0, 0, {}]]], "name": "time_distributed_18"}, {"class_name": "TimeDistributed", "config": {"layer": {"class_name": "Dense", "config": {"kernel_initializer": {"class_name": "VarianceScaling", "config": {"distribution": "uniform", "scale": 1.0, "seed": null, "mode": "fan_avg"}}, "name": "dense_21", "kernel_constraint": null, "bias_regularizer": null, "bias_constraint": null, "activation": "relu", "trainable": true, "kernel_regularizer": null, "bias_initializer": {"class_name": "Zeros", "config": {}}, "units": 3, "use_bias": true, "activity_regularizer": null}}, "trainable": true, "name": "time_distributed_19"}, "inbound_nodes": [[["lstm_19", 0, 0, {}]]], "name": "time_distributed_19"}, {"class_name": "TimeDistributed", "config": {"layer": {"class_name": "Dense", "config": {"kernel_initializer": {"class_name": "VarianceScaling", "config": {"distribution": "uniform", "scale": 1.0, "seed": null, "mode": "fan_avg"}}, "name": "dense_22", "kernel_constraint": null, "bias_regularizer": null, "bias_constraint": null, "activation": "relu", "trainable": true, "kernel_regularizer": null, "bias_initializer": {"class_name": "Zeros", "config": {}}, "units": 3, "use_bias": true, "activity_regularizer": null}}, "trainable": true, "name": "time_distributed_20"}, "inbound_nodes": [[["lstm_20", 0, 0, {}]]], "name": "time_distributed_20"}, {"class_name": "TimeDistributed", "config": {"layer": {"class_name": "Dense", "config": {"kernel_initializer": {"class_name": "VarianceScaling", "config": {"distribution": "uniform", "scale": 1.0, "seed": null, "mode": "fan_avg"}}, "name": "dense_23", "kernel_constraint": null, "bias_regularizer": null, "bias_constraint": null, "activation": "relu", "trainable": true, "kernel_regularizer": null, "bias_initializer": {"class_name": "Zeros", "config": {}}, "units": 3, "use_bias": true, "activity_regularizer": null}}, "trainable": true, "name": "time_distributed_21"}, "inbound_nodes": [[["lstm_21", 0, 0, {}]]], "name": "time_distributed_21"}, {"class_name": "TimeDistributed", "config": {"layer": {"class_name": "Dense", "config": {"kernel_initializer": {"class_name": "VarianceScaling", "config": {"distribution": "uniform", "scale": 1.0, "seed": null, "mode": "fan_avg"}}, "name": "dense_24", "kernel_constraint": null, "bias_regularizer": null, "bias_constraint": null, "activation": "relu", "trainable": true, "kernel_regularizer": null, "bias_initializer": {"class_name": "Zeros", "config": {}}, "units": 3, "use_bias": true, "activity_regularizer": null}}, "trainable": true, "name": "time_distributed_22"}, "inbound_nodes": [[["lstm_22", 0, 0, {}]]], "name": "time_distributed_22"}, {"class_name": "TimeDistributed", "config": {"layer": {"class_name": "Dense", "config": {"kernel_initializer": {"class_name": "VarianceScaling", "config": {"distribution": "uniform", "scale": 1.0, "seed": null, "mode": "fan_avg"}}, "name": "dense_25", "kernel_constraint": null, "bias_regularizer": null, "bias_constraint": null, "activation": "relu", "trainable": true, "kernel_regularizer": null, "bias_initializer": {"class_name": "Zeros", "config": {}}, "units": 3, "use_bias": true, "activity_regularizer": null}}, "trainable": true, "name": "time_distributed_23"}, "inbound_nodes": [[["lstm_23", 0, 0, {}]]], "name": "time_distributed_23"}, {"class_name": "TimeDistributed", "config": {"layer": {"class_name": "Dense", "config": {"kernel_initializer": {"class_name": "VarianceScaling", "config": {"distribution": "uniform", "scale": 1.0, "seed": null, "mode": "fan_avg"}}, "name": "dense_26", "kernel_constraint": null, "bias_regularizer": null, "bias_constraint": null, "activation": "relu", "trainable": true, "kernel_regularizer": null, "bias_initializer": {"class_name": "Zeros", "config": {}}, "units": 3, "use_bias": true, "activity_regularizer": null}}, "trainable": true, "name": "time_distributed_24"}, "inbound_nodes": [[["lstm_24", 0, 0, {}]]], "name": "time_distributed_24"}, {"class_name": "TimeDistributed", "config": {"layer": {"class_name": "Dense", "config": {"kernel_initializer": {"class_name": "VarianceScaling", "config": {"distribution": "uniform", "scale": 1.0, "seed": null, "mode": "fan_avg"}}, "name": "dense_27", "kernel_constraint": null, "bias_regularizer": null, "bias_constraint": null, "activation": "relu", "trainable": true, "kernel_regularizer": null, "bias_initializer": {"class_name": "Zeros", "config": {}}, "units": 3, "use_bias": true, "activity_regularizer": null}}, "trainable": true, "name": "time_distributed_25"}, "inbound_nodes": [[["lstm_25", 0, 0, {}]]], "name": "time_distributed_25"}, {"class_name": "TimeDistributed", "config": {"layer": {"class_name": "Dense", "config": {"kernel_initializer": {"class_name": "VarianceScaling", "config": {"distribution": "uniform", "scale": 1.0, "seed": null, "mode": "fan_avg"}}, "name": "dense_28", "kernel_constraint": null, "bias_regularizer": null, "bias_constraint": null, "activation": "relu", "trainable": true, "kernel_regularizer": null, "bias_initializer": {"class_name": "Zeros", "config": {}}, "units": 3, "use_bias": true, "activity_regularizer": null}}, "trainable": true, "name": "time_distributed_26"}, "inbound_nodes": [[["lstm_26", 0, 0, {}]]], "name": "time_distributed_26"}, {"class_name": "TimeDistributed", "config": {"layer": {"class_name": "Dense", "config": {"kernel_initializer": {"class_name": "VarianceScaling", "config": {"distribution": "uniform", "scale": 1.0, "seed": null, "mode": "fan_avg"}}, "name": "dense_29", "kernel_constraint": null, "bias_regularizer": null, "bias_constraint": null, "activation": "relu", "trainable": true, "kernel_regularizer": null, "bias_initializer": {"class_name": "Zeros", "config": {}}, "units": 3, "use_bias": true, "activity_regularizer": null}}, "trainable": true, "name": "time_distributed_27"}, "inbound_nodes": [[["lstm_27", 0, 0, {}]]], "name": "time_distributed_27"}, {"class_name": "TimeDistributed", "config": {"layer": {"class_name": "Dense", "config": {"kernel_initializer": {"class_name": "VarianceScaling", "config": {"distribution": "uniform", "scale": 1.0, "seed": null, "mode": "fan_avg"}}, "name": "dense_30", "kernel_constraint": null, "bias_regularizer": null, "bias_constraint": null, "activation": "relu", "trainable": true, "kernel_regularizer": null, "bias_initializer": {"class_name": "Zeros", "config": {}}, "units": 3, "use_bias": true, "activity_regularizer": null}}, "trainable": true, "name": "time_distributed_28"}, "inbound_nodes": [[["lstm_28", 0, 0, {}]]], "name": "time_distributed_28"}, {"class_name": "TimeDistributed", "config": {"layer": {"class_name": "Dense", "config": {"kernel_initializer": {"class_name": "VarianceScaling", "config": {"distribution": "uniform", "scale": 1.0, "seed": null, "mode": "fan_avg"}}, "name": "dense_31", "kernel_constraint": null, "bias_regularizer": null, "bias_constraint": null, "activation": "relu", "trainable": true, "kernel_regularizer": null, "bias_initializer": {"class_name": "Zeros", "config": {}}, "units": 3, "use_bias": true, "activity_regularizer": null}}, "trainable": true, "name": "time_distributed_29"}, "inbound_nodes": [[["lstm_29", 0, 0, {}]]], "name": "time_distributed_29"}, {"class_name": "TimeDistributed", "config": {"layer": {"class_name": "Dense", "config": {"kernel_initializer": {"class_name": "VarianceScaling", "config": {"distribution": "uniform", "scale": 1.0, "seed": null, "mode": "fan_avg"}}, "name": "dense_32", "kernel_constraint": null, "bias_regularizer": null, "bias_constraint": null, "activation": "relu", "trainable": true, "kernel_regularizer": null, "bias_initializer": {"class_name": "Zeros", "config": {}}, "units": 3, "use_bias": true, "activity_regularizer": null}}, "trainable": true, "name": "time_distributed_30"}, "inbound_nodes": [[["lstm_30", 0, 0, {}]]], "name": "time_distributed_30"}, {"class_name": "TimeDistributed", "config": {"layer": {"class_name": "Dense", "config": {"kernel_initializer": {"class_name": "VarianceScaling", "config": {"distribution": "uniform", "scale": 1.0, "seed": null, "mode": "fan_avg"}}, "name": "dense_33", "kernel_constraint": null, "bias_regularizer": null, "bias_constraint": null, "activation": "relu", "trainable": true, "kernel_regularizer": null, "bias_initializer": {"class_name": "Zeros", "config": {}}, "units": 3, "use_bias": true, "activity_regularizer": null}}, "trainable": true, "name": "time_distributed_31"}, "inbound_nodes": [[["lstm_31", 0, 0, {}]]], "name": "time_distributed_31"}, {"class_name": "TimeDistributed", "config": {"layer": {"class_name": "Dense", "config": {"kernel_initializer": {"class_name": "VarianceScaling", "config": {"distribution": "uniform", "scale": 1.0, "seed": null, "mode": "fan_avg"}}, "name": "dense_34", "kernel_constraint": null, "bias_regularizer": null, "bias_constraint": null, "activation": "relu", "trainable": true, "kernel_regularizer": null, "bias_initializer": {"class_name": "Zeros", "config": {}}, "units": 3, "use_bias": true, "activity_regularizer": null}}, "trainable": true, "name": "time_distributed_32"}, "inbound_nodes": [[["lstm_32", 0, 0, {}]]], "name": "time_distributed_32"}, {"class_name": "TimeDistributed", "config": {"layer": {"class_name": "Dense", "config": {"kernel_initializer": {"class_name": "VarianceScaling", "config": {"distribution": "uniform", "scale": 1.0, "seed": null, "mode": "fan_avg"}}, "name": "dense_35", "kernel_constraint": null, "bias_regularizer": null, "bias_constraint": null, "activation": "relu", "trainable": true, "kernel_regularizer": null, "bias_initializer": {"class_name": "Zeros", "config": {}}, "units": 3, "use_bias": true, "activity_regularizer": null}}, "trainable": true, "name": "time_distributed_33"}, "inbound_nodes": [[["lstm_33", 0, 0, {}]]], "name": "time_distributed_33"}, {"class_name": "TimeDistributed", "config": {"layer": {"class_name": "Dense", "config": {"kernel_initializer": {"class_name": "VarianceScaling", "config": {"distribution": "uniform", "scale": 1.0, "seed": null, "mode": "fan_avg"}}, "name": "dense_36", "kernel_constraint": null, "bias_regularizer": null, "bias_constraint": null, "activation": "relu", "trainable": true, "kernel_regularizer": null, "bias_initializer": {"class_name": "Zeros", "config": {}}, "units": 3, "use_bias": true, "activity_regularizer": null}}, "trainable": true, "name": "time_distributed_34"}, "inbound_nodes": [[["lstm_34", 0, 0, {}]]], "name": "time_distributed_34"}, {"class_name": "TimeDistributed", "config": {"layer": {"class_name": "Dense", "config": {"kernel_initializer": {"class_name": "VarianceScaling", "config": {"distribution": "uniform", "scale": 1.0, "seed": null, "mode": "fan_avg"}}, "name": "dense_37", "kernel_constraint": null, "bias_regularizer": null, "bias_constraint": null, "activation": "relu", "trainable": true, "kernel_regularizer": null, "bias_initializer": {"class_name": "Zeros", "config": {}}, "units": 3, "use_bias": true, "activity_regularizer": null}}, "trainable": true, "name": "time_distributed_35"}, "inbound_nodes": [[["lstm_35", 0, 0, {}]]], "name": "time_distributed_35"}, {"class_name": "TimeDistributed", "config": {"layer": {"class_name": "Dense", "config": {"kernel_initializer": {"class_name": "VarianceScaling", "config": {"distribution": "uniform", "scale": 1.0, "seed": null, "mode": "fan_avg"}}, "name": "dense_38", "kernel_constraint": null, "bias_regularizer": null, "bias_constraint": null, "activation": "relu", "trainable": true, "kernel_regularizer": null, "bias_initializer": {"class_name": "Zeros", "config": {}}, "units": 3, "use_bias": true, "activity_regularizer": null}}, "trainable": true, "name": "time_distributed_36"}, "inbound_nodes": [[["lstm_36", 0, 0, {}]]], "name": "time_distributed_36"}, {"class_name": "TimeDistributed", "config": {"layer": {"class_name": "Dense", "config": {"kernel_initializer": {"class_name": "VarianceScaling", "config": {"distribution": "uniform", "scale": 1.0, "seed": null, "mode": "fan_avg"}}, "name": "dense_39", "kernel_constraint": null, "bias_regularizer": null, "bias_constraint": null, "activation": "relu", "trainable": true, "kernel_regularizer": null, "bias_initializer": {"class_name": "Zeros", "config": {}}, "units": 3, "use_bias": true, "activity_regularizer": null}}, "trainable": true, "name": "time_distributed_37"}, "inbound_nodes": [[["lstm_37", 0, 0, {}]]], "name": "time_distributed_37"}, {"class_name": "TimeDistributed", "config": {"layer": {"class_name": "Dense", "config": {"kernel_initializer": {"class_name": "VarianceScaling", "config": {"distribution": "uniform", "scale": 1.0, "seed": null, "mode": "fan_avg"}}, "name": "dense_40", "kernel_constraint": null, "bias_regularizer": null, "bias_constraint": null, "activation": "relu", "trainable": true, "kernel_regularizer": null, "bias_initializer": {"class_name": "Zeros", "config": {}}, "units": 3, "use_bias": true, "activity_regularizer": null}}, "trainable": true, "name": "time_distributed_38"}, "inbound_nodes": [[["lstm_38", 0, 0, {}]]], "name": "time_distributed_38"}, {"class_name": "TimeDistributed", "config": {"layer": {"class_name": "Dense", "config": {"kernel_initializer": {"class_name": "VarianceScaling", "config": {"distribution": "uniform", "scale": 1.0, "seed": null, "mode": "fan_avg"}}, "name": "dense_41", "kernel_constraint": null, "bias_regularizer": null, "bias_constraint": null, "activation": "relu", "trainable": true, "kernel_regularizer": null, "bias_initializer": {"class_name": "Zeros", "config": {}}, "units": 3, "use_bias": true, "activity_regularizer": null}}, "trainable": true, "name": "time_distributed_39"}, "inbound_nodes": [[["lstm_39", 0, 0, {}]]], "name": "time_distributed_39"}, {"class_name": "TimeDistributed", "config": {"layer": {"class_name": "Dense", "config": {"kernel_initializer": {"class_name": "VarianceScaling", "config": {"distribution": "uniform", "scale": 1.0, "seed": null, "mode": "fan_avg"}}, "name": "dense_42", "kernel_constraint": null, "bias_regularizer": null, "bias_constraint": null, "activation": "relu", "trainable": true, "kernel_regularizer": null, "bias_initializer": {"class_name": "Zeros", "config": {}}, "units": 3, "use_bias": true, "activity_regularizer": null}}, "trainable": true, "name": "time_distributed_40"}, "inbound_nodes": [[["lstm_40", 0, 0, {}]]], "name": "time_distributed_40"}, {"class_name": "TimeDistributed", "config": {"layer": {"class_name": "Dense", "config": {"kernel_initializer": {"class_name": "VarianceScaling", "config": {"distribution": "uniform", "scale": 1.0, "seed": null, "mode": "fan_avg"}}, "name": "dense_43", "kernel_constraint": null, "bias_regularizer": null, "bias_constraint": null, "activation": "relu", "trainable": true, "kernel_regularizer": null, "bias_initializer": {"class_name": "Zeros", "config": {}}, "units": 3, "use_bias": true, "activity_regularizer": null}}, "trainable": true, "name": "time_distributed_41"}, "inbound_nodes": [[["lstm_41", 0, 0, {}]]], "name": "time_distributed_41"}, {"class_name": "TimeDistributed", "config": {"layer": {"class_name": "Dense", "config": {"kernel_initializer": {"class_name": "VarianceScaling", "config": {"distribution": "uniform", "scale": 1.0, "seed": null, "mode": "fan_avg"}}, "name": "dense_44", "kernel_constraint": null, "bias_regularizer": null, "bias_constraint": null, "activation": "relu", "trainable": true, "kernel_regularizer": null, "bias_initializer": {"class_name": "Zeros", "config": {}}, "units": 3, "use_bias": true, "activity_regularizer": null}}, "trainable": true, "name": "time_distributed_42"}, "inbound_nodes": [[["lstm_42", 0, 0, {}]]], "name": "time_distributed_42"}, {"class_name": "TimeDistributed", "config": {"layer": {"class_name": "Dense", "config": {"kernel_initializer": {"class_name": "VarianceScaling", "config": {"distribution": "uniform", "scale": 1.0, "seed": null, "mode": "fan_avg"}}, "name": "dense_45", "kernel_constraint": null, "bias_regularizer": null, "bias_constraint": null, "activation": "relu", "trainable": true, "kernel_regularizer": null, "bias_initializer": {"class_name": "Zeros", "config": {}}, "units": 3, "use_bias": true, "activity_regularizer": null}}, "trainable": true, "name": "time_distributed_43"}, "inbound_nodes": [[["lstm_43", 0, 0, {}]]], "name": "time_distributed_43"}, {"class_name": "TimeDistributed", "config": {"layer": {"class_name": "Dense", "config": {"kernel_initializer": {"class_name": "VarianceScaling", "config": {"distribution": "uniform", "scale": 1.0, "seed": null, "mode": "fan_avg"}}, "name": "dense_46", "kernel_constraint": null, "bias_regularizer": null, "bias_constraint": null, "activation": "relu", "trainable": true, "kernel_regularizer": null, "bias_initializer": {"class_name": "Zeros", "config": {}}, "units": 3, "use_bias": true, "activity_regularizer": null}}, "trainable": true, "name": "time_distributed_44"}, "inbound_nodes": [[["lstm_44", 0, 0, {}]]], "name": "time_distributed_44"}, {"class_name": "TimeDistributed", "config": {"layer": {"class_name": "Dense", "config": {"kernel_initializer": {"class_name": "VarianceScaling", "config": {"distribution": "uniform", "scale": 1.0, "seed": null, "mode": "fan_avg"}}, "name": "dense_47", "kernel_constraint": null, "bias_regularizer": null, "bias_constraint": null, "activation": "relu", "trainable": true, "kernel_regularizer": null, "bias_initializer": {"class_name": "Zeros", "config": {}}, "units": 3, "use_bias": true, "activity_regularizer": null}}, "trainable": true, "name": "time_distributed_45"}, "inbound_nodes": [[["lstm_45", 0, 0, {}]]], "name": "time_distributed_45"}, {"class_name": "TimeDistributed", "config": {"layer": {"class_name": "Dense", "config": {"kernel_initializer": {"class_name": "VarianceScaling", "config": {"distribution": "uniform", "scale": 1.0, "seed": null, "mode": "fan_avg"}}, "name": "dense_48", "kernel_constraint": null, "bias_regularizer": null, "bias_constraint": null, "activation": "relu", "trainable": true, "kernel_regularizer": null, "bias_initializer": {"class_name": "Zeros", "config": {}}, "units": 3, "use_bias": true, "activity_regularizer": null}}, "trainable": true, "name": "time_distributed_46"}, "inbound_nodes": [[["lstm_46", 0, 0, {}]]], "name": "time_distributed_46"}, {"class_name": "TimeDistributed", "config": {"layer": {"class_name": "Dense", "config": {"kernel_initializer": {"class_name": "VarianceScaling", "config": {"distribution": "uniform", "scale": 1.0, "seed": null, "mode": "fan_avg"}}, "name": "dense_49", "kernel_constraint": null, "bias_regularizer": null, "bias_constraint": null, "activation": "relu", "trainable": true, "kernel_regularizer": null, "bias_initializer": {"class_name": "Zeros", "config": {}}, "units": 3, "use_bias": true, "activity_regularizer": null}}, "trainable": true, "name": "time_distributed_47"}, "inbound_nodes": [[["lstm_47", 0, 0, {}]]], "name": "time_distributed_47"}, {"class_name": "TimeDistributed", "config": {"layer": {"class_name": "Dense", "config": {"kernel_initializer": {"class_name": "VarianceScaling", "config": {"distribution": "uniform", "scale": 1.0, "seed": null, "mode": "fan_avg"}}, "name": "dense_50", "kernel_constraint": null, "bias_regularizer": null, "bias_constraint": null, "activation": "relu", "trainable": true, "kernel_regularizer": null, "bias_initializer": {"class_name": "Zeros", "config": {}}, "units": 3, "use_bias": true, "activity_regularizer": null}}, "trainable": true, "name": "time_distributed_48"}, "inbound_nodes": [[["lstm_48", 0, 0, {}]]], "name": "time_distributed_48"}, {"class_name": "TimeDistributed", "config": {"layer": {"class_name": "Dense", "config": {"kernel_initializer": {"class_name": "VarianceScaling", "config": {"distribution": "uniform", "scale": 1.0, "seed": null, "mode": "fan_avg"}}, "name": "dense_51", "kernel_constraint": null, "bias_regularizer": null, "bias_constraint": null, "activation": "relu", "trainable": true, "kernel_regularizer": null, "bias_initializer": {"class_name": "Zeros", "config": {}}, "units": 3, "use_bias": true, "activity_regularizer": null}}, "trainable": true, "name": "time_distributed_49"}, "inbound_nodes": [[["lstm_49", 0, 0, {}]]], "name": "time_distributed_49"}, {"class_name": "TimeDistributed", "config": {"layer": {"class_name": "Dense", "config": {"kernel_initializer": {"class_name": "VarianceScaling", "config": {"distribution": "uniform", "scale": 1.0, "seed": null, "mode": "fan_avg"}}, "name": "dense_52", "kernel_constraint": null, "bias_regularizer": null, "bias_constraint": null, "activation": "relu", "trainable": true, "kernel_regularizer": null, "bias_initializer": {"class_name": "Zeros", "config": {}}, "units": 3, "use_bias": true, "activity_regularizer": null}}, "trainable": true, "name": "time_distributed_50"}, "inbound_nodes": [[["lstm_50", 0, 0, {}]]], "name": "time_distributed_50"}], "input_layers": [["input_1", 0, 0], ["input_2", 0, 0], ["input_3", 0, 0], ["input_4", 0, 0], ["input_5", 0, 0], ["input_6", 0, 0], ["input_7", 0, 0], ["input_8", 0, 0], ["input_9", 0, 0], ["input_10", 0, 0], ["input_11", 0, 0], ["input_12", 0, 0], ["input_13", 0, 0], ["input_14", 0, 0], ["input_15", 0, 0], ["input_16", 0, 0], ["input_17", 0, 0], ["input_18", 0, 0], ["input_19", 0, 0], ["input_20", 0, 0], ["input_21", 0, 0], ["input_22", 0, 0], ["input_23", 0, 0], ["input_24", 0, 0], ["input_25", 0, 0], ["input_26", 0, 0], ["input_27", 0, 0], ["input_28", 0, 0], ["input_29", 0, 0], ["input_30", 0, 0], ["input_31", 0, 0], ["input_32", 0, 0], ["input_33", 0, 0], ["input_34", 0, 0], ["input_35", 0, 0], ["input_36", 0, 0], ["input_37", 0, 0], ["input_38", 0, 0], ["input_39", 0, 0], ["input_40", 0, 0], ["input_41", 0, 0], ["input_42", 0, 0], ["input_43", 0, 0], ["input_44", 0, 0], ["input_45", 0, 0], ["input_46", 0, 0], ["input_47", 0, 0], ["input_48", 0, 0], ["input_49", 0, 0], ["input_50", 0, 0], ["input_51", 0, 0]], "output_layers": [["dense_2", 0, 0], ["time_distributed_1", 0, 0], ["time_distributed_2", 0, 0], ["time_distributed_3", 0, 0], ["time_distributed_4", 0, 0], ["time_distributed_5", 0, 0], ["time_distributed_6", 0, 0], ["time_distributed_7", 0, 0], ["time_distributed_8", 0, 0], ["time_distributed_9", 0, 0], ["time_distributed_10", 0, 0], ["time_distributed_11", 0, 0], ["time_distributed_12", 0, 0], ["time_distributed_13", 0, 0], ["time_distributed_14", 0, 0], ["time_distributed_15", 0, 0], ["time_distributed_16", 0, 0], ["time_distributed_17", 0, 0], ["time_distributed_18", 0, 0], ["time_distributed_19", 0, 0], ["time_distributed_20", 0, 0], ["time_distributed_21", 0, 0], ["time_distributed_22", 0, 0], ["time_distributed_23", 0, 0], ["time_distributed_24", 0, 0], ["time_distributed_25", 0, 0], ["time_distributed_26", 0, 0], ["time_distributed_27", 0, 0], ["time_distributed_28", 0, 0], ["time_distributed_29", 0, 0], ["time_distributed_30", 0, 0], ["time_distributed_31", 0, 0], ["time_distributed_32", 0, 0], ["time_distributed_33", 0, 0], ["time_distributed_34", 0, 0], ["time_distributed_35", 0, 0], ["time_distributed_36", 0, 0], ["time_distributed_37", 0, 0], ["time_distributed_38", 0, 0], ["time_distributed_39", 0, 0], ["time_distributed_40", 0, 0], ["time_distributed_41", 0, 0], ["time_distributed_42", 0, 0], ["time_distributed_43", 0, 0], ["time_distributed_44", 0, 0], ["time_distributed_45", 0, 0], ["time_distributed_46", 0, 0], ["time_distributed_47", 0, 0], ["time_distributed_48", 0, 0], ["time_distributed_49", 0, 0], ["time_distributed_50", 0, 0]], "name": "model_1"}, "backend": "tensorflow"}